defensive_model_t1.pth (torch_old, 179282 bytes, 10 tensors)

conv1.weight f4 [6, 1, 5, 5]
0.15175578 0.2992918 0.23604278 0.3667082 0.4871211 0.08756652 0.12855023 0.37850088
0.21363758 0.36023358 0.027796887 -0.1308428 0.017331466 -0.08522116 -0.25789008 -0.1189492
-0.33344266 -0.40052623 -0.36982593 -0.28271428 -0.18325683 -0.3005506 -0.09253738 -0.26749408
-0.031197937 -0.1692344 -0.021112517 -0.13360234 0.06076562 -0.14245646 -0.16179568 0.17525952
-0.09833757 -0.011499844 -0.007953689 0.007740391 0.0021675366 0.12013379 -0.18455036 -0.08078494
-0.11020603 0.17400159 -0.0885949 0.04746266 0.09698678 -0.06460059 0.0069327387 0.09621778
-0.16219653 0.05110023 0.0013656354 0.027727116 -0.13841064 0.10457694 -0.18733628 -0.08378135
-0.061130695 -0.16969593 -0.027844999 0.10453799 -0.19597259 0.063878305 0.038043175 0.17474306
-0.20176072 0.17669253 -0.15484928 0.16183138 0.09572098 -0.03326087 -0.088104166 -0.022967504
-0.20029001 -0.08775608 -0.0444358 -0.13462757 -0.13671215 -0.14957044 -0.09509608 0.076358505
0.065010466 -0.16192333 -0.05699747 0.107677795 -0.09472359 0.051019587 -0.16073388 -0.14719634
-0.0055528274 -0.14274468 0.19489728 0.042913213 0.051242653 0.07807631 -0.13885364 0.3354505
0.09498949 -0.007997015 -0.06990567 0.12654167 -0.03643554 -0.07252172 0.16019167 -0.08662571
-0.102588594 0.121509366 -0.101085246 0.1360062 0.011709628 -0.04721934 0.19114459 -0.15761498
0.13133104 -0.0486607 -0.1634526 -0.1008154 0.15464328 -0.075393185 -0.15820491 0.09499242
-0.08007227 0.050471537 -0.04101607 -0.057199974 -0.0016809162 0.044738185 0.20392665 0.34543005
0.72418904 0.36558715 0.08726422 0.53659225 1.0584397 1.1285508 0.52430797 0.19837679
0.5348296 0.9647619 0.92592627 0.19089007 -0.26670334 0.113264926 0.3366194 0.17166905
0.022872282 -0.24802764 -0.20194055 0.045702122 0.019067839 -0.10411366
00000000: de65 1b3e c63c 993e 33b5 713e 2dc1 bb3e
00000010: f067 f93e 1356 b33d aca2 033e deca c13e
00000020: cfc3 5a3e 8970 b83e 4cb6 e33c a8fb 05be
00000030: b8fa 8d3c 6e88 aebd 2b0a 84be a39b f3bd
00000040: ffb8 aabe c611 cdbe d359 bdbe edbf 90be
00000050: aea7 3bbe c5e1 99be 3d84 bdbd fcf4 88be
00000060: d192 ffbc c84b 2dbe 28f4 acbc 0dcf 08be
00000070: 5fe5 783d 1be0 11be c4ad 25be 3b77 333e
00000080: 3565 c9bd d769 3cbc 3150 02bc 1ba3 fd3b
00000090: 3b0d 0e3b b408 f63d c5fa 3cbe 9372 a5bd
000000a0: b3b3 e1bd 792d 323e 3e71 b5bd 3568 423d
000000b0: 01a1 c63d 504d 84bd 072c e33b d40d c53d
000000c0: d916 26be 7a4e 513d 1fff b23a fa23 e33c
000000d0: 85bb 0dbe 6f2c d63d 15d5 3fbe 8e95 abbd
000000e0: 2e64 7abd c5c4 2dbe 321b e4bc 0418 d63d
000000f0: 0aad 48be a1d2 823d 29d3 1b3d d8ef 323e
00000100: 5d9a 4ebe e3ee 343e cf90 1ebe 20b7 253e
00000110: 5c09 c43d 8d3c 08bd f56f b4bd 5926 bcbc
00000120: d318 4dbe 76b9 b3bd 5002 36bd cfdb 09be
00000130: 45fe 0bbe fe28 19be bcc1 c2bd d961 9c3d
00000140: 3524 853d 3bcf 25be 2e76 69bd 2d86 dc3d
00000150: 71fe c1bd eaf9 503d 6c97 24be a3ba 16be
00000160: 7ef4 b5bb a92b 12be 2793 473e c4c5 2f3d
00000170: d1e3 513d 79e6 9f3d a62f 0ebe 2bc0 ab3e
00000180: da89 c23d e905 03bc b42a 8fbd 2494 013e
00000190: 6f3d 15bd 4486 94bd 4909 243e d268 b1bd
000001a0: f819 d2bd e7d9 f83d c805 cfbd 3645 0b3e
000001b0: bdd9 3f3c 1169 41bd 68bb 433e d265 21be
000001c0: a57b 063e 7150 47bd 1e60 27be 4e78 cebd
000001d0: cf5a 1e3e be67 9abd 7800 22be 638b c23d
000001e0: eefc a3bd 3ebb 4e3d 7700 28bd 854a 6abd
000001f0: 3052 dcba 633f 373d 26d2 503e 35dc b03e
00000200: 7464 393f 3d2e bb3e 95b7 b23d 1c5e 093f
00000210: f47a 873f 5a74 903f 0c39 063f 4923 4b3e
00000220: 98ea 083f a3fa 763f 8109 6d3f b078 433e
00000230: 578d 88be 71f7 e73d 6159 ac3e 03ca 2f3e
00000240: a75e bb3c f5fa 7dbe 81c9 4ebe 2632 3b3d
00000250: 2834 9c3c 8b39 d5bd

conv1.bias f4 [6]
0.043758463 -0.11788146 -0.13451533 0.36583638 -0.07515825 0.022597108
00000000: 133c 333d d66b f1bd 63be 09be e84e bb3e
00000010: 92ec 99bd 921d b93c

conv2.weight f4 [16, 6, 5, 5]
0.057002835 -0.049868364 -0.0050109853 -0.001519097 -0.011615467 -0.051773764 -0.089761496 -0.09663889
0.019938968 -0.05258891 -0.08805442 -0.09448324 0.01102902 0.0584634 0.09314042 -0.019353097
-0.0914805 -0.010054815 0.10828163 0.07282153 0.014928992 -0.013405173 0.038360544 -0.074514925
-0.054492973 0.0357198 -0.030155197 -0.044859003 -0.00036229234 -0.06522276 0.07559467 -0.037669126
-0.029192341 -0.02456161 -0.025408182 -0.032879435 -0.040467273 0.0205141 -0.010393181 0.046340812
0.045617905 0.049354494 0.0489276 0.05742814 0.0056577316 0.027208807 0.060093075 -0.025853598
0.07887431 0.0418858 0.04822256 0.07494658 0.07618978 0.0283477 0.064171456 -0.06790985
0.059254616 0.010327065 0.017730786 0.040534347 0.014794369 0.011400673 -0.010675668 0.014292528
-0.07224211 0.056939702 0.07675294 0.022812169 -0.0036320959 0.041409146 -0.05901703 -0.041961055
-0.036669467 -0.069126956 -0.031594682 0.067206204 0.044356618 -0.07320158 0.044430494 0.07711403
-0.012112091 0.023934199 -0.057209097 -0.01701209 -0.02072412 -0.0020947338 0.027406981 -0.07879178
-0.056112867 -0.066597305 0.06685139 -0.04018063 0.09641197 0.043327734 0.043641042 -0.041233756
-0.034946814 0.06734682 -0.066683665 0.044656634 -0.049881008 0.04443371 0.06847882 -0.03675011
-0.04093536 -0.001232205 -0.007883926 -0.07919281 -0.060214702 0.033429943 0.037617076 0.08018203
0.05584334 0.079597704 0.021842932 -0.034900427 0.06846892 -0.052537113 0.030285725 -0.050852664
-0.011728611 -0.0028123872 -0.03761037 -0.07965004 -0.01573932 0.008849472 -0.09324369 -0.2750474
-0.21908367 0.08804187 -0.032411076 -0.060897347 -0.29114887 0.05087862 0.16511095 0.057422265
-0.17698221 -0.066417895 0.14878902 0.08131789 0.061408784 -0.09255416 0.20114353 0.16472168
0.012735116 0.015519619 0.078642756 0.09919103 -0.037357043 -0.17741208 -0.042025153 0.030806454
-0.09310682 -0.053636406 -0.076636784 0.09796417 -0.0028853894 0.0106873205 -0.025700796 -0.08392396
-0.019774444 -0.039226096 -0.005232197 -0.08722286 0.028342977 -0.064653575 0.019361917 -0.039706003
0.00925116 0.0072489055 -0.004052044 -0.0556563 0.025207127 -0.011380748 -0.045659486 0.0050131776
0.060860835 0.050684433 -0.009507381 0.048278756 -0.038523905 0.0402263 -0.04161738 -0.0044664936
0.016859706 0.05692846 0.013949368 -0.0336338 -0.05521781 0.026222657 0.028772376 0.04983969
-0.017046446 -0.05732326 0.013992469 -0.06533414 -0.011292366 0.053867444 -0.01086013 -0.045969784
0.056571536 -0.030019619 -0.020271009 0.021606276 0.052057035 0.02716515 -0.071146294 0.060722202
0.036526266 -0.008480532 0.019194486 0.025934987 0.054822635 -0.0038944653 0.045509595 -0.009318132
-0.060685813 0.05139522 -0.048296418 0.04808896 0.069088645 0.0655328 0.0045739673 0.029107075
0.04808932 0.005649895 0.006269804 0.08673353 -0.04058986 0.033000994 -0.030020077 -0.07174547
0.012883572 0.09312199 0.09253863 -0.037890077 -0.016403774 0.049907774 0.061871964 0.07729365
0.08465098 -0.02422851 -0.009595958 0.034960646 0.03572181 0.06933875 -0.035785463 -0.06674159
-0.07063907 -0.051151443 0.041187443 0.018061223 0.0091466755 0.012145103 0.009490352 -0.07659464
00000000: ce7b 693d c542 4cbd 3133 a4bb 701c c7ba
00000010: cd4e 3ebc ba10 54bd e0d4 b7bd 9cea c5bd
00000020: 0c57 a33c 7867 57bd e055 b4bd 6e80 c1bd
00000030: 10b3 343c 5177 6f3d 68c0 be3d 638a 9ebc
00000040: 215a bbbd f3bc 24bc c2c2 dd3d 7423 953d
00000050: bb98 743c 5fa1 5bbc f21f 1d3d 489b 98bd
00000060: 0634 5fbd ed4e 123d 0808 f7bc 13be 37bd
00000070: 0ef2 bdb9 8393 85bd 61d1 9a3d f14a 1abd
00000080: c724 efbc 6e35 c9bc d224 d0bc 96ac 06bd
00000090: 03c1 25bd 300d a83c 2948 2abc ddcf 3d3d
000000a0: d7d9 3a3d f027 4a3d 4f68 483d c539 6b3d
000000b0: 7e64 b93b 01e5 de3c 2824 763d edca d3bc
000000c0: db88 a13d 7290 2b3d 0585 453d 987d 993d
000000d0: 6309 9c3d 7039 e83c 536c 833d 5214 8bbd
000000e0: f8b4 723d da32 293c 2740 913c 5807 263d
000000f0: 1564 723c e3c9 3a3c ffe8 2ebc 352b 6a3c
00000100: acf3 93bd 9b39 693d a530 9d3d 96e0 ba3c
00000110: 7508 6ebb a39c 293d d7bb 71bd 5bdf 2bbd
00000120: b932 16bd 6f92 8dbd 6d69 01bd 68a3 893d
00000130: 49af 353d b6ea 95bd c0fc 353d f6ed 9d3d
00000140: cb71 46bc a711 c43c 1654 6abd f05c 8bbc
00000150: a1c5 a9bc cd47 09bb 9b84 e03c 965d a1bd
00000160: 9bd6 65bd 2b64 88bd 62e9 883d 7294 24bd
00000170: a473 c53d 6c78 313d f3c0 323d bae4 28bd
00000180: 6424 0fbd 21ed 893d 7291 88bd e0e9 363d
00000190: 0750 4cbd 1f00 363d a03e 8c3d 4987 16bd
000001a0: d6ab 27bd f081 a1ba 952b 01bc d72f a2bd
000001b0: b1a3 76bd d6ed 083d 5d14 1a3d 7a36 a43d
000001c0: fcbb 643d 1f04 a33d f3ef b23c c0f3 0ebd
000001d0: 6f39 8c3d 2831 57bd c519 f83c e24a 50bd
000001e0: 5c29 40bc 0750 38bb 550d 1abd 8f1f a3bd
000001f0: bfef 80bc 60fd 103c 8cf6 bebd 03d3 8cbe
00000200: 7857 60be 4c4f b43d 7ac1 04bd 7f6f 79bd
00000210: 7711 95be 1a66 503d d812 293e 9c33 6b3d
00000220: d33a 35be 1b06 88bd 265c 183e fe89 a63d
00000230: c787 7b3d 098d bdbd 92f8 4d3e cdac 283e
00000240: f3a6 503c 0046 7e3c 740f a13d ab24 cb3d
00000250: b303 19bd 83ab 35be 9122 2cbd d15d fc3c
00000260: caae bebd d9b1 5bbd bff3 9cbd 70a1 c83d
00000270: cd18 3dbb df19 2f3c 7a8a d2bc 53e0 abbd
00000280: 04fe a1bc 8bab 20bd da72 abbb e6a1 b2bd
00000290: 882f e83c 1869 84bd e29c 9e3c c3a2 22bd
000002a0: 2d92 173c 3a88 ed3b 02c7 84bb dcf7 63bd
000002b0: 2d7f ce3c 5176 3abc 7105 3bbd 9545 a43b
000002c0: 3649 793d 7b9a 4f3d d9c4 1bbc f2bf 453d
000002d0: 3ecb 1dbd 55c4 243d fc76 2abd aa5b 92bb
000002e0: 5e1d 8a3c d12d 693d e48b 643c 98c3 09bd
000002f0: 122c 62bd e6d0 d63c 0cb4 eb3c b424 4c3d
00000300: fda4 8bbc cbcb 6abd ab40 653c e8cd 85bd
00000310: 9e03 39bc 1ca4 5c3d b0ee 31bc d04a 3cbd
00000320: 8eb7 673d b4eb f5bc 630f a6bc a5ff b03c
00000330: c239 553d 7389 de3c 26b5 91bd d8b7 783d
00000340: 919c 153d eef1 0abc c13d 9d3c 9c75 d43c
00000350: b38d 603d 493a 7fbb 4568 3a3d 14ab 18bc
00000360: b091 78bd cb83 523d 77d2 45bd eef8 443d
00000370: 597e 8d3d 1036 863d 38e1 953b f671 ee3c
00000380: 4ff9 443d c122 b93b ee72 cd3b 59a1 b13d
00000390: 8e41 26bd 0d2c 073d aaec f5bc 4aef 92bd
000003a0: 9e15 533c beb6 be3d e584 bd3d a032 1bbd
000003b0: 3561 86bc 186c 4c3d 756d 7d3d 224c 9e3d
000003c0: 7e5d ad3d de7a c6bc 5d38 1dbc e532 0f3d
000003d0: 0851 123d 7901 8e3d c793 12bd d1af 88bd
000003e0: 37ab 90bd 2d84 51bd 2ab4 283d 21f5 933c
000003f0: f0db 153c 41fc 463c 6c7d 1b3c a7dd 9cbd

conv2.bias f4 [16]
5.81108e-05 -0.008691203 0.021483421 0.04913559 -0.06288383 0.07538196 -0.01641588 0.034210827
0.024497312 0.020615015 -0.027343802 0.1674666 -0.00541141 0.057508074 0.06681501 0.05681775
00000000: ffbb 7338 8c65 0ebc 00fe af3c 6742 493d
00000010: 3dc9 80bd db61 9a3d 987a 86bc a720 0c3d
00000020: 96ae c83c d2e0 a83c 1c00 e0bc 5d7c 2b3e
00000030: 3252 b1bb 968d 6b3d 4fd6 883d bbb9 683d

fc1.weight f4 [120, 256]
-0.029225444 -0.060290586 -0.0018090678 -0.05415927 -0.050031822 -0.03910269 0.043730766 0.050715614
0.06527198 -0.039270494 -0.003486999 0.0015362058 0.041566465 0.066340074 0.008213974 -0.011095061
0.035458207 -0.0479093 -0.00038573562 0.03360391 -0.013841486 -0.025393698 0.028681822 0.040273238
0.032090083 -0.032165535 -0.028578147 0.046725105 0.027024731 0.047676906 0.059855707 0.03414277
0.032622878 0.018159315 -0.042609066 0.0045299707 0.019160204 0.010136201 -0.020156732 -0.06190746
-0.043862868 0.070867114 0.0026736811 -0.020967193 -0.040492736 0.022271534 -0.052794207 -0.0027651328
0.007688419 -0.053139817 -0.05269851 0.028811742 0.023384612 0.045219257 -0.03588086 -0.05956664
0.046598002 0.009311763 -0.019181876 -0.06695823 -0.033995744 -0.018845355 0.049935788 -0.02094476
0.06207963 0.063631825 -0.0404849 0.045479417 0.030899465 -0.022669662 -0.016337037 0.060442235
0.05344478 -0.003564767 0.0024196 0.04099908 -0.014801157 -0.051207382 -0.049482547 0.016020292
0.05768692 -0.025521321 0.050329287 0.0040389714 0.022240644 -0.044999108 0.061239667 0.013921874
-0.05960045 0.025067464 -0.045487706 0.054155387 0.020929748 -0.00790706 -0.007118757 -0.0494171
-0.040186644 -0.0400579 -0.043552496 -0.0034109696 0.053294707 0.04093857 -0.0076862583 0.014309836
0.043236163 0.022696706 0.01988786 0.018268429 0.047604512 0.035812944 0.04146919 0.05038257
-0.02655161 0.051244415 -0.042280756 0.01663764 -0.0041354527 0.013173045 0.05808148 0.07494078
0.020592906 0.034846656 0.027365997 -0.0367756 0.07013793 -0.033644218 0.0028521111 0.027268589
-0.022606067 0.0018063099 0.067985296 0.002883438 0.008446584 -0.028284775 -0.035706785 0.024201512
0.0018835721 -0.03429008 -0.019754587 -0.017793987 0.078800455 0.049424067 0.038556196 0.010806309
-0.010304548 -0.0041027465 0.0029231398 0.020411693 0.01837987 0.029073054 0.036376968 0.05528812
-0.07888865 0.025140444 0.0126423845 0.03410113 -0.002221926 -0.03772035 0.008652657 -0.030599734
-0.022586139 0.071722075 -0.008690786 0.029744256 -0.03546881 0.070067026 0.06455997 0.0014205655
-0.014921823 0.008995981 0.008844081 0.008860963 0.0065325997 0.030726181 0.03992595 0.054649346
-0.036938038 0.004985513 -0.021170733 -0.04425109 0.047647405 0.024199292 0.058283534 0.075077616
-0.009936342 -0.02160514 -0.047004342 0.0012633847 0.035843343 -0.03706001 -0.001188824 -0.019702064
0.017282598 -0.026124867 -0.015273394 -0.00757804 0.019071806 0.018515244 -0.07084084 -0.048077304
-0.0043231593 0.0076652872 0.051382042 -0.05121925 -0.038880024 -0.059612636 0.06619426 0.057418045
0.051434144 0.05695533 0.014500148 -0.026423858 -0.05333251 -0.04673861 0.05284063 -0.034741133
0.028224364 0.034056686 -0.013890097 -0.049879298 0.008102146 -0.039989196 0.02419926 0.036663044
-0.03540684 -0.01713766 -0.05782117 -0.06126117 -0.024849955 0.038140446 -0.0693729 0.0047573447
0.0011553726 0.02851685 -0.021191794 -0.046513434 -0.012112402 -0.05099356 0.011122833 0.03305823
0.03915989 0.054326653 -0.031015014 0.020984879 -0.058002073 -0.024873905 -0.053049054 -0.014793978
-0.062169414 -0.030143037 0.03727807 -0.010329266 -0.025624793 -0.018314578 -0.0048046187 0.030091522
00000000: 336a efbc 43f3 76bd 3e1e edba 1cd6 5dbd
00000010: 2bee 4cbd 242a 20bd 081f 333d 2dbb 4f3d
00000020: 51ad 853d 19da 20bd 2386 64bb 835a c93a
00000030: 9941 2a3d 4edd 873d e793 063c 0fc8 35bc
00000040: a03c 113d 8b3c 44bd 8f3c cab9 41a4 093d
00000050: 66c7 62bc 7206 d0bc 24f6 ea3c 8df5 243d
00000060: e470 033d 02c0 03bd b81c eabc d362 3f3d
00000070: f862 dd3c dc48 433d 422b 753d 4ad9 0b3d
00000080: 919f 053d d8c2 943c d886 2ebd 2670 943b
00000090: dcf5 9c3c 4f12 263c bb1f a5bc ad92 7dbd
000000a0: 8da9 33bd c722 913d ed38 2f3b 64c3 abbc
000000b0: b6db 25bd cb72 b63c bd3e 58bd 3b37 35bb
000000c0: 22ef fb3b 23a9 59bd 65da 57bd 9a06 ec3c
000000d0: 1691 bf3c d437 393d cff7 12bd 26fc 73bd
000000e0: 8cdd 3e3d 5d90 183c 4f23 9dbc 6621 89bd
000000f0: 1f3f 0bbd 9361 9abc 7889 4c3d 5894 abbc
00000100: 3647 7e3d 6751 823d 7fd3 25bd a048 3a3d
00000110: e020 fd3c bab5 b9bc 40d5 85bc 4792 773d
00000120: eae8 5a3d de9e 69bb 2792 1e3b a7ee 273d
00000130: 8d80 72bc d5be 51bd 36ae 4abd fd3c 833c
00000140: 1f49 6c3d 1712 d1bc 1526 4e3d 5959 843b
00000150: 0332 b63c fc50 38bd 72d6 7a3d 9218 643c
00000160: 9a1f 74bd 485a cd3c 5151 3abd 0ad2 5d3d
00000170: dd74 ab3c 9d8c 01bc 7644 e9bb 9669 4abd
00000180: c09a 24bd c113 24bd 1a64 32bd 938a 5fbb
00000190: 8d4b 5a3d 34af 273d 02dd fbbb cd73 6a3c
000001a0: 6718 313d 71ee b93c deeb a23c aca7 953c
000001b0: f3fc 423d 98b0 123d 99db 293d f45d 4e3d
000001c0: c382 d9bc aae5 513d 962e 2dbd a94b 883c
000001d0: b182 87bb c1d3 573c d9e6 6d3d 8d7a 993d
000001e0: 74b2 a83c 5ebb 0e3d a82e e03c 03a2 16bd
000001f0: 7aa4 8f3d 85ce 09bd 7cea 3a3b 6062 df3c
00000200: 5c30 b9bc b4c1 ec3a e03b 8b3d 10f8 3c3b
00000210: 8b63 0a3c 79b5 e7bc 4741 12bd 4042 c63c
00000220: 31e2 f63a c173 0cbd 5fd4 a1bc b2c4 91bc
00000230: 2262 a13d e470 4a3d 1aed 1d3d f20c 313c
00000240: 68d4 28bc 5570 86bb 2692 3f3b 6c36 a73c
00000250: 6291 963c 9d2a ee3c 0400 153d cc75 623d
00000260: 5f90 a1bd 55f3 cd3c 0122 4f3c a0ad 0b3d
00000270: bc9d 11bb a780 1abd e0c3 0d3c 4bac fabc
00000280: 9106 b9bc 06e3 923d cc63 0ebc 3aaa f33c
00000290: be47 11bd 4d7f 8f3d 0438 843d 4532 ba3a
000002a0: a97a 74bc e163 133c c4e6 103c 932d 113c
000002b0: 6b0f d63b 79b5 fb3c 6589 233d fed7 5f3d
000002c0: 574c 17bd 845d a33b 3f6e adbc a240 35bd
000002d0: ed29 433d 983d c63c b7ba 6e3d 4bc2 993d
000002e0: 0acc 22bc 43fd b0bc a087 40bd 2898 a53a
000002f0: 78d0 123d 3dcc 17bd 50d2 9bba 3966 a1bc
00000300: 3c94 8d3c d103 d6bc 423d 7abc 3551 f8bb
00000310: 7a3c 9c3c 48ad 973c 0115 91bd b5ec 44bd
00000320: 4aa9 8dbb 172d fb3b fa75 523d 47cb 51bd
00000330: a940 1fbd 612c 74bd db90 873d 2f2f 6b3d
00000340: 9cac 523d fe49 693d 0792 6d3c d976 d8bc
00000350: 3173 5abd fc70 3fbd 6b6f 583d b84c 0ebd
00000360: c836 e73c 067f 0b3d 4a93 63bc 3c4e 4cbd
00000370: ddbe 043c b6cb 23bd 873d c63c fd2b 163d
00000380: c306 11bd 4764 8cbc e4d5 6cbd feec 7abd
00000390: 2292 cbbc 2839 1c3d 6113 8ebd 80e3 9b3b
000003a0: df6f 973a 2b9c e93c 6a9a adbc df84 3ebd
000003b0: 1973 46bc a0de 50bd 8b3c 363c 1168 073d
000003c0: 1f66 203d a085 5e3d 3313 febc 7be8 ab3c
000003d0: 9593 6dbd 5cc4 cbbc f749 59bd 7162 72bc
000003e0: 5ba5 7ebd 88ee f6bc e4b0 183d 153c 29bc
000003f0: 16eb d1bc 7408 96bc 1070 9dbb 7f82 f63c

fc1.bias f4 [120]
0.045944046 0.028543955 0.013137978 0.042614274 0.033118874 0.03865656 0.05793592 -0.053240523
0.060537755 -0.01662078 0.013740463 0.04780798 -0.02631724 0.051926464 0.048119616 -0.028898776
0.11198288 -0.042438548 -0.033406314 -0.039379474 0.04548987 -0.03903476 0.0143335955 -0.038655434
0.048000533 0.031859063 -0.019690024 0.06438784 -0.032380663 0.03381111 0.014993134 -0.04000788
-0.033315778 -0.049098384 -0.045069996 -0.0028383585 -0.016868513 -0.033455767 -0.009357503 -0.051895786
0.038102347 -0.048916433 -0.023375247 -0.049689602 -0.021339562 -0.0023353305 -0.02334785 -0.037750285
0.025226345 0.07004043 0.032138094 -0.015446528 -0.027349517 0.029670268 0.025334042 -0.028647924
0.028361453 0.06611678 -0.062268708 0.07962265 0.069810465 0.041611176 -0.04579819 0.0032395725
0.047222354 -0.045601543 0.07506865 -0.016085915 0.028819654 0.055579662 -0.05311042 -0.04577199
0.028603107 -0.037022363 0.0236392 -0.06393345 -0.05500357 0.035028685 0.06385289 -0.008781068
-0.050559 -0.045431472 -0.042574245 0.020390896 -0.053687207 0.0040621134 0.051673446 0.034215696
0.0448207 -0.0069305506 -0.03252702 -0.0013843761 -0.06796428 -0.012932706 0.084213346 -0.053713743
0.017962055 -0.05627997 -0.023194049 -0.042237766 -0.011242392 0.013382571 -0.04965711 -0.045177594
0.048686296 0.05629529 0.028582586 -0.040708542 -0.05796209 0.05300083 -0.003535803 0.010277023
0.0120058125 0.06263163 0.00010277319 0.018160608 0.072454624 0.06076919 0.061963875 -0.011603298
00000000: d32f 3c3d 03d5 e93c ac40 573c 4e8c 2e3d
00000010: a8a7 073d 5756 1e3d 374e 6d3d bc12 5abd
00000020: 70f6 773d 4d28 88bc ae1f 613c 4dd2 433d
00000030: 4197 d7bc d8b0 543d 1319 453d 20bd ecbc
00000040: 4857 e53d 0bd4 2dbd 0fd5 08bd 5f4c 21bd
00000050: 9653 3a3d eae2 1fbd 75d7 6a3c 2955 1ebd
00000060: 359c 443d a67e 023d f94c a1bc c6dd 833d
00000070: 96a1 04bd 857d 0a3d c3a5 753c 4edf 23bd
00000080: 2076 08bd 631b 49bd 519b 38bd c103 3abb
00000090: d62f 8abc ea08 09bd 3650 19bc ad90 54bd
000000a0: 3511 1c3d 995c 48bd 727d bfbc 5387 4bbd
000000b0: 4ed0 aebc 580c 19bb fe43 bfbc 0ba0 1abd
000000c0: 7ba7 ce3c 5b71 8f3d 3ca3 033d 6f13 7dbc
000000d0: 180c e0bc 100f f33c 5689 cf3c 0daf eabc
000000e0: 4756 e83c 3c68 873d 790d 7fbd 3311 a33d
000000f0: caf8 8e3d 7b70 2a3d e296 3bbd 024f 543b
00000100: 3a6c 413d afc8 3abd 98bd 993d 9cc6 83bc
00000110: 3217 ec3c 80a7 633d 508a 59bd 697b 3bbd
00000120: 1051 ea3c c3a4 17bd ffa6 c13c 8aef 82bd
00000130: 6c4b 61bd 3d7a 0f3d 4ec5 823d 78de 0fbc
00000140: f416 4fbd 5a16 3abd 5562 2ebd cf0a a73c
00000150: 1ee7 5bbd 7a1b 853b 89a7 533d c225 0c3d
00000160: e995 373d ac19 e3bb 0d3b 05bd f473 b5ba
00000170: db30 8bbd b3e3 53bc 0c78 ac3d f102 5cbd
00000180: 2925 933c d385 66bd 7201 bebc 8201 2dbd
00000190: 0232 38bc 9242 5b3c 4165 4bbd 240c 39bd
000001a0: 486b 473d e495 663d 0726 ea3c 00be 26bd
000001b0: a869 6dbd 6617 593d eeb8 67bb f560 283c
000001c0: 07b4 443c 0345 803d f087 d738 8ec5 943c
000001d0: 1763 943d 1de9 783d d5cd 7d3d c21b 3ebc

fc2.weight f4 [84, 120]
0.12473326 -0.060975023 -0.015333736 0.19333231 -0.019672666 0.016790047 0.015563222 -0.01202642
-0.030990329 -0.11433051 -0.07675858 0.13353945 0.07451102 -0.05449221 0.15856692 -0.067008816
0.0008789477 0.07118493 0.054167327 -0.032923922 -0.044738974 -0.018993992 -0.06337417 0.0781631
-0.0046764887 0.04399706 -0.01698006 -0.06779506 -0.07327517 0.04969355 -0.10902852 0.0357866
-0.03937856 0.03520951 -0.033146266 -0.07106467 -0.0050449506 -0.23760073 -0.08100607 0.035718773
-0.021935698 -0.009293818 0.011616243 -0.02888763 -0.03543588 0.07311441 -0.15202703 -0.07040198
0.06738715 0.06086851 -0.12564719 0.15763444 0.035022456 -0.051258545 -0.022573814 0.0032687613
0.08267084 0.12681541 0.061029255 0.10221621 0.04505312 -0.08099792 -0.064196385 0.0089542745
-0.03712228 -0.008513985 0.05482591 0.03142003 -0.11791089 0.009838129 -0.01509923 -0.005948593
0.08808966 0.0466121 -0.11763518 -0.011930026 -0.008866309 0.10390194 0.021158794 0.03576049
-0.008141138 0.065767005 -0.033261135 0.061431944 0.01180513 0.087062374 -0.061257243 -0.068891354
-0.079670504 0.094017304 -0.057958778 -0.064541414 0.048369035 -0.08112527 0.014807102 -0.011204766
-0.11581123 0.05919796 0.03220126 0.031679362 -0.010513481 0.11878854 -0.22879541 -0.1687375
-0.056878958 0.10089799 0.086389005 -0.10804478 -0.071889386 0.078135 0.026040707 -0.06844758
-0.03212205 -0.068537004 -0.11307579 -0.083840765 0.059384048 0.05445718 0.14593655 -0.07159465
-0.08724033 0.06746439 0.14808968 -0.04825817 0.1602047 -0.021778293 -0.11847243 0.034033444
-0.04053095 0.10335816 0.023343291 -0.07764945 -0.06726863 -0.013073461 -0.036533475 0.03821342
-0.036613993 0.051608898 -0.013409301 0.06084297 0.09629288 -0.10426232 -0.06669364 -0.051696043
0.12647316 -0.14658485 0.10424614 0.10883692 0.08137536 0.034508064 -0.056582153 -0.02822668
0.061820924 0.013394154 -0.033400584 -0.06277514 -0.07051115 -0.005746471 -0.0348104 0.014061665
-0.037282977 -0.07009115 0.009099621 -0.032987796 0.10053342 -0.025008528 0.15939154 -0.031682648
0.057063997 0.0146310385 0.15959652 0.11687878 0.05530874 -0.10613635 -0.0343361 0.019081948
0.012654277 -0.032605987 0.044376146 0.031427555 -0.12424873 -0.0054051005 -0.039603144 0.08411389
0.03654382 -0.016649013 -0.064854 -0.011693439 -0.037927106 0.1215848 -0.05721678 0.0049815523
-0.037041508 -0.054709125 0.11668752 -0.040828526 -0.0019276927 -0.06425183 0.13608886 -0.048686154
0.07808082 -0.05308525 0.07958369 0.022596925 0.028168185 0.1145421 -0.0042779804 0.041911516
-0.018133381 0.014963745 0.029691242 -0.07568726 0.028082347 -0.12548499 -0.009820389 0.0013991055
-0.089405224 0.05927633 -0.032537203 -0.07182895 0.017788665 0.060914136 0.019871047 0.14180174
-0.094594456 0.024980262 0.039231416 0.09754122 0.014195603 -0.026734734 -0.0031649508 0.033326007
-0.0532439 0.07017473 -0.13839647 -0.07849618 -0.03095812 0.055367228 0.0938179 0.074605614
0.0005447146 0.032279707 -0.1094112 -0.05834396 -0.12494003 0.056772776 0.022119217 0.0928665
-0.024660697 -0.069814116 -0.034899354 0.14187811 0.00093640864 -0.07679832 0.13070852 -0.04857465
00000000: 2774 ff3d f2c0 79bd 5a3a 7bbc e8f8 453e
00000010: 9228 a1bc 488b 893c e2fc 7e3c 760a 45bc
00000020: 6edf fdbc 1d26 eabd 9a33 9dbd 91be 083e
00000030: 3c99 983d 3933 5fbd 5e5f 223e eb3b 89bd
00000040: 2f69 663a 68c9 913d 8fde 5d3d 3cdb 06bd
00000050: 3740 37bd 4a99 9bbc 51ca 81bd fa13 a03d
00000060: 3b3d 99bb 4336 343d c419 8bbc 23d8 8abd
00000070: 4b11 96bd 778b 4b3d 584a dfbd f894 123d
00000080: 6a4b 21bd d937 103d 61c4 07bd 5b8a 91bd
00000090: 1d50 a5bb 9b4d 73be 83e6 a5bd d94d 123d
000000a0: 7eb2 b3bc 1945 18bc 0e52 3e3c c0a5 ecbc
000000b0: 3725 11bd 02bd 953d f9ac 1bbe ea2e 90bd
000000c0: 4602 8a3d 4251 793d a8a9 00be ec6a 213e
000000d0: b573 0f3d 7bf4 51bd b8ec b8bc b738 563b
000000e0: 544f a93d e6db 013e d0f9 793d bb56 d13d
000000f0: 9f89 383d 3de2 a5bd 6579 83bd f3b4 123c
00000100: 880d 18bd 3e7e 0bbc 2291 603d 4ab2 003d
00000110: 447b f1bd 1b30 213c c362 77bc 6aec c2bb
00000120: 5a68 b43d 54ec 3e3d b7ea f0bd 2876 43bc
00000130: ff43 11bc 8aca d43d 3555 ad3c 9779 123d
00000140: 6862 05bc dab0 863d d43c 08bd 10a0 7b3d
00000150: 4e6a 413c c24d b23d e0e8 7abd e916 8dbd
00000160: 4a2a a3bd 258c c03d 2f66 6dbd 4a2e 84bd
00000170: 9c1e 463d 0125 a6bd 7d99 723c 3294 37bc
00000180: 702e edbd 8f79 723d 78e5 033d 38c2 013d
00000190: bc40 2cbc 6847 f33d 5849 6abe 86c9 2cbe
000001a0: e9f9 68bd 9ba3 ce3d b8ec b03d 9546 ddbd
000001b0: be3a 93bd 3e05 a03d 5253 d53c 3f2e 8cbd
000001c0: 6992 03bd 215d 8cbd 4894 e7bd b5b4 abbd
000001d0: b03c 733d 7e0e 5f3d 6470 153e 37a0 92bd
000001e0: 0fab b2bd c52a 8a3d d2a4 173e 5caa 45bd
000001f0: b30c 243e 6468 b2bc aca1 f2bd a766 0b3d
00000200: c803 26bd 71ad d33d 6e3a bf3c ad06 9fbd
00000210: 23c4 89bd 1232 56bc 20a4 15bd ad85 1c3d
00000220: 8ef8 15bd da63 533d afb2 5bbc 7a36 793d
00000230: 3435 c53d 7c87 d5bd ad96 88bd 3bbf 53bd
00000240: 2e82 013e 571a 16be 007f d53d e4e5 de3d
00000250: 20a8 a63d 5458 0d3d b0c2 67bd a33b e7bc
00000260: f037 7d3d 2773 5b3c 0dcf 08bd 4190 80bd
00000270: 2668 90bd e54c bcbb 5a95 0ebd e662 663c
00000280: 09b6 18bd f38b 8fbd 9416 153c 361e 07bd
00000290: 77e4 cd3d afde ccbc 8937 233e aac5 01bd
000002a0: f0bb 693d 06b7 6f3c 456d 233e 245e ef3d
000002b0: 6b8b 623d 045e d9bd 03a4 0cbd bf51 9c3c
000002c0: e253 4f3c db8d 05bd c3c3 353d 2eba 003d
000002d0: 1e76 febd 451d b1bb e836 22bd e743 ac3d
000002e0: f9ae 153d 8363 88bc 2dd2 84bd d795 3fbc
000002f0: 7459 1bbd 7401 f93d 245c 6abd 4a3c a33b
00000300: d6b8 17bd ad16 60bd def9 ee3d d03b 27bd
00000310: a2aa fcba 7796 83bd e15a 0b3e 226b 47bd
00000320: d6e8 9f3d eb6f 59bd c6fc a23d 301d b93c
00000330: f7c0 e63c 0c95 ea3d 4d2e 8cbb 69ab 2b3d
00000340: 758c 94bc 7f2a 753c 0c3b f33c ec01 9bbd
00000350: f30c e63c 237f 00be b2e5 20bc 3162 b73a
00000360: 161a b7bd bdcb 723d bb45 05bd 0e1b 93bd
00000370: 89b9 913c 1a81 793d 9bc8 a23c 7a34 113e
00000380: bdba c1bd 68a3 cc3c 1fb1 203d b1c3 c73d
00000390: ad94 683c cd02 dbbc 106b 4fbb da80 083d
000003a0: 4716 5abd c5b7 8f3d ceb7 0dbe 9bc2 a0bd
000003b0: e29b fdbc bfc8 623d 9923 c03d d4ca 983d
000003c0: 2ecb 0e3a ba37 043d fb12 e0bd 14fa 6ebd
000003d0: 8fe0 ffbd 928a 683d 5c33 b53c cb30 be3d
000003e0: 3b05 cabc b4fa 8ebd a0f2 0ebd 7f48 113e
000003f0: 5279 753a 7048 9dbd 74d8 053e 36f6 46bd

fc2.bias f4 [84]
0.046340834 -0.02186165 0.1162692 0.081534296 -0.015315836 -0.041085437 0.042770457 -0.0018268152
-0.01628344 0.013975756 -0.056792766 0.08481468 -0.052662916 0.034860168 -0.07759627 -0.068813786
-0.04274371 0.058215294 0.07637394 0.0005348322 0.020077696 0.05042939 -0.00510369 -0.06989141
-0.04468472 -0.014914289 -0.038765572 -0.04757793 0.10931703 0.1482885 -0.07743962 -0.012845834
-0.08537094 0.048606344 -0.008124513 -0.029954024 0.07089615 0.0758283 0.06515825 -0.069278024
-0.082695656 0.07486721 -0.056097485 -0.0076119984 0.04292212 -0.040852472 -0.06944135 0.093632124
0.037731767 0.10498414 -0.042347614 -0.075452946 -0.060108233 -0.022234034 0.03838787 0.018014083
0.011546604 -0.070837595 -0.020436307 -0.08289817 0.07237541 -0.01824226 -0.037988957 0.088586204
0.092501834 0.0010336508 0.13514751 0.083098605 0.10786877 0.016832616 -0.019037195 -0.023188842
0.008829191 -0.06326095 -0.07595032 -0.04335228 0.005945178 0.09034112 0.01581639 -0.07193767
-0.056209996 -0.03623813 0.01088914 -0.03631346
00000000: e3cf 3d3d 3417 b3bc 8c1e ee3d 74fb a63d
00000010: 46ef 7abc 3449 28bd 1330 2f3d bf71 efba
00000020: d964 85bc 92fa 643c 889f 68bd 52b3 ad3d
00000030: 12b5 57bd 89c9 0e3d cbea 9ebd 3eee 8cbd
00000040: 0714 2fbd 2973 6e3d f169 9c3d fb33 0c3a
00000050: fb79 a43c 0c8f 4e3d db3c a7bb 3a23 8fbd
00000060: 5307 37bd 105b 74bc a6c8 1ebd 13e1 42bd
00000070: 9be1 df3d f1d8 173e aa98 9ebd 5577 52bc
00000080: f6d6 aebd 7217 473d ad1c 05bc 2462 f5bc
00000090: 0032 913d de4b 9b3d b071 853d a3e1 8dbd
000000a0: 575c a9bd fb53 993d 7ac6 65bd 126e f9bb
000000b0: 1bcf 2f3d ec54 27bd 4437 8ebd 33c2 bf3d
000000c0: a08c 1a3d ed01 d73d b174 2dbd 1387 9abd
000000d0: 0d34 76bd 2624 b6bc 993c 1d3d 4592 933c
000000e0: f82d 3d3c 4d13 91bd 0b6a a7bc 84c6 a9bd
000000f0: 8f39 943d cb70 95bc 4f9a 1bbd af6c b53d
00000100: 9a71 bd3d 917b 873a 1c64 0a3e 9a2f aa3d
00000110: 4dea dc3d 8ee4 893c e4f3 9bbc 87f6 bdbc
00000120: 50a8 103c f58e 81bd d78b 9bbd 2992 31bd
00000130: c5cf c23b c404 b93d 6091 813c 0f54 93bd
00000140: 743c 66bd 6f6e 14bd 5d68 323c 6cbd 14bd

fc3.weight f4 [10, 84]
-0.124437265 -0.036976896 0.018722534 -0.026788045 0.18520556 -0.110086024 -0.070332386 -0.016464444
-0.08704895 -0.06862929 0.28149122 0.07577771 0.027052678 -0.26357824 -0.091970176 0.08773354
-0.10258154 -0.037287287 0.04213492 0.27970105 0.02592738 -0.08416929 -0.09636859 -0.007926931
-0.06729753 -0.14059411 0.0075124805 0.052903116 -0.10633837 -0.15317464 0.0016653239 -0.026662422
0.09453546 -0.014298394 -0.03689945 -0.06459426 -0.20860955 -0.04210102 0.1083425 -0.07412942
0.016876554 -0.061047576 0.06079235 0.03453948 0.072720625 -0.06631889 0.1635646 -0.14804158
0.1101889 -0.18277737 -0.09198943 0.044980723 -0.036758527 0.12051906 0.0221409 -0.20545587
0.3614534 0.085031435 0.12497631 0.023644427 -0.080897294 0.005932052 -0.06111303 -0.14481199
-0.0506617 -0.08835609 -0.19226491 0.020018911 -0.28839085 0.092088275 -0.04263289 -0.0037837408
0.06004944 -0.10926173 -0.070644744 -0.057665154 0.2471392 -0.11896935 0.0658605 0.060350634
-0.08677006 0.049532827 0.06794706 0.045407366 -0.14137554 0.089324154 0.039313953 -0.16953212
-0.19443579 -0.07675613 0.07244555 -0.102909714 0.005265648 -0.025365025 0.041392677 -0.016025541
0.05535074 -0.003616578 0.006083238 0.089526415 -0.08679025 -0.133898 -0.06642662 -0.16983439
0.06268053 0.0954102 0.24988739 0.052745372 -0.010697559 -0.005084985 0.31876698 0.0977836
0.041773405 -0.039525002 0.018102195 0.09884198 -0.058212016 0.051464953 -0.10066966 0.0594847
0.07748309 0.10262916 -0.16288169 -0.16486074 -0.18730114 0.016450046 -0.0040241717 0.23769732
-0.0873057 -0.073660366 -0.31601414 -0.22831544 -0.05503754 0.0073902095 0.026129356 0.049722947
-0.0016588051 0.03859994 0.05752958 0.19723614 -0.06574442 -0.05832445 -0.08052535 -0.04704293
-0.12627897 0.10331345 0.023834446 -0.16922161 -0.040327337 0.016895603 -0.29232073 0.026178204
0.13312706 0.15912135 0.13244018 -0.0990683 -0.07022432 -0.0067399717 0.22905762 0.04567774
0.05260897 0.06577415 0.06555102 -0.15974328 0.09961438 0.04217336 0.31656232 0.09682452
-0.08516844 -0.009555749 -0.13997608 -0.027225297 -0.205947 -0.14117871 -0.020707406 0.0053683533
0.090994544 0.075573385 0.038307033 0.05168792 -0.071109205 -0.15059666 0.08893534 -0.015217691
0.094242096 -0.041332446 0.0100645 -0.17243144 -0.014381191 -0.0540838 -0.15267482 0.016309215
0.037404526 -0.19737832 0.07076779 0.035112247 0.100102335 -0.07438687 -0.048287738 0.08030363
0.07898551 0.051823005 0.047913134 -0.13725647 -0.15619123 0.063085414 -0.15812989 -0.006824717
0.19222033 0.07112826 -0.2353727 0.2476534 0.05140391 0.07486021 0.137225 0.056960363
-0.16899903 -0.0217052 0.017339855 0.063652605 0.07041397 0.099908665 0.06072907 0.075264394
-0.16607834 0.0701052 0.071174815 0.17446777 0.07530685 -0.060888935 0.023902753 0.038573276
-0.07019359 -0.074664354 -0.039472096 0.17494565 0.12124133 0.2620199 -0.0041359416 -0.03592001
-0.14081575 -0.18670596 -0.26379296 -0.13737004 0.08762971 -0.2149426 -0.14378001 0.08862677
-0.09052695 0.05513592 -0.04897548 0.28523827 -0.065292835 -0.043632388 -0.039778695 0.079140335
00000000: f7d8 febd 1675 17bd 0060 993c 9a72 dbbc
00000010: 87a6 3d3e c874 e1bd 6d0a 90bd 71e0 86bc
00000020: b846 b2bd 838d 8cbd 9e1f 903e 5831 9b3d
00000030: 949d dd3c baf3 86be dc5a bcbd a4ad b33d
00000040: 4516 d2bd 8eba 18bd aa95 2c3d fa34 8f3e
00000050: a865 d43c f360 acbd e55c c5bd f5df 01bc
00000060: 4ad3 89bd e7f7 0fbe 412b f63b f0b0 583d
00000070: eec7 d9bd d0d9 1cbe ff46 da3a 276b dabc
00000080: cf9b c13d d043 6abc e123 17bd ff49 84bd
00000090: be9d 55be 1f72 2cbd ace2 dd3d 2ad1 97bd
000000a0: b340 8a3c 060d 7abd 6601 793d 4579 0d3d
000000b0: 8dee 943d 33d2 87bd 7a7d 273e 3698 17be
000000c0: b8aa e13d fe29 3bbe f464 bcbd b53d 383d
000000d0: 1c90 16bd b2d2 f63d d560 b53c 0663 52be
000000e0: 6c10 b93e f624 ae3d 94f3 ff3d f5b1 c13c
000000f0: 7bad a5bd a961 c23b a851 7abd 9849 14be
00000100: a582 4fbd 0af4 b4bd 18e1 44be b3fe a33c
00000110: f7a7 93be c798 bc3d d39f 2ebd a3f8 77bb
00000120: 67f6 753d 9dc4 dfbd 31ae 90bd 4c32 6cbd
00000130: 0f12 7d3e 34a6 f3bd dfe1 863d 3a32 773d
00000140: 80b4 b1bd efe2 4a3d d427 8b3d 13fd 393d
00000150: c0c4 10be 95ef b63d ab07 213d d499 2dbe
00000160: 2d1a 47be 5132 9dbd 555e 943d 54c2 d2bd
00000170: 758b ac3b 50ca cfbc 5e8b 293d ff47 83bc
00000180: 75b7 623d 1c04 6dbb e655 c73b a059 b73d
00000190: 16bf b1bd 8f1c 09be ae0a 88bd 11e9 2dbe
000001a0: a65e 803d 6c66 c33d 7be2 7f3e 880b 583d
000001b0: d144 2fbc f29f a6bb 6d35 a33e c542 c83d
000001c0: 971a 2b3d f8e4 21bd 0e4b 943c aa6d ca3d
000001d0: b96f 6ebd eacc 523d e52b cebd 3ba6 733d
000001e0: 74af 9e3d 3d2f d23d 75ca 26be 41d1 28be
000001f0: dfcb 3fbe 3fc2 863c 33dd 83bb ed66 733e
00000200: 55cd b2bd 3fdb 96bd 9bcc a1be 86cb 69be
00000210: 0b6f 61bd 9229 f23b 3b0d d63c 4aaa 4b3d
00000220: 436c d9ba f81a 1e3d 23a4 6b3d 45f8 493e
00000230: 03a5 86bd 9ee5 6ebd 7aea a4bd 16b0 40bd
00000240: 464f 01be 0196 d33d 7540 c33c 6e48 2dbe
00000250: 472e 25bd a668 8a3c 10ab 95be ac73 d63c
00000260: 7652 083e b5f0 223e 669e 073e 52e4 cabd
00000270: c5d1 8fbd fbda dcbb 158e 6a3e 9518 3b3d
00000280: 817c 573d 99b4 863d 9d3f 863d be93 23be
00000290: a002 cc3d f9bd 2c3d 7514 a23e ef4b c63d
000002a0: cb6c aebd b78f 1cbc e455 0fbe 9607 dfbc
000002b0: c5e3 52be 2791 10be 94a2 a9bc 03e9 af3b
000002c0: 595b ba3d 38c6 9a3d d6e7 1c3d b6b6 533d
000002d0: b4a1 91bd 0336 1abe bb23 b63d 9f53 79bc
000002e0: 0002 c13d 364c 29bd 93e5 243c de91 30be
000002f0: 169f 6bbc fa86 5dbd ca56 1cbe e79a 853c
00000300: 7d35 193d 8b1d 4abe b4ee 903d dcd1 0f3d
00000310: 7402 cd3d 2558 98bd 5dc9 45bd 3b76 a43d
00000320: 28c3 a13d 5c44 543d 9040 443d f68c 0cbe
00000330: 98f0 1fbe ed32 813d cdec 21be e0a1 dfbb
00000340: 68d5 443e b1ab 913d 8b05 71be da98 7d3e
00000350: e88c 523d 4f50 993d b684 0c3e 454f 693d
00000360: 150e 2dbe 1bcf b1bc 500c 8e3c 4c5c 823d
00000370: 3335 903d ea9c cc3d 0cbf 783d 3824 9a3d
00000380: 7110 2abe 5193 8f3d 1ac4 913d aea7 323e
00000390: 7a3a 9a3d ad66 79bd b5cf c33c 03ff 1d3d
000003a0: a8c1 8fbd a0e9 98bd 7ead 21bd f424 333e
000003b0: 604d f83d 7927 863e cb86 87bb dc20 13bd
000003c0: 0132 10be d92f 3fbe df0f 87be bbaa 0cbe
000003d0: 3577 b33d ea19 5cbe 113b 13be f481 b53d
000003e0: 3266 b9bd 34d6 613d 839a 48bd c00a 923e
000003f0: 40b8 85bd e0b7 32bd fcee 22bd 5414 a23d

fc3.bias f4 [10]
-0.38338923 -0.157364 -0.23848657 -0.10155643 -0.017040452 0.20914789 -0.39871722 -0.017218951
0.14571227 -0.024709737
00000000: 984b c4be 0724 21be d335 74be d1fc cfbd
00000010: 6b98 8bbc dd2a 563e aa24 ccbe c20e 8dbc
00000020: 9935 153e 136c cabc
