defensive_model_t2.pth (torch_old, 179282 bytes, 10 tensors)

conv1.weight f4 [6, 1, 5, 5]
000000 cf 80 dd 3d e6 f8 8a bd 30 d5 27 bd b9 14 ed 3d
       0.10815584 -0.06785755 -0.040974796 0.11576218
000010 13 4f dc 3e e0 13 dd 3d cb b3 fb 3e 27 06 31 3f
       0.4302908 0.107948065 0.4916061 0.6915001
000020 99 87 cd 3e 70 04 2a 3f fd c8 da 3d f6 91 cf 3e
       0.40142515 0.6641302 0.10682867 0.40541047
000030 5c a0 14 3f 01 8e e3 3e 5c d8 0f 3f bd 44 52 be
       0.5805719 0.44444278 0.56189513 -0.20534034
000040 93 4b 5a be a7 89 95 bd 7c e9 70 bd f5 4a 92 3e
       -0.21317892 -0.07301646 -0.058816418 0.28572813
000050 3b da 7a be 68 19 4c bd b5 88 0e be 59 ca 2c be
       -0.24497311 -0.049828917 -0.13919337 -0.16874065
000060 34 09 57 bd dd da 02 be f3 12 53 bc b9 d9 5a 3e
       -0.05249901 -0.12778802 -0.012882936 0.21372117
000070 1a c9 28 3e 30 f4 22 3e 62 f2 1e 3d f9 21 88 3d
       0.16482964 0.15913463 0.038805373 0.06647105
000080 c3 3a 0b 3f 2a bc c9 3e 21 e0 8e 3c 31 34 34 3e
       0.5438654 0.3940137 0.017440857 0.17598034
000090 fa ed f7 3e c2 4a 39 3f f6 fd a7 3e 32 80 80 3e
       0.4842375 0.72379696 0.32810944 0.25097805
0000a0 6f b0 93 3e d1 58 10 3f 9b ee d6 3e 44 cc 88 3e
       0.28845546 0.56385523 0.41978917 0.26718342
0000b0 13 10 b0 3e a2 f6 87 3e 11 07 2a 3e 15 00 ee 3b
       0.34387264 0.26555353 0.16604258 0.0072631934
0000c0 7d 3e c1 3d 7d 32 3d be 60 fa 04 bc 76 eb a1 3e
       0.09435747 -0.18476291 -0.008116335 0.31624955
0000d0 10 04 88 3d 88 4d 9f 3e a7 6c 87 3e 2b 37 9e bd
       0.066414 0.3111384 0.26450083 -0.07725366
0000e0 a6 34 4e 3e f8 a1 cf 3d 0f 83 92 3e 8c e8 a4 bc
       0.20137271 0.10138315 0.28615615 -0.020130418
0000f0 06 e5 27 3e df 89 2a 3c c5 2d bd bd c6 53 c6 3d
       0.1639596 0.010408848 -0.092372455 0.09683947
000100 ea f7 27 3e 6e 29 21 3d 2b 32 23 be e6 8b 88 be
       0.16403165 0.03934615 -0.15937106 -0.26669234
000110 c8 c1 8d be d3 a0 42 be 6c 00 d8 bc e7 2e a0 bc
       -0.27686906 -0.19006662 -0.026367389 -0.019553615
000120 17 ec a2 bd 75 ab 8a be 4e c0 9e bd d3 ad 16 3e
       -0.07955187 -0.27083936 -0.07751523 0.14714746
000130 75 39 9b 3e 92 ab 84 3e 83 a0 23 be 21 0b c2 be
       0.30317274 0.25912148 -0.15979199 -0.37899116
000140 61 97 a0 3e c8 74 36 3f 89 c1 f1 3e e6 00 db 3c
       0.31365493 0.71271944 0.47217968 0.026733827
000150 27 32 35 3c 69 37 bc 3e 49 eb 32 3f 5d 7f 30 3f
       0.0110593205 0.36761025 0.69890267 0.6894434
000160 b9 24 c6 3e f5 87 27 be 2b 9b c6 3e c3 11 4c 3f
       0.38699892 -0.16360457 0.3879026 0.797146
000170 df 57 01 3f 8d a2 f8 3d 7d e6 3e 3e 11 f8 bb 3e
       0.50524706 0.12140379 0.18642612 0.36712697
000180 a4 e5 b0 3e 9a be 4a 3e 7f 6f eb 3d 33 45 53 3e
       0.34550202 0.19799271 0.114958756 0.20631866
000190 29 6d 16 be 47 63 80 3d 14 43 ae bb 37 4d e8 bd
       -0.14690079 0.06268936 -0.005318055 -0.113428526
0001a0 3d a4 1f bd 24 d6 31 3e 2a 7d b8 3d 05 ed 03 3d
       -0.03897499 0.17366844 0.09008248 0.03220846
0001b0 b3 b5 f8 bd f4 dd 2e be 8e ae 25 be e7 75 8f bd
       -0.121440314 -0.17076856 -0.16179869 -0.0700491
0001c0 dd bd 4b be 11 47 35 be cf 38 a6 3d ca 88 58 be
       -0.19896646 -0.17702891 0.08116304 -0.21145931
0001d0 6a 5e 2d be 20 ad 5f be 31 2a b4 bd 19 6f 9f bd
       -0.16930547 -0.21843386 -0.0879711 -0.07784862
0001e0 a0 5b 17 be e0 e9 c7 bd 44 a2 3e 3e 08 39 1f 3e
       -0.14781046 -0.09761405 0.18616587 0.155491
0001f0 51 70 0c 3d b2 0d 0d 3e 0e dc ea 3d 45 3e a0 3e
       0.0342868 0.13774756 0.11467753 0.31297508
000200 fe c9 a6 3d ae ad 5f bc 19 b0 df 3d 1e 50 c5 3d
       0.08143996 -0.013652248 0.1092226 0.09634422
000210 cc 51 e8 3e 9f 94 ae 3e 31 91 98 bd ac 45 3e 3e
       0.45374906 0.34097764 -0.07449568 0.18581265
000220 d0 db 1a 3e 4f f2 b9 3e 3b 81 a8 3e 16 ea 6b 3e
       0.15122914 0.3631768 0.32911095 0.23038515
000230 97 a9 3b be d9 31 da bd 08 4b 13 3d 68 21 72 3d
       -0.18326412 -0.10654039 0.035960227 0.05911389
000240 97 8d ca 3d ec d8 06 be 5f 76 0a bd a4 fc 51 be
       0.09890287 -0.13168687 -0.033804294 -0.20506531
000250 39 7b 17 be f8 57 8e 3d
       -0.147931 0.069503725

conv1.bias f4 [6]
000000 b7 c6 28 3d 6c d5 3e 3d 96 4d ad 3d 62 15 95 39
       0.041205134 0.046590254 0.08462064 0.00028435426
000010 a8 4f bb 3e bb ff cd 3c
       0.3658421 0.025146356

conv2.weight f4 [16, 6, 5, 5]
000000 9e 5c a5 bc d0 e1 df bd 69 c3 07 3d e7 60 0b bc
       -0.020185765 -0.10931742 0.033145342 -0.00850699
000010 ed c0 d4 3d b7 2f b0 bb eb 13 e1 bc eb e5 84 3d
       0.1038836 -0.005376782 -0.027475318 0.06489166
000020 47 9f ba bc 22 ae ab 3d ad c4 72 3c 39 24 86 3d
       -0.022781027 0.083828226 0.014817399 0.06549878
000030 f5 14 00 3e e1 77 80 bd 63 bd 11 bd b5 5f 71 3d
       0.12507994 -0.06272865 -0.035581004 0.058929164
000040 bf bf 27 bd 39 1f 21 be 00 f9 73 bd 07 a4 95 3c
       -0.040954348 -0.15734567 -0.059563637 0.01826669
000050 a1 03 43 3d ea 7a 87 bd 5c 49 e3 bd 90 03 fe 3a
       0.047610883 -0.06615241 -0.110979766 0.0019379724
000060 4e 34 cf 3c 0d 8d 5e bd 4e 29 d2 bd 49 35 0d 3e
       0.025293496 -0.054333735 -0.102617845 0.13789858
000070 be 15 2f 3e d3 9f d7 3d d1 ff 8c bd c0 f1 0c 3e
       0.17098138 0.10528531 -0.068847306 0.13764095
000080 25 51 56 3e 7f ee 18 3e 05 2c 63 3d 15 52 38 3e
       0.20929392 0.14934729 0.055461902 0.18000062
000090 a3 0c 6a 3e 8d 21 fd 3d c9 51 03 be 7c 04 8e bd
       0.22856383 0.12359915 -0.12824167 -0.06934449
0000a0 e5 b3 b2 3d 30 74 cf 3d d9 4f ca bd db d7 8e bd
       0.087257184 0.10129583 -0.09878511 -0.06974765
0000b0 54 3d 82 bd 1e ca a2 3d 31 47 a8 bd f5 6e a4 bd
       -0.06359354 0.07948707 -0.08216704 -0.08028976
0000c0 37 a1 cd bd 34 2c 1b 3d 3c 45 60 3d d0 76 e2 bc
       -0.10040515 0.037883952 0.054753527 -0.027644545
0000d0 8a cb 80 bd 08 6f 1c 3c be 8e 86 3d fa 49 ff bd
       -0.06288822 0.009547956 0.06570195 -0.12465282
0000e0 6f 6b 28 bd f6 b0 1d bd 41 67 11 bd 1c 88 a6 3d
       -0.04111808 -0.03849884 -0.03549886 0.081314296
0000f0 91 a9 b1 bd eb ab a7 3d 27 b0 b7 3c 25 9a be 3d
       -0.0867492 0.081870876 0.022422863 0.093067445
000100 f4 18 0c 3d d6 d2 e1 3c 92 46 9e 3d 07 ce d3 bb
       0.034203485 0.027566355 0.07728304 -0.0064637694
000110 94 99 d9 bb ad 01 d9 3c 7b 65 11 3d 3c 34 b6 bd
       -0.0066406224 0.026490057 0.03549717 -0.08896682
000120 dc ed 56 bd 43 87 a1 3c a7 1b 49 3d 41 d5 9a bd
       -0.052472934 0.019717818 0.049098637 -0.07560206
000130 fc f4 b1 bd ca db b3 3d e0 59 a9 3d 77 7a 00 3e
       -0.08689305 0.08782156 0.082690954 0.12546717
000140 68 8d 58 bd 1b 2a d1 3d 65 30 59 3e d0 19 1c 3d
       -0.05286923 0.10213109 0.21209867 0.038110554
000150 0c c3 b2 bd 7a bf 4a 3c 9f 73 68 3e 39 d8 bd 3d
       -0.087286085 0.012374753 0.22700356 0.09269757
000160 5a 56 97 bd 42 7f cd bd 9e f0 34 3d f5 e3 15 3e
       -0.07389517 -0.10034038 0.044174783 0.1463774
000170 bb 88 e9 bd 44 4c 73 be d1 a8 77 bd e2 2b b1 3d
       -0.114030324 -0.23759562 -0.06046373 0.08650948
000180 df 62 fa 3d 8b 0e 0a be e4 43 13 be ee 67 b2 bd
       0.122258894 -0.1348211 -0.14381367 -0.08711229
000190 23 58 80 3d 1f 20 60 3d b5 e5 b0 3c 39 ff 8e 3c
       0.06266811 0.054718133 0.021593908 0.017455684
0001a0 17 f5 07 3c c4 52 26 3d 49 28 ba 3c 4f 18 70 3d
       0.00829818 0.040606275 0.022724288 0.058616932
0001b0 ca bc 84 bd 02 a6 af 3d 39 36 8b bd 72 8c 56 bc
       -0.06481321 0.08576585 -0.067974515 -0.013095008
0001c0 c6 d8 f6 bb d8 ac af 3d 38 9b a9 3d aa ba 4e bd
       -0.0075331656 0.08577889 0.08281559 -0.050470985
0001d0 8c 98 8e bd 45 ab 8b 3c 27 8c 92 bd df 00 a3 3d
       -0.0696269 0.017049441 -0.07155638 0.079591505
0001e0 7a 53 78 bd a4 17 1b bd 7c c0 59 bd 68 d1 59 3c
       -0.060626484 -0.037864342 -0.053162083 0.013294555
0001f0 9d 41 32 3d 53 9f d0 bd c4 ae 88 bd af 6e 14 bd
       0.043519605 -0.10186639 -0.06673959 -0.03623837
000200 70 89 d3 3c e1 92 9e 3d 2d 09 6d 3c 45 61 8e bd
       0.025822371 0.07742859 0.01446752 -0.069521464
000210 ef 08 0a 3c f9 0c a1 bc d5 d6 ae 3d 61 70 80 bd
       0.0084249815 -0.019659506 0.0853707 -0.062714346
000220 83 b1 ab 3c dc 93 ee b9 6b 25 aa 3d 87 fd 3f bc
       0.020958668 -0.0004550506 0.08307918 -0.0117181605
000230 c3 c7 81 3d 5a e9 b0 3c c4 81 83 bd 31 11 93 3c
       0.0633693 0.021595646 -0.06421235 0.017952533
000240 64 22 99 3c da a4 39 3c e6 a6 74 3d 76 a8 fd bc
       0.018693157 0.011330808 0.05972948 -0.030964117
000250 06 81 d8 bd f9 df 30 bc b5 2a 9c bc b2 c2 3c bd
       -0.10571484 -0.010795587 -0.019063333 -0.046084113
000260 09 0c 92 bd d4 69 b3 3a 76 d7 2d bc 36 69 de 3a
       -0.07131202 0.0013688155 -0.010610452 0.0016968611
000270 cd 23 44 bc 8b 23 6b 3d 4f 0b 54 bd 3a 97 5b 3b
       -0.011971426 0.057406943 -0.051768597 0.0033506886
000280 90 fb 21 3d 21 f9 a4 bd 7a e9 9a bd 7d 04 7b 3d
       0.03954655 -0.0805533 -0.07564063 0.061283577
000290 91 c8 1b 3d cf d4 5f 3d 41 20 fd 3c c7 a8 7d 3d
       0.038033072 0.05464631 0.030899169 0.061928537
0002a0 a3 8c 7e bd 66 af 4d 3d 19 ba ce 3c 53 f6 f8 bc
       -0.06214584 0.0502161 0.025235223 -0.030390894
0002b0 60 98 9b bc 98 ab 06 3d 83 27 7a 3d ce 4f 7b bc
       -0.018993556 0.03287849 0.061072838 -0.015338851
0002c0 bd db 8f bd 6c cf 6c bd be 73 9f 3d 86 00 28 3c
       -0.070243336 -0.057815 0.07785748 0.010254031
0002d0 69 c2 9a bd 98 62 0c bd 94 cf 3a bd 46 4f 5d 3d
       -0.07556612 -0.034273714 -0.04560812 0.05403068
0002e0 3c 51 76 bd 4e 75 d0 3c d2 f4 93 3d ae 07 38 bd
       -0.060136065 0.02544656 0.0722443 -0.0449292
0002f0 c9 7b 50 3b 64 4f 93 bd 36 b7 9a bd 59 0d 15 bd
       0.0031812063 -0.07192877 -0.07554476 -0.036389682
000300 72 8a 4c 3d 74 64 11 bd fd a4 d8 bb 93 50 88 3c
       0.04993672 -0.03549619 -0.006611465 0.016639983
000310 2d f0 4d bd 0f e4 2e 3d ff 8e 9e 3a c8 5a a0 bd
       -0.050277878 0.042697962 0.001209706 -0.07829815
000320 a4 77 1b bd cd 6b c6 3b 60 7c 85 bd f1 01 a8 3a
       -0.037955895 0.0060553313 -0.06517863 0.0012817961
000330 1a 59 68 3c 2d cb 46 bc ef 4c 92 3d 1d be 3b bd
       0.0141814 -0.012133402 0.0714358 -0.045835603
000340 43 df 51 bd f5 d4 17 3b aa 44 8b bd e6 95 9a bd
       -0.05123831 0.0023167704 -0.06800206 -0.07548122
000350 bf c0 25 3d d5 ec 12 3d 44 90 97 bc 23 41 8e bd
       0.04046702 0.035870392 -0.018501408 -0.069460176
000360 41 00 16 bd 6d cc d4 3c 51 16 6a bd c0 08 2d bd
       -0.036621336 0.025976384 -0.05715019 -0.042244673
000370 1d d7 58 bd df 2e 54 3c a9 63 4d 3d 64 5b eb 3c
       -0.052939523 0.012950628 0.05014387 0.028730102
000380 51 d6 1b 3d 85 d7 8f bd 88 8b 98 3d 8a ac 4d 3c
       0.038046185 -0.07023529 0.074484885 0.012553344
000390 e0 e6 28 bd 32 06 ef bb 27 65 93 3d 7f cb b2 3c
       -0.041235805 -0.0072944397 0.07197028 0.02182555
0003a0 83 53 44 bd 32 e4 0f bd a8 04 66 bd cc 9f 9a 3d
       -0.047931205 -0.035129733 -0.056156784 0.0755001
0003b0 6a d7 f9 bc 87 1f 3a bd 10 1a 81 bd 04 2b 9b bd
       -0.030498225 -0.045440223 -0.06303799 -0.07576564
0003c0 5e 6c 01 3d 6e 08 3c 3c 74 54 80 bd c9 3a 29 bd
       0.031597488 0.011476619 -0.06266108 -0.041315828
0003d0 96 31 02 bd be b8 f9 bb 87 28 ee bc 97 c4 05 3d
       -0.03178557 -0.0076209 -0.02907206 0.032658186
0003e0 02 50 07 3d eb 3f 49 3d 78 6e ae 3c 0d b9 80 bb
       0.033035286 0.049133223 0.02129291 -0.00392831
0003f0 80 73 89 bd 95 67 22 bc f4 fe b4 39 1e 61 16 bd
       -0.06711483 -0.009912391 0.0003452223 -0.036713712

conv2.bias f4 [16]
000000 9d 67 85 bd 4e bc 27 3c fe 4e 7e bd c4 d1 36 bc
       -0.06513903 0.010237766 -0.06208705 -0.01115841
000010 c8 bb 88 3d 58 a6 a0 bd e4 b3 2f bd 4a fa 01 3c
       0.066764414 -0.078442276 -0.042896166 0.007933209
000020 dc 63 50 3d 43 2b 34 bc 5a b5 43 bd a5 04 b8 3d
       0.050876483 -0.0109966425 -0.047780372 0.08985261
000030 58 a7 8e 3d 99 ab e5 3c df 18 a5 bc 2b 53 9a 3d
       0.06965512 0.028035926 -0.020153461 0.07535394

fc1.weight f4 [120, 256]
000000 44 84 4a 3c fc f6 9c bc 4a 46 2c bc b3 4b 85 3c
       0.012360636 -0.01916074 -0.010514805 0.016271448
000010 3d 3c 27 3a 9a 75 15 3d 77 a5 0f 3d 30 31 f9 3c
       0.00063795206 0.036489107 0.03506991 0.030418962
000020 f3 0b bb 3d 70 7b e3 3d 02 10 5a 3c 5e e4 55 3d
       0.091331385 0.11107528 0.013309481 0.05221974
000030 b3 e0 63 3d f4 b7 82 3d a1 78 c7 bd c2 e1 95 bd
       0.05563421 0.063827425 -0.09739805 -0.073184505
000040 03 ce 39 3d 2e 18 4b 3d 8c f8 23 3d 3b bf 1c 3d
       0.045362484 0.049583606 0.040031955 0.03826831
000050 b1 d1 02 bd c1 8f 72 3c 0b 54 3b 3d 55 0e cc bc
       -0.03193826 0.014804781 0.045734446 -0.024909178
000060 76 a7 f4 3c d6 26 53 bd 46 13 e8 bc 40 b3 24 3c
       0.029865008 -0.05155071 -0.028329503 0.010052502
000070 f9 04 df bb 39 db 14 bd f4 ec 57 bd ce 73 33 bd
       -0.0068060127 -0.03634188 -0.05271621 -0.04381161
000080 ca a9 9b bc 42 fe a5 3d e0 b4 cc bc bc 28 3c bd
       -0.01900186 0.081051365 -0.024988592 -0.045937285
000090 6f 33 c4 3d 7d ab 70 bc cd 62 70 bd ca 5b f4 3c
       0.09580123 -0.0146893235 -0.058687974 0.029828925
0000a0 30 1e d2 bc ed 71 80 bd fd e9 94 3d 21 86 30 3a
       -0.02564916 -0.062717296 0.07271192 0.0006733854
0000b0 e6 91 52 bd 44 17 6f bd f9 aa 7f bd c1 f6 3a 3d
       -0.05140867 -0.058371797 -0.06241891 0.04564548
0000c0 ec 92 96 bc 16 fa 60 3d a6 e7 39 bd 87 7e 52 bd
       -0.018380605 0.054926 -0.045386933 -0.051390197
0000d0 34 ca 85 3c 6e 78 78 3a 75 1e 40 bd 34 6b ff bc
       0.01633177 0.00094783946 -0.046904046 -0.031179048
0000e0 96 77 5d bd 2a 64 11 3d 07 2e cb ba c6 c9 ea 3b
       -0.054069124 0.035495915 -0.0015501388 0.0071651665
0000f0 6c 50 ce 3c fc ac 24 3c dd 25 cd bc 65 7c 89 3c
       0.025184833 0.010051008 -0.025042469 0.016782949
000100 59 fe 90 3c 1f 93 2f 3d 5a 8c 94 bd 75 3d 53 3d
       0.017699407 0.042864915 -0.072533324 0.051572282
000110 0d 48 d0 bc 61 78 ef bc 45 58 7d bd 81 e6 df bc
       -0.025424981 -0.029232206 -0.06185176 -0.027331593
000120 3e 69 16 3d 7c f6 a7 3d 61 95 d4 3b ef e6 60 3d
       0.03672146 0.0820131 0.006487534 0.054907735
000130 aa a7 ca bb 68 4c e8 bc ec 76 bd bb bb b2 d3 3c
       -0.006184538 -0.028356746 -0.005781999 0.025842061
000140 6a e3 b7 bc c3 58 98 bc 19 c8 ad 3c fe 36 b5 bc
       -0.022447307 -0.018597012 0.021213578 -0.022120949
000150 c0 f5 71 3d 76 13 46 bd 5b ec 13 bd 8a 4f 9c 3c
       0.059072256 -0.048358403 -0.036114078 0.019080896
000160 05 5d 39 3c 2c 87 79 bd e4 de 54 bd 3e 5a db bc
       0.0113136815 -0.060919926 -0.051970378 -0.02677643
000170 b5 ad 48 3c da f8 41 bc e2 4c 96 3c 4b be 4f 3c
       0.012248446 -0.011839116 0.018347207 0.012679647
000180 f1 3f 58 3c d9 03 3d bc 30 41 e2 bc f0 0e ae bc
       0.013198839 -0.011536562 -0.027618974 -0.021247357
000190 55 20 2b 3c ec b2 c4 bc 40 47 25 bc a7 17 19 3d
       0.01044472 -0.024011098 -0.010087788 0.037376072
0001a0 f9 fc d8 3a d3 bf 30 3d a6 46 93 bc 15 27 02 bb
       0.0016554884 0.043151688 -0.017978024 -0.001985972
0001b0 f2 59 ba bc 69 30 5c bd 73 e1 48 bd c8 e5 8b bc
       -0.022747967 -0.053757105 -0.04904313 -0.017077342
0001c0 5f cc f2 3c 77 ec 96 3d 21 96 14 bd b2 84 c1 bb
       0.029638467 0.07369321 -0.036275987 -0.005905711
0001d0 b6 e1 6e 3d 4d a8 bc 3c c2 1a 12 3c 1b 6c 4d 3d
       0.058320723 0.02302947 0.008917512 0.050151926
0001e0 b1 92 aa bd 5d 46 52 3d 60 cc ad 3c 38 e5 a3 bc
       -0.083287604 0.051336635 0.021215618 -0.020006761
0001f0 59 a3 50 bd db cf 5a bd ae 1b 10 3b 39 43 12 3d
       -0.05093703 -0.053420883 0.0021989155 0.03570864
000200 55 a8 84 3d cc 83 e8 bb 11 05 f1 bb a5 9f 97 3c
       0.06477419 -0.0070957895 -0.0073553403 0.018508742
000210 79 bd db 3b 9a 45 7c bc 64 2e b4 3c ef 72 35 bc
       0.0067059365 -0.015397454 0.021994777 -0.011074766
000220 16 b0 db bb c7 a3 09 3d 36 2e 3c bd 93 3b 87 bc
       -0.0067043407 0.033603456 -0.045942508 -0.0165079
000230 ba 08 2e 3b ef 4e 13 bd 7b bf fd bc 2c eb 93 3c
       0.0026555494 -0.03596395 -0.030975094 0.018056475
000240 2e 6c 40 3d 67 2c f6 ba 81 38 80 3c 60 16 4f 3d
       0.04697817 -0.0018781543 0.015651943 0.050558448
000250 b5 ea ae bc 4d 8a c7 3d 33 c0 07 3c 8c 9b f7 bc
       -0.021352151 0.09743176 0.00828557 -0.030225538
000260 91 e7 d5 3b cd d5 b0 ba de 00 85 3a 86 0f 3b 3d
       0.006527849 -0.0013491452 0.0010147353 0.0456691
000270 55 a8 1c bd 04 82 92 bc 2b 2c 04 bd 8c ad df 3c
       -0.03824647 -0.017884262 -0.032268684 0.027304433
000280 49 30 65 3d 2e 57 8c 3b 48 5c 1f 3d 20 67 c5 3d
       0.05595425 0.0042828536 0.038906366 0.0963881
000290 05 8d 80 3d a5 1d 2a 3d af d4 2e bc 99 43 e3 bc
       0.06276897 0.041532177 -0.010670825 -0.027742194
0002a0 89 0b 9c 3c 0a 3b f0 3a 6f 43 58 3c a2 b0 a7 bd
       0.01904847 0.0018328142 0.013199671 -0.08187987
0002b0 aa 27 51 bc 81 5b a0 bc 78 b4 52 bc bf ec 84 3d
       -0.012765804 -0.019574882 -0.01286041 0.06490468
0002c0 87 5c 60 3d 9a d6 80 3d f0 3d 07 bd 5c 2f 37 bd
       0.05477574 0.06290932 -0.033018053 -0.0447229
0002d0 3b d3 84 3d 4c be 3c 3c 9e 88 51 3d 0e eb 34 3c
       0.064856015 0.01151998 0.05115568 0.0110423695
0002e0 09 ea 47 3d 0f 88 b1 3d 8d 0c 35 bc 48 3e 89 3d
       0.048807178 0.08668529 -0.011050356 0.06701332
0002f0 e4 84 d8 3d 62 4a c9 3d 8c 78 a5 bb 53 09 c3 bc
       0.10572222 0.098286405 -0.0050497707 -0.023808157
000300 3f 36 78 3c 7b d3 b1 3c 2c 42 c0 bb bc 13 3d 3d
       0.015149652 0.021707287 -0.0058672633 0.0461614
000310 4e b4 b9 3c b5 a4 cf bc fe 16 ab bc 45 6d 3d 3d
       0.022668984 -0.025347093 -0.020884987 0.046246786
000320 e4 10 85 bb 9c 84 2f bb c8 74 ca 3c 57 c7 27 3d
       -0.0040608514 -0.0026781922 0.024713889 0.04096159
000330 f7 78 d3 bc b4 22 11 bc 46 23 98 bd 01 b7 09 bd
       -0.025814516 -0.0088583715 -0.07428603 -0.03362179
000340 fb 5f cb 3d 63 48 90 3d ca 69 04 bd 25 c6 84 3d
       0.09930416 0.07045057 -0.03232745 0.064831056
000350 81 66 bd 3d de 63 fc 3c 19 3a eb 3c ae 1b 19 bc
       0.09248067 0.03080934 0.028714227 -0.009344978
000360 3a df 3b bd e8 b2 06 3c 7b 7d 9d bc 2d 3b 5e 3d
       -0.045867182 0.0082213655 -0.019224873 0.054255653
000370 5d 59 97 bd b9 70 9a bd f0 dd 26 bd bc 57 41 3d
       -0.073900916 -0.075410314 -0.040739 0.04720281
000380 22 8e 24 bd 5b 1a e1 bc f8 a6 c7 bb 77 7b 32 bc
       -0.04017461 -0.027478388 -0.0060929023 -0.010893694
000390 a5 95 fd 3c 98 7b e0 3b db ff e4 3c bf a5 4a bc
       0.030955145 0.006850671 0.027954033 -0.0123686185
0003a0 ff 9a 14 bd 7f a5 f9 bc 21 8a 81 bd 88 bf b1 bc
       -0.03628063 -0.030474422 -0.06325174 -0.021697775
0003b0 db 36 dc bc 78 8b 4f 3d be 44 4b ba 8d c4 62 3c
       -0.026881626 0.050670117 -0.0007754079 0.013840807
0003c0 c2 17 b6 3c 41 ee f0 3c fa 43 09 bd c3 b1 55 bd
       0.022228125 0.029410483 -0.033512093 -0.05217148
0003d0 29 1c 1f bd 94 8e 13 bc 7b 44 89 3b 93 0b 27 3d
       -0.038845215 -0.009006161 0.0041890717 0.040782522
0003e0 3d 29 c0 bc 4c 34 e5 bb 3c 2c 86 3d a6 23 ac 3c
       -0.023457164 -0.0069947597 0.06551406 0.021013092
0003f0 45 c9 36 3d 67 fa 3e bc 26 13 3d bc 36 4e 6f 3c
       0.04462554 -0.01165638 -0.01154021 0.014606049

fc1.bias f4 [120]
000000 58 41 c7 bc 30 d3 15 bd 48 c7 40 bd 6d c9 5d 3d
       -0.02432315 -0.036578357 -0.04706505 0.054147173
000010 31 4c d2 bc b4 cf 49 3a 5a 4e b4 3c e6 62 cb bc
       -0.025671097 0.00076984917 0.022010017 -0.024827432
000020 31 ff be bc a4 06 04 bd 78 42 33 bd 3a a3 ee bc
       -0.023315044 -0.032232895 -0.04376456 -0.029130567
000030 0f 98 04 bd d5 e6 06 3c 7c 1d 1d bd 94 6e 1d 3d
       -0.032371577 0.008233746 -0.038358197 0.038435534
000040 92 91 46 bc cb 07 a1 3b be 94 8a 3d 6b 11 66 3d
       -0.012119668 0.004914259 0.067666516 0.056168955
000050 4e 2c ba 38 4f d6 eb bb 1b bd b8 b9 66 a3 71 bb
       8.8774235e-05 -0.0071971784 -0.0003523611 -0.0036871075
000060 55 cb 7e bd 2e 2b c7 3c e2 2a c4 bc 4f 37 a5 bc
       -0.06220563 0.024312582 -0.02394623 -0.020167975
000070 3e b0 73 3c 77 5e ff 3b 8e e0 3b bd e3 4c 4f 3d
       0.014873562 0.0077932435 -0.04586845 0.050610434
000080 c0 39 99 bc 08 86 35 bd 04 54 05 bd ca b9 90 3d
       -0.018704295 -0.044317275 -0.032550827 0.070666865
000090 5a 23 25 bb cb d0 29 3c 58 45 c5 3c de a7 f0 bb
       -0.0025198073 0.0103647215 0.024080917 -0.00734423
0000a0 e0 d1 88 3d e0 bd 81 3d ed 3e 66 3c 49 87 7d 3c
       0.066806555 0.06335044 0.014053089 0.015474149
0000b0 e8 2b 11 bd 75 ba 87 3c 91 8e 45 bd 8a 20 a9 3c
       -0.035442263 0.016568402 -0.048231665 0.020645399
0000c0 02 5e 6b bd 87 bc aa 3d 35 69 5d 3b 4a d2 67 bc
       -0.0574627 0.0833674 0.0033784632 -0.014149258
0000d0 f7 2a b2 bc ac 17 e6 bc 5d e5 28 3d 79 54 94 3c
       -0.021749003 -0.02808746 0.041234363 0.018106686
0000e0 e7 f8 73 bd da 77 3a bc 39 2c be 3b 15 8f 32 3d
       -0.059563544 -0.011381114 0.0058036116 0.043593485
0000f0 36 22 31 3d 86 d2 4d bc 08 19 7c bd 05 f1 29 3d
       0.043245517 -0.0125624 -0.06154731 0.04148962
000100 a8 83 4b 3d c3 91 5c 3d de 05 2d bd 50 cb cc 3b
       0.049686104 0.053849947 -0.042241924 0.0062498227
000110 0f b2 23 3b 55 2e 0d bd 25 9e 11 3c 86 cd 22 bd
       0.0024977957 -0.034468014 0.008887802 -0.039746784
000120 21 b0 81 3d 96 35 77 bd 1c 59 ce bc 1e a2 1a bd
       0.06332422 -0.060353838 -0.025188975 -0.037752263
000130 18 4b 15 bd 90 c1 ef 3c dc 4d 0b 3d 22 bb 4b bb
       -0.036448568 0.029267102 0.0340098 -0.0031086882
000140 0f 9f e2 bc 40 f6 d3 3c 44 02 1a 3d 49 aa 43 3d
       -0.027663736 0.025874257 0.037599817 0.04776982
000150 7d 10 72 3d 75 a4 22 bd 82 cf 17 3d 1f 02 1c 3c
       0.059097756 -0.03970762 0.03706313 0.00952199
000160 32 92 7d 3c e0 d5 b9 bc c1 aa c7 bc 9e ef 32 bb
       0.01547675 -0.022684991 -0.024373414 -0.0027303468
000170 ab ad d7 bc e5 20 0b 3d c8 7a 15 bd 9b f7 83 3b
       -0.026327929 0.033966918 -0.036494046 0.0040273196
000180 48 6c 4e 3d c5 b7 90 3c b3 1b 1f 3d 42 4e 9d bc
       0.050396234 0.017665753 0.038844775 -0.019202355
000190 26 4a 2a bd a6 0f be 3c ff 08 09 3d 1a 0b 0d 3d
       -0.04157462 0.023200821 0.033455845 0.034434415
0001a0 91 bd 7c 3d 83 f5 13 bd 0d 05 af bc cb 2a b8 bc
       0.061704222 -0.03612281 -0.021364713 -0.022481343
0001b0 ce d7 e8 3c ad 45 4a 3d ee 8a 3c bd 92 39 24 3d
       0.028423216 0.049382854 -0.04603093 0.040093966
0001c0 5d e9 90 bc 90 b1 5b 3c 5a 74 37 bd 2f c3 2c bc
       -0.017689401 0.013409033 -0.044788696 -0.010544582
0001d0 62 af 4c 3d 56 b0 93 3c b7 87 87 3d 6c 8a 27 3c
       0.049971946 0.01802842 0.066176824 0.010225873

fc2.weight f4 [84, 120]
000000 d3 78 21 bd e8 81 c9 3d 92 e1 a7 bd 40 84 14 bc
       -0.039421868 0.09839231 -0.08197321 -0.009064734
000010 ad 7a 82 3c 03 ea 32 bd fc 3f 56 bd 41 97 41 bd
       0.015927637 -0.043680202 -0.052307114 -0.047263388
000020 b3 fb d4 3c db d0 53 bd 7e 17 34 3d 75 10 1a 3d
       0.025998926 -0.051712852 0.043967716 0.03761335
000030 cf dc 44 bc af e5 c8 3d d5 49 c8 3c 05 6c ce bb
       -0.0120155355 0.09809434 0.024449268 -0.006299498
000040 2d 02 20 bc 6a d6 bc 3d fd 39 ea 3c dd ee 0e be
       -0.009766144 0.09220584 0.028592104 -0.13958307
000050 7b 3f a0 bd da 2c 4e 3d 8a 6e c0 3d 69 0e 31 3d
       -0.07824608 0.050335743 0.09396084 0.043226633
000060 25 bc b9 bd d8 9d 9c bd 12 a3 b2 3d 80 c8 b6 3d
       -0.09069089 -0.07647294 0.087225094 0.08924961
000070 c5 4b e6 bc b5 c3 8f 3d fd 60 b5 3d 20 4a 81 bc
       -0.028112302 0.0701975 0.0885639 -0.015782416
000080 3a 3c 3a 3d 68 60 81 bb 04 e5 41 3b 3d 17 36 bd
       0.045467593 -0.00394826 0.0029585967 -0.044455756
000090 a0 03 ea 3b 6f 68 e0 3a df 25 42 bb 29 20 a3 bd
       0.0071415454 0.0017120967 -0.0029624624 -0.079651184
0000a0 3f 70 88 3c 4d 84 dc 3c 19 7f c1 3d 65 df 19 bc
       0.016655086 0.026918555 0.0944807 -0.00939164
0000b0 6c 73 a0 3d ec bc c7 3d 27 52 8c bd ba 31 77 bc
       0.07834515 0.09752831 -0.06851607 -0.015087539
0000c0 68 0a 9f bd 04 97 9c bc 10 8f 92 ba ec e4 87 bc
       -0.07765657 -0.019114979 -0.0011181552 -0.01658865
0000d0 02 31 92 3d 92 53 a7 bc 93 e6 7d bc 7d d5 c9 bd
       0.07138254 -0.020425592 -0.015496868 -0.09855173
0000e0 6f ee 4f bd 2f 4b ac 3d a8 67 8d 3c 3b b7 67 bc
       -0.050764497 0.08412778 0.017261341 -0.014142807
0000f0 fb e7 0e bd 36 84 86 3d 4a 97 8f 3c a8 ca 93 3d
       -0.034889203 0.06568186 0.017528195 0.07216388
000100 f2 02 99 3d 13 45 e3 bc 6f e7 5e 3d 1b f4 a7 bd
       0.07471265 -0.027742898 0.05441993 -0.08200856
000110 5a d6 31 bc 79 b3 15 3d 41 bf c6 bd fe bc c5 3d
       -0.010854328 0.03654811 -0.097044475 0.09655188
000120 2a e4 d3 3b cc f4 f7 bc c1 d8 9a 3d 89 f3 a2 3d
       0.0064664083 -0.030268095 0.07560874 0.07956607
000130 3e fd 96 bd 45 4a 5a 3d c8 a0 3a bd 26 59 05 3d
       -0.07372521 0.053293485 -0.04556349 0.03255572
000140 b7 86 41 3d ff db 0b bd f7 cc a9 bc 71 1f 81 bc
       0.047247615 -0.03414535 -0.020727618 -0.015762063
000150 b3 06 62 bd 84 a3 10 3d 84 76 6f 3d 34 a5 8d bd
       -0.05518217 0.03531219 0.058462635 -0.069162756
000160 cc de c5 3c 83 d3 a0 bd db 6d af 3c 43 51 1c bd
       0.02415409 -0.07852843 0.021414688 -0.038163435
000170 ea 1e bc bd 55 aa c1 3c 06 ac b4 3d cd 16 95 3d
       -0.09185584 0.023640791 0.08821873 0.072797395
000180 95 7a a2 bd 96 ec 0e bd 39 10 e4 bc 5d f6 66 bd
       -0.07933537 -0.034893595 -0.027839767 -0.056387294
000190 68 6a 37 bd 42 a1 15 3d c8 40 d1 3b ee 90 b9 bd
       -0.04477921 0.03653074 0.0063858964 -0.09060846
0001a0 93 db 1c 3d fb cf a5 bd 22 85 47 3d ed 47 d3 bd
       0.03829534 -0.0809631 0.04871095 -0.10316453
0001b0 65 a6 1f bb 67 4d 02 bd 60 cc dc bc f8 ea 6f bd
       -0.0024360653 -0.031812098 -0.026952922 -0.058573693
0001c0 e4 48 ef bb 49 96 a5 3d 57 b4 90 bc 8b 53 96 3d
       -0.0073023904 0.08085305 -0.017664118 0.07340153
0001d0 c8 8a 48 3d 3d 7f b6 3d 36 9e 02 bd 74 3c af bd
       0.048960477 0.089109875 -0.031889163 -0.085564524
0001e0 ac 4d 39 3c 5b ad da 3d e2 3e a5 3d 0d b2 ad 3d
       0.011310022 0.10677596 0.080686346 0.08481226
0001f0 22 11 8a 3c 79 c6 c0 3b 94 7f f3 bc 9f df 0a bd
       0.016853873 0.005883035 -0.02972392 -0.033904668
000200 a7 5a 72 3c 46 dc bc bc f5 64 c7 3d 36 72 61 bc
       0.014792121 -0.023054253 0.09736053 -0.01376014
000210 0b 70 8e bd 2a 0f e9 3d ab 2f 64 3b 43 2d b6 3d
       -0.06954964 0.113798454 0.0034818451 0.08895352
000220 40 6e b7 bd e6 6f 16 bb 38 ea 05 3e 62 fb 35 bd
       -0.089565754 -0.002295488 0.13077629 -0.04442919
000230 95 4d 66 bd b1 49 83 3d 5f f2 9f 3d 3c ac e9 bc
       -0.05622633 0.0641054 0.078099005 -0.02852451
000240 af fe 6a bd 49 f2 8e bd b3 2a 03 3d 99 32 85 3d
       -0.05737179 -0.06979806 0.032023143 0.06503791
000250 84 39 3b bd ea ea 9d bc 90 6b ca bd 16 8c fd bd
       -0.045709148 -0.019277055 -0.09883797 -0.12380235
000260 6f 51 bf 3c b9 1d b4 3d bc b2 3b 3d a2 e7 3e ba
       0.02335426 0.08794732 0.04582475 -0.0007282441
000270 b3 4b 4c bd 68 ed 85 3d e4 38 d3 3d c2 4e dc 3c
       -0.04987688 0.06539422 0.103135854 0.026893023
000280 8f b3 a8 bd b0 cd 71 bc c9 63 23 3d 34 93 c1 3b
       -0.08237373 -0.014758512 0.039890084 0.0059074406
000290 81 88 8c 3d 99 39 ed 3d 69 62 75 3d 0c 8c 6d 3d
       0.068619736 0.115832515 0.059908304 0.057994887
0002a0 4b 99 9f bc 94 33 5d 3d 3e 0f c0 3d 68 70 6c bd
       -0.019482275 0.054004267 0.09377907 -0.057724386
0002b0 6e c4 91 3d 12 16 33 3d 7c 12 8d 3b 5f 71 cb 3a
       0.07117544 0.04372222 0.004305182 0.0015521458
0002c0 70 fc 9c bd 45 0e 64 bd 01 c3 a3 bd 2f a9 11 be
       -0.07665336 -0.05567767 -0.079961784 -0.14224695
0002d0 f1 dd 8a 3b 83 01 73 3d cc b8 cc bc 7a eb 8f 3d
       0.0042378833 0.059327614 -0.024990462 0.070273355
0002e0 ab 3f 0a 3c 95 3b 0c 3d ae 6b a0 bd f8 b0 33 3d
       0.008438031 0.03423651 -0.07833038 0.043869942
0002f0 62 8a 6b bd 61 8a 8d 3d 1a 67 47 3c b9 59 58 bd
       -0.05750502 0.06911159 0.012170577 -0.05281994
000300 e2 23 1e 3d c8 08 6d 3d 3a d7 06 bd a4 8c f9 bc
       0.03860844 0.057869703 -0.0329201 -0.03046257
000310 85 66 ec 3c 76 77 f9 bc 22 d0 ad 3d 5e fd 1b bc
       0.028857479 -0.030452471 0.08486964 -0.009520857
000320 64 3b 9e 3d 80 79 85 3d 2f 0e 01 3d b3 f7 17 bd
       0.077261716 0.06517315 0.031507667 -0.03710146
000330 4d 0c ea 3d 47 54 8d 3d c9 2b 7b bc f3 49 04 ba
       0.114281274 0.0690084 -0.015330263 -0.00050464197
000340 0c 3a c5 3d b0 f0 aa bb db c4 a7 bd d3 07 0d 3d
       0.09630212 -0.0052166805 -0.08191844 0.03443129
000350 59 eb 78 bd 18 a4 92 3c d6 75 8b bd 99 05 40 3c
       -0.06077132 0.017900512 -0.06809585 0.011720085
000360 2e f1 1f bd a4 b1 fb 3c fe 82 a9 bd 86 34 a2 bc
       -0.039048366 0.030724354 -0.08276938 -0.019800436
000370 ce b8 a8 3d 83 f8 82 3d eb 50 cc 3d 8f d3 85 3c
       0.08238374 0.06395056 0.099763714 0.01633623
000380 4c 9d 75 bd da 7b ac 3d 6b ae 93 bd 45 fa 53 3b
       -0.059964463 0.0842206 -0.07211002 0.0032345217
000390 3c 8d 86 bd d4 6f 9a 3d 62 71 3c bd 02 f2 35 3d
       -0.06569907 0.07540861 -0.046006568 0.04442025
0003a0 32 ab 30 3d 1f 39 c2 3d f4 0e 93 bd 66 58 2a bd
       0.043132015 0.09483551 -0.071805865 -0.04158821
0003b0 ec 46 e3 3c df 99 9d 3d 65 3d ef 3c 4c f6 6a bc
       0.02774378 0.07695364 0.02920408 -0.014340948
0003c0 b1 e9 f2 bc f5 ce 96 3d c2 69 ab bd b1 40 85 bd
       -0.029652448 0.07363693 -0.08369781 -0.065064795
0003d0 4e 7c a6 3d c2 68 3c 3d 9f bd 46 bd e9 7d 98 bd
       0.08129178 0.045998342 -0.04852068 -0.074458905
0003e0 10 8d 53 3d 68 d0 78 bc 13 aa a3 3b 23 58 bf bd
       0.0516482 -0.015186407 0.0049946397 -0.093429826
0003f0 e8 f1 ff 3c 72 97 f8 bb 36 9f ee 3c 77 97 a9 bd
       0.03124328 -0.007586413 0.029128652 -0.08280843

fc2.bias f4 [84]
000000 c7 18 0f bd 52 66 b6 3c e6 3e 86 bc 98 67 ec bc
       -0.03493574 0.022265587 -0.016387414 -0.028857991
000010 8f 61 a3 bd 8b 18 11 3d d3 ec 35 bd 0b 8d ac 3d
       -0.07977592 0.035423797 -0.044415306 0.08425339
000020 7d 01 d5 bd 3e fc fa 3d ea 0f 97 bd f9 d1 bb 3d
       -0.104006745 0.12255143 -0.07376082 0.091709085
000030 0d 45 63 3d fc e0 ec 3a d9 d5 27 3b 6e 09 d6 3d
       0.055485774 0.0018072422 0.002560964 0.10451017
000040 30 22 8e 3b 71 07 0e bd 2a 59 8a bd f7 24 b3 3d
       0.0043375716 -0.034675065 -0.06755288 0.08747285
000050 ab 70 37 3c 02 55 a9 3c cb 1b 4a 3c 5f cb 0c 3d
       0.011196296 0.020670418 0.012335728 0.034373637
000060 15 d5 34 3d a4 bc d4 3c 92 e9 49 bd 02 e7 91 bd
       0.044148523 0.025968857 -0.049295016 -0.07124139
000070 10 5d 81 bb df 2f 94 bc 40 93 9f bc 69 be ef bc
       -0.0039478615 -0.018089233 -0.019479394 -0.0292656
000080 e9 7f 56 3d c4 75 bb bc 2e 52 7a ba d3 c2 8c bc
       0.05236808 -0.022883303 -0.0009548989 -0.017182743
000090 c2 02 39 3d 1d 1a 1a 3b 58 c1 3b 3d 27 db b4 bc
       0.045168646 0.00235141 0.045838684 -0.022077156
0000a0 4b 54 50 bc 4a 63 89 bd 63 14 88 3d c0 28 5c 3c
       -0.0127154095 -0.06708391 0.066445135 0.01343745
0000b0 64 03 98 3d 72 38 41 3d 91 06 15 3e fc 8d bb 3c
       0.07422522 0.04717297 0.14553286 0.022894852
0000c0 8d c4 2b bd dd 45 20 bd 2e d5 a8 bd 04 6c 45 bd
       -0.041935492 -0.039129127 -0.08243786 -0.048198715
0000d0 8f ce 3e bd 7c 12 a3 3d a0 e5 85 bd 90 43 a3 3d
       -0.04658371 0.0796251 -0.06537938 0.07971871
0000e0 b0 09 f1 3d 6f af 19 bd ef e0 26 bd 9c 83 f2 3d
       0.11769426 -0.037520822 -0.040741857 0.11841509
0000f0 a4 a7 9f bd d3 1d 08 bd fc f4 22 3d 6a 4b e9 3d
       -0.07795647 -0.033231568 0.039784417 0.11391337
000100 cc 13 5f bd aa ed af bc 76 67 a4 bd 47 94 96 3d
       -0.05446224 -0.021475632 -0.08027546 0.073525004
000110 ea 36 d5 3d 02 00 5a bd d9 a5 d8 3c c1 f2 91 bc
       0.10410865 -0.053222664 0.02644627 -0.01781595
000120 8f f3 1d bd fe c5 8a bc f3 39 14 3d 6f cc 2f 3d
       -0.038562354 -0.016940113 0.036188077 0.042919572
000130 90 f7 1f bd b8 92 07 3e 4f 40 b4 bd ce 2d a2 bd
       -0.039054453 0.13239563 -0.088013284 -0.07918893
000140 7b b5 ac 3d 90 65 e6 bc ba 43 6d 3c 37 b0 b8 bc
       0.08433052 -0.0281246 0.014481479 -0.022544963

fc3.weight f4 [10, 84]
000000 f7 9b 01 be 71 cc 4b 3d cc 26 96 3d 60 a3 3a bd
       -0.12657152 0.049755517 0.07331619 -0.045565963
000010 e6 e4 89 bc a6 48 1d be 18 05 27 bd 10 e1 30 be
       -0.01683278 -0.15359744 -0.040776342 -0.17273355
000020 b7 2d 4b 3d 7d f7 87 bd 61 fb 66 be 9a 84 e3 bd
       0.049604144 -0.066390015 -0.22556831 -0.11109276
000030 b4 d0 27 3e 8c b8 10 3d 76 94 2c bc 5b a6 2f be
       0.16388208 0.035332248 -0.010533443 -0.17153303
000040 e8 72 6b bd 32 c3 de 3d 6a e8 d2 bd cc 1f 34 be
       -0.05748263 0.10877074 -0.10298236 -0.17590255
000050 3c c8 71 3d bd 22 20 bd c9 99 95 3d 8f 61 33 be
       0.05902885 -0.03909563 0.07304723 -0.17517684
000060 95 b0 ca 3c 57 1c 50 3d 44 4b 0f 3e bc 42 af 3d
       0.024742404 0.050808277 0.13993555 0.085576504
000070 08 e2 88 bd 72 8c 28 be 40 6b 6a 3c a3 64 e4 bd
       -0.06683737 -0.16459826 0.014307797 -0.111520074
000080 b9 8a d7 3d 3b ef 50 3e dd 0d 9b bd 4c cb 10 be
       0.10524506 0.20403759 -0.075710036 -0.14140052
000090 20 90 ce 3c c3 3d 5c bd 54 6b 2f 3d 44 c4 88 3e
       0.025215209 -0.053769838 0.042826965 0.2671224
0000a0 2c ed 08 be 05 77 a5 3d 19 83 da bd fb 3f 0b be
       -0.13371724 0.08079342 -0.10669536 -0.13598625
0000b0 7f 62 35 bd b2 ca 41 3e 84 7f 44 be b3 71 c4 bd
       -0.044283386 0.18924978 -0.19189268 -0.09591999
0000c0 39 b6 81 3d 28 d8 a0 3d 38 95 9c 3c c8 d6 b7 39
       0.06333584 0.078537285 0.019114122 0.00035064504
0000d0 66 59 8d 3b d6 86 47 3d 33 27 a2 bd 25 84 0d 3e
       0.0043136356 0.048712574 -0.07917633 0.1381994
0000e0 31 f0 92 3c 12 71 b6 3d 4a d6 b7 bd 4f d7 01 be
       0.017936798 0.08908285 -0.08976419 -0.1267979
0000f0 c9 ad 8e 3d 04 ae 63 3d 41 c5 75 3c 0d 4c 23 3d
       0.06966741 0.055585876 0.015000642 0.03986745
000100 bc 34 39 3d 0b 5d 23 3d 37 50 77 3c a5 e4 a9 3d
       0.045216307 0.039883655 0.015094808 0.082955636
000110 b1 f4 b1 3d 0f 74 b4 3a 65 1f 91 3d bb 6a 1c 3e
       0.08689249 0.0013767498 0.07086066 0.1527509
000120 85 66 85 3d c4 af 8a bd 56 37 bd 3e 97 d4 72 bd
       0.06513695 -0.06771806 0.3695628 -0.059284773
000130 68 b0 e5 3d 74 ca 15 3e e3 ee 6d 3d ec d2 99 bd
       0.112152874 0.14628011 0.05808915 -0.07510933
000140 38 b2 b6 3e 1d b1 da bc 1d bc e1 3d 77 12 80 be
       0.35682845 -0.026695782 0.11022208 -0.25014088
000150 c8 f6 8b ba 77 b2 15 be 11 b5 ff bc 5a 8e 1e 3e
       -0.0010678405 -0.1461886 -0.031214269 0.1548399
000160 ed e3 9a 3c 6d 5c f0 bd e0 f1 54 3d 73 7e 95 bc
       0.018907512 -0.11736379 0.051988482 -0.018248772
000170 26 88 9e 3c 89 5b d2 3d c5 1a 3e 3d a2 1c 40 be
       0.01935203 0.10271365 0.04641225 -0.18760923
000180 15 6d 44 bc dd dd ae bd b9 30 99 bd 50 b7 91 3e
       -0.011988898 -0.08538411 -0.07479996 0.2846017
000190 36 69 48 bd 11 e3 b9 3d b9 8f f0 3d 36 0e 37 bd
       -0.048928462 0.090765126 0.11746163 -0.044691287
0001a0 d8 31 c6 ba 80 28 48 be 04 e4 8b 3c e7 69 88 3d
       -0.0015121056 -0.195467 0.0170765 0.06660824
0001b0 9d 1b 8e bd 23 51 8c bc c7 7d 75 bc f1 ea 36 bd
       -0.069388606 -0.017128533 -0.014983601 -0.04465765
0001c0 a8 4d 14 bc 95 03 51 3e 98 9d 87 bc 9f a4 59 bd
       -0.009051718 0.20411523 -0.016554639 -0.05313551
0001d0 e7 30 81 3d 48 c2 21 3e be e0 c6 3d 73 de 48 bc
       0.063081555 0.15796769 0.09710835 -0.012260067
0001e0 66 97 66 3e 9c 1a 16 be 37 dc 53 be 12 5f 79 bc
       0.22518691 -0.14658588 -0.20689474 -0.01522042
0001f0 5c 0b 08 3e a0 b4 ff 3d 4e c0 df 3d 7b 51 2d 3e
       0.13285583 0.12485623 0.10925351 0.16925614
000200 be 0a 46 be 61 5e d7 bd 8d 7c 2a 3e a0 f8 b2 3d
       -0.19340035 -0.10516048 0.16649075 0.08738828
000210 a4 02 81 3e be 4b d8 3c 5d f0 f8 bc 41 00 63 bd
       0.25197327 0.026403304 -0.030388052 -0.055420164
000220 4d 0d d9 bd 54 76 19 3e 4f 32 a6 3d 7c b1 a8 3d
       -0.1059824 0.14986545 0.08115064 0.082369775
000230 4c d1 ff bd 19 cb 9d bd f3 9e 8d 3d a2 5b 81 be
       -0.12491092 -0.077047534 0.06915083 -0.25265223
000240 bb 6c d9 3d a8 1a 13 bd 50 8d 08 be 2f 02 d4 be
       0.10616442 -0.035914093 -0.13335156 -0.41407916
000250 b7 ca 92 bd ec 68 77 bd 8e 0c a2 bd ea 4e 52 3e
       -0.07167571 -0.060402796 -0.07912551 0.20537916
000260 07 a5 dc bd 2b 94 d3 bb 9f 8d 24 3e 0d 41 f5 bc
       -0.10773664 -0.006456872 0.16069649 -0.029938245
000270 94 91 bb 3d dd a6 a6 bd f8 be ea bd 67 16 fb 3c
       0.09158626 -0.081372954 -0.11462206 0.03065033
000280 c2 17 d8 bd 98 d0 ee bd 23 2b df bc 31 78 4e bd
       -0.105514064 -0.1166088 -0.027242249 -0.050407592
000290 f0 b0 8b be 7b 8b 27 bc 08 0d bc bd 8a b1 1c 3e
       -0.2728343 -0.010226126 -0.09182173 0.15302101
0002a0 9d 5d 1a 3e 59 e7 ba 3d 60 5d 7a 3b e3 a1 3c be
       0.15074773 0.09126157 0.0038202628 -0.1842113
0002b0 73 ef f5 3d 8a d2 ae 3d f7 f8 87 bd de 59 93 39
       0.12008562 0.08536251 -0.06639283 0.0002810498
0002c0 9c d1 96 bd d8 94 1a be b3 a5 54 be de 18 75 be
       -0.073641986 -0.15095842 -0.20766334 -0.23935267
0002d0 6e 2e 15 be a7 b8 6c bd 5c 5f cc 3d 03 df 35 3e
       -0.14568493 -0.057793286 0.09979126 0.17760853
0002e0 e0 a8 9b 3b 02 c3 3c 3d c1 42 a1 3e 8f c3 48 be
       0.004750356 0.04608441 0.31496242 -0.1960585
0002f0 db 6c 65 bd 2d 70 9b 3e 39 4b 78 3d 9c 62 12 be
       -0.056012016 0.3035902 0.060618613 -0.14295429
000300 8a 21 f0 bd 28 39 b3 3d eb 8a 96 3e 13 46 50 bd
       -0.11725147 0.08751136 0.2940286 -0.050848078
000310 0d 99 ef 3b 0f 20 94 3e 7a 8a d6 bd 52 78 be 3d
       0.0073119462 0.2893071 -0.10475631 0.09300293
000320 77 e5 0c 3c 47 c0 31 3e f4 f0 74 3d 6e ff 1a bd
       0.008599631 0.17358504 0.059800103 -0.037841253
000330 60 02 2b be 76 98 3e 3e 2f 8e ef 3d 82 6e cb bc
       -0.16700125 0.18612847 0.11697041 -0.024832968
000340 ff c4 b0 3c b1 45 bb bd 39 d5 b5 bd 6a 40 96 bd
       0.02157831 -0.09144152 -0.088785596 -0.07336505
000350 6e 7f 81 be 66 f9 48 3d c0 47 f6 bd 95 d8 98 bc
       -0.25292534 0.04906597 -0.12025404 -0.018657962
000360 ce e7 82 3d f8 e2 3f 3d 6e 7f b6 3d 58 19 45 bb
       0.063918695 0.046847314 0.08911024 -0.003007492
000370 38 bd a8 3c dd 0e 97 3e 7d 5c bc 3d 57 62 b0 3d
       0.020598039 0.29503527 0.09197328 0.08612507
000380 9b 75 50 be 48 1c d0 3d fb e1 db 3d a5 0c 04 bd
       -0.20357363 0.10161644 0.10736462 -0.03223862
000390 08 d5 1c bc 36 db f9 bc 45 c0 97 bc b6 5e 7a bd
       -0.009572275 -0.030500036 -0.018524298 -0.06112548
0003a0 1a af cd 3d 3f 58 d2 3a 79 ad 8e 3d ed 25 1d bc
       0.100431636 0.0016048028 0.06966681 -0.009591562
0003b0 c6 5b d4 bd 65 a0 e8 bd 5a dc 98 3d ba 8c f6 3d
       -0.10369067 -0.11358718 0.07463904 0.1203856
0003c0 55 fe e4 3c 39 e4 c8 3c 06 4a 3f bd fe 8f ce 3d
       0.027953306 0.024522888 -0.046701454 0.10086058
0003d0 80 6d 90 bd 60 b3 3a be bd 21 86 3d 79 88 d0 bd
       -0.070521355 -0.18232489 0.06549404 -0.1018228
0003e0 14 ad 43 3e 3d c3 77 3b 0c 45 41 be ed 81 00 bd
       0.19108993 0.003780558 -0.18873996 -0.031373907
0003f0 76 ba 0e bd b2 10 5b be 0c 0d 92 3d 77 93 81 3d
       -0.03484579 -0.21393088 0.07131395 0.06326955

fc3.bias f4 [10]
000000 73 88 82 be 81 10 a8 be 50 3f af 3c b7 3d 2a 3c
       -0.25494727 -0.3282509 0.021392494 0.0103906905
000010 99 4b 8a bd 56 25 5e 3e b7 59 17 be 6e c8 64 3d
       -0.067527 0.2169393 -0.14780317 0.055855207
000020 0d a0 b0 3e ed 4b b7 3e
       0.3449711 0.35800114
