defensive_model_t5.pth (torch_old, 179282 bytes, 10 tensors)

conv1.weight f4 [6, 1, 5, 5]
-0.05726642 -0.07755537 -0.13747506 -0.079381146 -0.121267706 -0.019182656 -0.030256284 0.074603215
0.1579195 0.03256911 0.030959355 -0.06988829 -0.17792077 -0.123243324 0.07685271 -0.013107708
-0.115937755 -0.036840886 0.016487174 -0.100466385 -0.15368521 0.02824614 0.1602673 0.08040153
-0.19908191 -0.22374642 -0.10585548 0.075689495 0.07386672 0.20455398 0.2988885 0.35232204
0.70169204 0.3900921 0.5765612 0.42784318 0.55084527 0.663965 0.78013206 0.66580343
0.11801238 0.17755811 0.6296725 0.5418974 0.39667615 -0.21108256 0.20533638 0.014455499
0.12969856 -0.029095601 -0.1790957 -0.19961295 -0.1150352 0.073115334 -0.15426265 0.019799752
-0.03340573 0.044116896 0.02820044 -0.08336737 0.15052466 -0.14563143 0.20735009 -0.0693017
0.0137025425 0.16009925 -0.15282807 -0.16564716 -0.022697607 0.14554837 -0.10659024 -0.17248392
-0.027661417 0.019499328 -0.13183871 0.2237609 0.21005695 0.14032583 0.12067558 -0.10013545
-0.2284191 -0.051081296 0.038385577 -0.16332324 -0.19525601 -0.043836083 -0.16209958 0.0044721654
0.12198926 0.071152225 -0.10636377 0.10698399 0.104123294 0.12544523 0.061356097 0.11536385
-0.10050395 0.1005109 -0.019293273 -0.111067496 0.0333075 0.37195867 0.91672045 0.979053
0.7351168 0.24987638 0.8801086 0.83338165 1.1598396 0.6981003 0.35818973 0.67322904
0.7415209 0.60492384 0.41591966 -0.06569585 0.1039916 0.045970697 0.15686227 0.052121818
-0.2649468 -0.23826493 -0.21039718 -0.231549 -0.020979334 -0.032710847 0.24208528 0.22327925
0.113801554 0.3797094 0.18846452 0.2183869 0.12038643 0.31292966 0.10177507 0.074105814
-0.038844973 0.037953988 -0.100954734 -0.075282164 -0.20212846 -0.2308624 -0.18693997 -0.20530075
-0.031939983 -0.2706876 -0.058260452 -0.14403413 -0.03700824 -0.098436154
00000000: 3290 6abd 5ad5 9ebd 43c6 0cbe 9592 a2bd
00000010: 345b f8bd f224 9dbc 07dc f7bc 92c9 983d
00000020: a6b5 213e 3067 053d 799e fd3c 9721 8fbd
00000030: dd30 36be ff66 fcbd f464 9d3d b6c1 56bc
00000040: c670 edbd 78e6 16bd 1c10 873c 52c1 cdbd
00000050: a85f 1dbe 7364 e73c 1c1d 243e 8fa9 a43d
00000060: 21dc 4bbe c81d 65be c2ca d8bd 1803 9b3d
00000070: 6f47 973d 9976 513e ea07 993e 8e63 b43e
00000080: 17a2 333f 27ba c73e 8499 133f 430e db3e
00000090: 3204 0d3f 9cf9 293f bcb6 473f 1872 2a3f
000000a0: 7ab0 f13d cbd1 353e 3832 213f cab9 0a3f
000000b0: 2319 cb3e 0726 58be b343 523e c2d6 6c3c
000000c0: b3cf 043e e659 eebc dd64 37be 5667 4cbe
000000d0: 9397 ebbd 7ebd 953d 07f7 1dbe 1733 a23c
000000e0: 72d4 08bd ebb3 343d 9c04 e73c 83bc aabd
000000f0: 2323 1a3e 6820 15be 9553 543e 0dee 8dbd
00000100: a180 603c 0ff1 233e f67e 1cbe 699f 29be
00000110: 55f0 b9bc a20a 153e fc4b dabd a09f 30be
00000120: 329a e2bc 0ebd 9f3c ba00 07be 9421 653e
00000130: 2b19 573e 93b1 0f3e c224 f73d d113 cdbd
00000140: b2e6 69be 9f3a 51bd 323a 1d3d 353e 27be
00000150: 31f1 47be 778d 33bd 6ffd 25be 3e8b 923b
00000160: 81d5 f93d 42b8 913d 40d5 d9bd 6c1a db3d
00000170: 983e d53d b774 003e 8850 7b3d e243 ec3d
00000180: 04d5 cdbd a9d8 cd3d ed0c 9ebc 5b77 e3bd
00000190: 726d 083d 5e71 be3e 31ae 6a3f 38a3 7a3f
000001a0: 9d30 3c3f 98df 7f3e cc4e 613f 8058 553f
000001b0: a075 943f b4b6 323f a564 b73e bd58 2c3f
000001c0: 50d4 3d3f 4adc 1a3f 6cf3 d43e 8c8b 86bd
000001d0: 8cf9 d43d c54b 3c3d 81a0 203e b07d 553d
000001e0: 1ba7 87be b9fb 73be 5c72 57be 2e1b 6dbe
000001f0: dadc abbc cffb 05bd 34e5 773e 51a3 643e
00000200: ca10 e93d 4569 c23e d8fc 403e d1a0 5f3e
00000210: 298d f63d 5138 a03e 736f d03d cac4 973d
00000220: e81b 1fbd a475 1b3d 5bc1 cebd 892d 9abd
00000230: c3fa 4ebe 3167 6cbe 316d 3fbe 5c3a 52be
00000240: 80d3 02bd 9197 8abe 83a2 6ebd af7d 13be
00000250: f495 17bd e598 c9bd

conv1.bias f4 [6]
-0.18088898 0.10427276 -0.015668815 -0.12331863 0.00033008776 -0.04027203
00000000: f63a 39be f58c d53d e35b 80bc 7a8e fcbd
00000010: a10f ad39 49f4 24bd

conv2.weight f4 [16, 6, 5, 5]
0.046715613 -0.07454113 -0.020947324 -0.0036805924 -0.03728572 -0.033609748 0.050702643 0.039280012
0.06274718 0.076321326 -0.04967827 -0.035754398 0.04462766 -0.010613335 -0.041716993 0.014549798
0.025580013 -0.040237825 0.07910563 -0.028432522 -0.008288083 -0.02785439 0.039280508 -0.045373302
-0.03797123 0.1805286 0.0873091 -0.0017640954 -0.041487087 0.05987837 0.14443947 0.07213846
0.0112977475 -0.12690179 -0.113595635 0.051460154 -0.058056477 -0.12066833 -0.012620103 -0.08231525
0.08518157 0.052255414 -0.02436784 0.08173542 -0.053467028 0.1074668 0.044434007 0.13456997
0.037816353 0.02294359 -0.006869525 -0.013877744 -0.075776815 0.06142336 -0.068051934 -0.0076745255
-0.05464335 0.008399748 0.075364724 0.04347817 0.0026831734 -0.07106444 0.00027686683 0.067341596
-0.028770233 0.069661684 -0.05953584 -0.00024915446 -0.02852354 0.050621152 -0.05275299 -0.06598254
-0.012533004 0.071197435 0.06964869 0.032692157 0.05261236 0.0782143 -0.06316129 0.007386457
0.029953817 -0.07755171 -0.018747605 -0.070485584 -0.0133266365 0.061504424 -0.05030671 0.058614556
-0.054248046 0.08781877 0.067701295 -0.0073382147 0.0652889 -0.071201615 0.010054131 0.06378998
0.0072061326 -0.012892466 -0.04070713 0.07024045 0.07447958 0.13312237 0.18391907 0.057441007
-0.001851758 0.24163222 0.13382356 0.02129578 0.009864546 -0.015201327 0.14345957 0.13423155
-0.14516832 -0.15109779 -0.029514778 0.09618922 0.03188128 0.008897892 0.0461651 -0.046957597
0.0017970797 0.15038495 0.08297208 0.14455162 0.13104561 -0.07462497 0.06877644 0.05348919
0.045565166 -0.009457895 -0.0011785888 0.014235534 -0.0072316034 0.051663715 -0.064856686 0.055508047
-0.020903725 0.025322745 -0.085576504 -0.03219909 0.07695648 0.03675437 -0.054583646 0.054835204
-0.05005683 -0.04165916 -0.0035216503 -0.050373107 0.015017877 -0.015894191 0.0027427555 -0.013156347
-0.026211463 -0.024631014 0.025755532 0.03861334 0.05936758 -0.041320518 -0.022377763 -0.029856648
-0.003510276 0.0114262765 0.07230135 0.007507886 -0.033400953 0.06499181 -0.052161623 -0.07353848
0.07356297 0.02203675 0.03174618 -0.04693805 -0.0047363876 0.045430377 -0.017572518 0.10672378
0.008999142 0.070847996 0.029243136 0.06321406 0.06727298 0.022935186 -0.00021406167 0.036131334
-0.048248935 0.027486056 -0.038059525 0.021181492 0.0595014 0.10282426 0.059017397 -0.0062864814
0.029132204 0.05291455 -0.013358438 -0.094660096 -0.038076498 -0.065787345 -0.00894777 -0.011119137
-0.026485207 0.054678403 9.5025156e-05 -0.01417722 0.0779651 0.009501718 0.07974522 -0.014309004
0.041274946 -0.053034756 0.016171195 0.0419713 0.048812322 0.020489022 -0.043897744 -0.006987419
-0.068923034 0.07190688 0.04537333 -0.062183216 -0.021922797 -0.069847 -0.051911186 0.05014255
-0.0064982586 0.0101146465 -0.06418209 0.05275871 -0.059347752 0.08653973 -0.035112135 0.027540285
0.004559823 0.04313141 -0.016521787 -0.05464066 0.052556932 -0.07854565 0.017809303 -0.021768713
0.036313288 0.07491143 0.051757418 -0.025602467 0.053422224 -0.021169087 0.025089795 0.055129353
-0.023006396 0.030050369 0.13257743 0.07307178 0.099680774 -0.031832974 -0.027309762 0.093711585
00000000: df58 3f3d 05a9 98bd b999 abbc 1836 71bb
00000010: e9b8 18bd 60aa 09bd 93ad 4f3d 14e4 203d
00000020: 9881 803d 5b4e 9c3d 717b 4bbd 3473 12bd
00000030: 7ecb 363d 8ee3 2dbc 70df 2abd 4762 6e3c
00000040: 2d8d d13c 6bd0 24bd 2202 a23d 52eb e8bc
00000050: bdca 07bc e42e e4bc 99e4 203d 5bd9 39bd
00000060: b887 1bbd 7ddc 383e 1dcf b23d 3839 e7ba
00000070: 5dee 29bd 0643 753d f1e7 133e 54bd 933d
00000080: 301a 393c 8bf2 01be d4a4 e8bd e2c7 523d
00000090: a1cc 6dbd f520 f7bd 8cc4 4ebc e694 a8bd
000000a0: ad73 ae3d c609 563d 109f c7bc e664 a73d
000000b0: 3e00 5bbd 8e17 dc3d 6f00 363d b6cc 093e
000000c0: 52e5 1a3d 32f4 bb3c c119 e1bb 7a5f 63bc
000000d0: e030 9bbd 1097 7b3d d05e 8bbd 967a fbbb
000000e0: b5d1 5fbd 199f 093c d258 9a3d 2a16 323d
000000f0: 2ed8 2f3b 3c8a 91bd 7028 9139 64ea 893d
00000100: 8daf ebbc c9aa 8e3d dadb 73bd f2a0 82b9
00000110: 33aa e9bc 2058 4f3d 8513 58bd db21 87bd
00000120: 3b57 4dbc f6cf 913d f9a3 8e3d 36e8 053d
00000130: 0f80 573d d22e a03d b55a 81bd 180a f23b
00000140: b561 f53c 6ed3 9ebd 9494 99bc bf5a 90bd
00000150: f757 5abc 10ec 7b3d 690e 4ebd d115 703d
00000160: 3333 5ebd 54da b33d faa6 8a3d 6875 f0bb
00000170: 30b6 853d 27d2 91bd 15ba 243c 52a4 823d
00000180: 6c21 ec3b ec3a 53bc 85bc 26bd 3ada 8f3d
00000190: c088 983d 3b51 083e 4855 3c3e 4347 6b3d
000001a0: b0b6 f2ba 706e 773e 0b09 093e 7d74 ae3c
000001b0: e89e 213c fd0e 79bc 11e7 123e ff73 093e
000001c0: 01a7 14be 61b9 1abe fac8 f1bc dbfe c43d
000001d0: f295 023d 77c8 113c 9e17 3d3d 9c56 40bd
000001e0: fd8b eb3a 83fe 193e 44ed a93d 5705 143e
000001f0: d230 063e fad4 98bd aada 8c3d 7b17 5b3d
00000200: 8aa2 3a3d 49f5 1abc e17a 9aba 283c 693c
00000210: 16f7 ecbb 559d 533d 95d3 84bd 685c 633d
00000220: 4a3e abbc a571 cf3c bc42 afbd 31e3 03bd
00000230: 5c9b 9d3d c08b 163d 1a93 5fbd e19a 603d
00000240: 6408 4dbd cca2 2abd 7dcb 66bb 0854 4ebd
00000250: 8b0d 763c 8934 82bc cdbf 333b b88d 57bc
00000260: 6cb9 d6bc fbc6 c9bc 44fd d23c 0629 1e3d
00000270: 6b2b 733d b43f 29bd 9251 b7bc ee95 f4bc
00000280: a90c 66bb 4735 3b3c bb12 943d b604 f63b
00000290: 70cf 08bd 6d1a 853d 6da7 55bd 589b 96bd
000002a0: 2fa8 963d 6a86 b43c 4808 023d 1d42 40bd
000002b0: b333 9bbb 3415 3a3d 3ef4 8fbc ff91 da3d
000002c0: 2371 133c c118 913d 4d8f ef3c 6076 813d
000002d0: 6bc6 893d 92e2 bb3c be75 60b9 73fe 133d
000002e0: ada0 45bd 702a e13c 4ee4 1bbd cf84 ad3c
000002f0: bdb7 733d 8795 d23d 3abc 713d d4fe cdbb
00000300: a9a6 ee3c edbc 583d 5add 5abc 27dd c1bd
00000310: 1af6 1bbd 84bb 86bd ab99 12bc 0a2d 36bc
00000320: 81f7 d8bc 76f6 5f3d 3e48 c738 9247 68bc
00000330: 2bac 9f3d 18ad 1b3c 7651 a33d 5070 6abc
00000340: eb0f 293d f93a 59bd 7479 843c 19ea 2b3d
00000350: 6eef 473d 98d8 a73c 1fce 33bd b8f6 e4bb
00000360: 8527 8dbd ea43 933d 63d9 393d d4b3 7ebd
00000370: 7097 b3bc f20b 8fbd d3a0 54bd 4662 4d3d
00000380: 58ef d4bb e7b7 253c e671 83bd 8419 583d
00000390: a116 73bd be3b b13d bed1 0fbd 2a9c e13c
000003a0: 916a 953b 90aa 303d b358 87bc e2ce 5fbd
000003b0: f045 573d 8bdc a0bd d1e4 913c 4d54 b2bc
000003c0: 3ebd 143d 2a6b 993d 96ff 533d 44bc d1bc
000003d0: 43d1 5a3d cb6a adbc 1d89 cd3c 51cf 613d
000003e0: e977 bcbc 312c f63c 61c2 073e a8a6 953d
000003f0: 6f25 cc3d 4b63 02bd b9b8 dfbc dceb bf3d

conv2.bias f4 [16]
0.009729521 -0.006805666 -0.016797254 0.09870525 0.07353119 -0.046221193 0.013045159 0.098544374
0.022785824 0.028213738 0.042375837 -0.028903466 -0.003390237 -0.06100395 -0.008429633 0.03355292
00000000: 9268 1f3c 1002 dfbb 659a 89bc fa25 ca3d
00000010: 8597 963d 6f52 3dbd 5dbb 553c a2d1 c93d
00000020: 56a9 ba3c 7f20 e73c 4992 2d3d f6c6 ecbc
00000030: bd2e 5ebb 47df 79bd 721c 0abc c96e 093d

fc1.weight f4 [120, 256]
-0.052733354 0.012108783 -0.032866023 -0.04982624 -0.02315322 -0.009749339 0.032384843 0.00916053
0.019264631 0.030360898 -0.066265926 0.017202968 -0.016988812 -0.06323858 -0.0711216 0.028426012
-0.019433115 0.022498308 0.011810315 0.0023128784 -0.027128095 0.027186692 -0.05878478 -0.047680493
0.035177656 0.009200385 0.04722765 -0.059192296 -0.021312913 0.020564143 0.00932599 -0.030512655
-0.04993943 -0.045866027 -0.040825382 0.051839657 0.069602765 0.010875154 0.0652401 0.043010686
-0.07706926 0.05407474 0.079358265 0.002491788 -0.010411011 0.06555554 -0.0024115357 -0.05120947
0.057545368 0.019248657 0.04276267 0.0026805466 0.008957385 -0.0025941115 -0.023109384 0.02116453
-0.06364986 0.029227125 0.055809192 0.022983234 0.034858063 0.042416587 0.025620652 0.015644746
-0.011199593 -0.04944439 -0.03844309 -0.017520906 -0.028555203 -0.037495468 0.019252857 0.04310797
0.0002485921 -0.019924568 -0.008059264 -0.026089221 -0.039135177 -0.0009690062 -0.048911143 0.014199483
0.0081689665 0.03257648 0.033831384 -0.030321125 0.031237049 -0.039032146 0.045435145 0.056136236
-0.0471219 -0.021839773 0.017479738 -0.06769075 0.0023714334 -0.037219804 0.053746466 -0.031465046
-0.054358188 -0.027419709 -0.030957598 0.0059891324 0.04283653 3.6790403e-05 0.027818 -0.02025438
0.05297457 0.0015419114 0.033528212 -0.04265118 -0.04659117 0.039796602 -0.003717669 0.04492781
0.029060222 -0.055279795 -0.053639475 0.0089312345 0.001363285 0.025692932 -0.021040771 -0.06473458
-0.052315224 -0.06724034 0.033984546 -0.06426163 -0.0049976185 0.052677 -0.026516397 -0.013311183
-0.03612432 0.046906997 -0.025127225 0.024816979 -0.0107733505 0.0043967455 -0.014969331 0.05140763
0.032349948 0.010405213 0.069532774 0.03231409 0.06899616 0.069988444 0.004879508 -0.013484013
0.039547917 0.021092946 0.010464032 -0.049460996 0.020075094 0.05143194 -0.050722312 -0.070441864
0.04417303 -0.004338287 0.001199354 0.005232866 -0.02359441 0.0017784039 -0.017333064 0.05251233
0.051018476 -0.04178004 0.008989038 -0.029201642 0.062065218 0.0363123 0.038452882 -0.0061208266
0.010833353 0.019574914 0.014744987 -0.0014671898 0.053394165 0.0019059053 0.04798582 0.039713882
-0.028375782 -0.040786963 0.008207672 -0.023845341 -0.06277596 -0.016940465 -0.039768238 -0.03742642
-0.035859942 -0.02794642 0.00051717134 0.053346694 0.04125272 -0.016154699 0.044335656 0.040245526
-0.021466324 -0.049816582 0.030649617 0.024881575 -0.050916817 -0.026674366 0.021699276 -0.037876487
-0.039766155 -0.05742378 0.041163377 -0.007929812 0.06222623 -0.03097355 0.038395032 -0.061250735
-0.045691393 0.028452864 0.017152295 0.04765984 -0.008450369 0.004112171 0.048575766 0.0013561326
-0.04589969 -0.057087313 -0.03022776 -0.045204684 0.004695577 0.066268384 0.039601196 -0.039517656
0.0056263735 0.008745869 -0.0079570105 0.009552744 -0.024010638 -0.03138128 -0.07020381 0.041883692
-0.06804613 -0.03283361 -0.048251074 -0.015675956 -0.039557938 -0.060895137 -0.035425805 0.06389433
-0.030109653 -0.05250844 0.032279376 -0.0058805738 0.008490207 0.019523459 -0.046297945 -0.04405487
0.04485875 0.008088314 -0.015305963 -0.01808132 0.019661104 -0.010278997 0.047357712 0.019996392
00000000: eefe 57bd eb63 463c 869e 06bd 9916 4cbd
00000010: d2ab bdbc b1bb 1fbc f8a5 043d 0c16 163c
00000020: dcd0 9d3c 6bb7 f83c 6eb6 87bd 3ded 8c3c
00000030: 1f2c 8bbc 3b83 81bd 34a8 91bd abdd e83c
00000040: 3232 9fbc 5f4e b83c 0d80 413c a993 173b
00000050: bd3b debc a0b6 de3c 4fc8 70bd 9f4c 43bd
00000060: 7216 103d 36bd 163c c871 413d 9f73 72bd
00000070: 6b98 aebc 2276 a83c 0acc 183c adf5 f9bc
00000080: 4a8d 4cbd 04de 3bbd 8438 27bd d255 543d
00000090: e58b 8e3d b42d 323c 9a9c 853d f92b 303d
000000a0: 7dd6 9dbd 797d 5d3d 9686 a23d 444d 233b
000000b0: f292 2abc fc41 863d db0a 1ebb 05c1 51bd
000000c0: b1b4 6b3d 5caf 9d3c e927 2f3d 1cac 2f3b
000000d0: ffc1 123c f801 2abb e44f bdbc 3d61 ad3c
000000e0: dc5a 82bd b96d ef3c 2e98 643d 5647 bc3c
000000f0: 54c7 0e3d 04bd 2d3d 67e2 d13c 6929 803c
00000100: 7f7e 37bc 3386 4abd 8076 1dbd 0188 8fbc
00000110: 9aec e9bc d994 19bd 2bb8 9d3c fc91 303d
00000120: 7855 8239 d938 a3bc 010b 04bc 10b9 d5bc
00000130: 354c 20bd e804 7eba 0d57 48bd f3a4 683c
00000140: 21d7 053c ea6e 053d c792 0a3d 0264 f8bc
00000150: d7e4 ff3c 2ce0 1fbd 341a 3a3d 1cef 653d
00000160: e502 41bd 53e9 b2bc ab31 8f3c 73a1 8abd
00000170: 0d6a 1b3b cb73 18bd 4125 5c3d 7ee1 00bd
00000180: b1a6 5ebd 4c9f e0bc ca9a fdbc 7c40 c43b
00000190: 5b75 2f3d 654f 1a38 93e2 e33c 83ec a5bc
000001a0: ddfb 583d f619 ca3a e154 093d 01b3 2ebd
000001b0: 62d6 3ebd c301 233d 23a4 73bb 3906 383d
000001c0: b40f ee3c 116d 62bd 11b5 5bbd 5054 123c
000001d0: 41b0 b23a fc79 d23c b25d acbc 9093 84bd
000001e0: 7d48 56bd 4eb5 89bd 6133 0b3d 9a9b 83bd
000001f0: 10c3 a3bb d7c3 573d ea38 d9bc 2617 5abc
00000200: 18f7 13bd 8d21 403d 9cd7 cdbc fa4c cb3c
00000210: b582 30bc 9312 903b ed41 75bc cf90 523d
00000220: 6181 043d a07a 2a3c 3367 8e3d c75b 043d
00000230: dc4d 8d3d 1a56 8f3d 48e4 9f3b 0dec 5cbc
00000240: fffc 213d 1dcb ac3c 5571 2b3c 9d97 4abd
00000250: 8674 a43c 4caa 523d 33c2 4fbd d343 90bd
00000260: c7ee 343d 3028 8ebb a433 9d3a 7678 ab3b
00000270: 1049 c1bc 5519 e93a 12fe 8dbc 2b17 573d
00000280: c0f8 503d 8c21 2bbd c246 133c 4838 efbc
00000290: 1938 7e3d 35bc 143d c580 1d3d 3791 c8bb
000002a0: 607e 313c 925b a03c f594 713c b84e c0ba
000002b0: d7b3 5a3d 92cf f93a c78c 443d 06ab 223d
000002c0: 5474 e8bc 3b10 27bd 7979 063c 4e57 c3bc
000002d0: af90 80bd bbc6 8abc 05e4 22bd 724c 19bd
000002e0: e0e1 12bd e4ef e4bc c892 073a 1082 5a3d
000002f0: 9df8 283d dc56 84bc 4e99 353d 7ed8 243d
00000300: 25da afbc 790c 4cbd e814 fb3c 72d4 cb3c
00000310: 278e 50bd 3384 dabc aec2 b13c 6024 1bbd
00000320: d6e1 22bd 3335 6bbd ee9a 283d 0bec 01bc
00000330: eee0 7e3d 3ebc fdbc 1c44 1d3d 0de2 7abd
00000340: e626 3bbd fb15 e93c f882 8c3c f736 433d
00000350: 6b73 0abc 64bf 863b 62f7 463d 42c0 b13a
00000360: 5001 3cbd 63d4 69bd 35a0 f7bc 8c28 39bd
00000370: 5bdd 993b b8b7 873d dd34 223d 44dd 21bd
00000380: 715d b83b d54a 0f3c 1f5e 02bc 1d83 1c3c
00000390: f5b1 c4bc a889 00bd 04c7 8fbd 3c8e 2b3d
000003a0: c55b 8bbd 897c 06bd eba2 45bd dd6a 80bc
000003b0: 8107 22bd 2e6d 79bd a61a 11bd 08db 823d
000003c0: 85a8 f6bc 1713 57bd 6137 043d d4b1 c0bb
000003d0: 821a 0b3c a9ef 9f3c eaa2 3dbd e172 34bd
000003e0: cfbd 373d d984 043c ddc5 7abc 471f 94bc
000003f0: 5310 a13c 3d69 28bc 29fa 413d 79cf a33c

fc1.bias f4 [120]
-0.03593072 0.04469954 -0.012773162 0.06778143 0.021473736 0.044352453 0.060238786 0.06999579
-0.0051463395 -0.011960233 -0.017864972 0.03446913 0.018676158 0.02414906 0.0543136 -0.011725784
-0.026916184 0.0219808 -0.054762814 0.03049167 0.059277788 0.0016826288 0.014824892 0.05084982
0.04232351 0.0071271616 -0.01760896 0.021599183 -0.04835457 0.042770725 -0.0085845515 0.028834175
0.051432326 0.044218563 -0.05017049 0.026065143 -0.015905662 -0.0030403165 -0.05104021 -0.006706242
0.047178127 -0.019364135 0.025210945 -0.019970492 -0.0020867873 -0.020290207 0.041031897 0.026839416
0.035116684 -0.05598446 -0.037582155 -0.056436073 -0.033416126 -0.017838629 -0.064514786 0.0065844622
0.028499631 -0.012106222 -0.02629378 -0.0009285231 0.030350542 -0.031492926 0.049120504 0.025552046
-0.053660724 -0.026752833 0.060885806 0.043137062 -0.019608159 -0.053294513 -0.051133554 -0.061963204
0.056712877 0.039714552 -0.050950054 -0.04020403 0.02746812 0.00618581 0.023282968 0.03981581
0.07064561 -0.04529415 -0.01837761 0.02803361 0.042768084 -0.017772136 -0.056415133 0.042358886
0.00018680393 0.04008999 0.0450462 0.07223865 -0.033288844 0.051385 -0.021263935 0.05406664
0.0019188838 0.057375908 0.012168136 -0.023988016 -0.03840053 0.016421271 -0.0142710935 0.022743464
-0.01331705 -0.046221327 -0.04834846 0.04915493 0.026296133 0.020476729 0.060268663 -0.020734807
0.04553316 0.050215475 0.05101438 -0.05576877 0.01602603 0.039488528 -0.03494225 0.034315392
00000000: 172c 13bd dd16 373d 8646 51bc fed0 8a3d
00000010: b0e9 af3c ebaa 353d f2bc 763d f459 8f3d
00000020: a0a2 a8bb daf4 43bc 9059 92bc 812f 0d3d
00000030: befe 983c 40d4 c53c f077 5e3d 811d 40bc
00000040: 547f dcbc 1411 b43c f94e 60bd abc9 f93c
00000050: 44cd 723d a78b dc3a 1be4 723c e747 503d
00000060: 6b5b 2d3d f78a e93b aa40 90bc c5f0 b03c
00000070: 710f 46bd 5b30 2f3d 38a6 0cbc a635 ec3c
00000080: b4aa 523d 861e 353d 927f 4dbd 9186 d53c
00000090: 974c 82bc 0c40 47bb 8a0f 51bd 09c0 dbbb
000000a0: da3d 413d 89a1 9ebc 2f87 ce3c 2899 a3bc
000000b0: 7bc2 08bb a637 a6bc 1011 283d 56de db3c
000000c0: 83d6 0f3d f64f 65bd bfef 19bd 8329 67bd
000000d0: 59df 08bd 5122 92bc 5420 84bd 79c2 d73b
000000e0: 0f78 e93c 2d59 46bc 0e66 d7bc 2168 73ba
000000f0: b3a1 f83c bafe 00bd 9532 493d 8652 d13c
00000100: 59cb 5bbd c228 dbbc 6563 793d 7db0 303d
00000110: 4aa1 a0bc 594b 5abd 6b71 51bd 21cd 7dbd
00000120: c34b 683d baab 223d 01b1 50bd fbac 24bd
00000130: d304 e13c 56b2 ca3b ecbb be3c e715 233d
00000140: a5ae 903d 5c86 39bd a48c 96bc bea6 e53c
00000150: 962d 2f3d df96 91bc 8e13 67bd 8380 2d3d
00000160: cce0 4339 6735 243d 5d82 383d dbf1 933d
00000170: e259 08bd 1479 523d b431 aebc fb74 5d3d
00000180: 0e83 fb3a 0003 6b3d dd5c 473c 8482 c4bc
00000190: e049 1dbd e785 863c 4ed1 69bc 8050 ba3c
000001a0: c22f 5abc 9352 3dbd 0909 46bd ae56 493d
000001b0: fd6a d73c d0be a73c 46dc 763d 0bdc a9bc
000001c0: fb80 3a3d beae 4d3d 74f4 503d cb6d 64bd
000001d0: 0549 833c b9be 213d 9b1f 0fbd 4c8e 0c3d

fc2.weight f4 [84, 120]
-0.032614842 0.04560324 -0.06526896 0.18666399 0.06121193 0.17180428 0.037978377 -0.033976886
0.07078582 0.1101863 -0.08674235 -0.005950407 -0.16906486 -0.08153752 0.06973359 -0.00393418
0.036070656 0.04831162 0.06414441 0.07804329 0.06054932 -0.012430398 -0.08068579 -0.021673318
0.019598233 -0.08423377 -0.025872169 0.038249757 0.035023946 -0.021063328 0.0020257959 -0.019463092
-0.11977393 0.08735278 0.029430017 -0.066762544 -0.060505997 -0.055690926 -0.07898321 -0.00013127548
0.086252555 0.030178111 0.02495069 0.04260105 -0.12180124 0.036188386 0.054047707 0.08877915
-0.069726795 0.16545187 -0.032734003 0.07390942 0.067251734 0.06960701 0.0870062 0.061210204
-0.05089503 0.020759713 0.007914068 -0.002302846 0.055680286 -0.07092315 -0.017763233 0.07358573
-0.12577306 -0.013048226 0.03282046 0.0006267287 0.087752685 0.054191094 -0.06973122 0.11061644
-0.050837737 -0.067343414 0.05895222 0.04141386 0.10857236 -0.031461626 0.085851006 0.020719439
-0.07158031 -0.040297695 0.032673843 -0.03869796 0.06400015 -0.02723881 0.06247458 -0.0074583627
-0.10730845 0.038794458 0.038684536 0.042023852 -0.02210998 0.010228483 -0.011569319 0.12918079
0.026626583 -0.006286315 -0.045916095 0.06169054 -0.055971447 -0.13319597 -0.06930654 0.04659511
-0.08740048 -0.02275333 0.06154268 0.13344818 -0.052789588 0.06261365 -0.09113411 0.12489267
-0.07875476 0.056498684 0.07383023 0.13612486 -0.0042058085 0.07264238 -0.0107783545 0.029843386
-0.035521787 -0.06538036 -0.03696867 0.047452375 0.0015888736 -0.07972639 0.098788574 0.15663141
0.005365081 0.0974844 0.1262354 0.028990885 0.04353113 0.0431946 -0.0537901 0.10736102
-0.05437684 -0.0170329 0.0067087915 -0.012690723 -0.08283471 -0.07123728 0.0075236796 0.021918433
-0.09576937 0.11126758 0.04348571 -0.01986857 0.068224974 0.035831265 -0.033737533 -0.023041228
0.0850498 -0.08531739 0.040536646 0.07205972 0.03965501 -0.031566627 -0.087433144 0.075259455
-0.028054155 -0.02908778 -0.06527409 0.004953247 -0.102540344 -0.07814343 0.0743585 -0.054587007
-0.017225808 0.047172584 -0.08622213 -0.004806949 -0.0027785392 0.0943218 -0.025976688 -0.02022379
-0.10332159 0.014521947 -0.01801695 -0.07505646 0.122592114 -0.07144954 -0.04719516 -0.02289026
-0.076732084 -1.4333189e-06 -0.046869118 0.06386475 -0.06873835 -0.028215708 -0.013039673 0.09212017
0.102243625 -0.027522866 0.030012468 0.09086252 0.101623334 -0.00411194 -0.014183615 0.052826963
0.15425107 0.0071372935 -0.041900992 -0.06504618 0.13078739 0.07207389 0.07279949 -0.036769673
-0.030852811 0.040116023 0.027772896 0.034314908 0.03227914 -0.014094892 -0.0061753956 -0.11742875
0.06568552 0.06867882 -0.08317488 -0.033378094 -0.11988189 -0.085585594 0.084020026 0.022067808
0.070760705 -0.060173083 -0.057227567 0.053187724 0.06354028 0.05785352 -0.07627572 0.035889223
0.04925895 0.033345256 0.07213357 -0.0377274 0.049358767 -0.019238066 0.07618737 -0.13391726
0.019501012 -0.1153645 0.008899748 0.031871527 0.06394014 -0.018171113 0.09239368 0.16060074
0.061993003 0.010365059 -0.08822528 -0.025311746 -0.002291398 -0.08822655 0.07151441 0.12198217
00000000: 2497 05bd 77ca 3a3d bcab 85bd d824 3f3e
00000010: 5cb9 7a3d 76ed 2f3e 378f 1b3d 592b 0bbd
00000020: 28f8 903d 5ba9 e13d f9a5 b1bd a2fb c2bb
00000030: 571f 2dbe 25fd a6bd 7cd0 8e3d 4bea 80bb
00000040: d3be 133d 68e2 453d 255e 833d 29d5 9f3d
00000050: 9002 783d dea8 4bbc 973e a5bd 3e8c b1bc
00000060: 798c a03c c182 acbd dff1 d3bc c7ab 1c3d
00000070: 4575 0f3d 008d acbc 37c3 043b 1071 9fbc
00000080: 094c f5bd 04e6 b23d 3817 f13c cdba 88bd
00000090: 23d5 77bd 2b1c 64bd f3c1 a1bd fea6 09b9
000000a0: 2ea5 b03d 1638 f73c 6465 cc3c 707e 2e3d
000000b0: ee72 f9bd 463a 143d 2161 5d3d d8d1 b53d
000000c0: eccc 8ebd 376c 293e 1714 06bd d25d 973d
000000d0: 47bb 893d 1f8e 8e3d 4e30 b23d 8db7 7a3d
000000e0: 4f77 50bd 4610 aa3c 02aa 013c 58eb 16bb
000000f0: 0311 643d 2840 91bd 3384 91bc 1db4 963d
00000100: a7ca 00be 3ac8 55bc bf6e 063d 0d4b 243a
00000110: aeb7 b33d 7bf7 5d3d 3ecf 8ebd df8a e23d
00000120: 3b3b 50bd 58eb 89bd e277 713d 94a1 293d
00000130: 2f5b de3d e8dd 00bd a7d2 af3d d0bb a93c
00000140: b398 92bd 320f 25bd 02d5 053d c181 1ebd
00000150: 8312 833d ed23 dfbc 58e5 7f3d 4865 f4bb
00000160: 88c4 dbbd f0e6 1e3d ad73 1e3d 3421 2c3d
00000170: fd1f b5bc 5e95 273c 3e8d 3dbc f847 043e
00000180: fe1f da3c 6ffd cdbb 8412 3cbd 38af 7c3d
00000190: 5142 65bd 8664 08be 96f0 8dbd 84da 3e3d
000001a0: 06ff b2bd 3165 babc 2d14 7c3d a4a6 083e
000001b0: e539 58bd 963b 803d 85a4 babd bac7 ff3d
000001c0: 2d4a a1bd 2a6b 673d 4e34 973d 5164 0b3e
000001d0: e1d0 89bb 87c5 943d b297 30bc 1e7a f43c
000001e0: 4b7f 11bd 23e6 85bd 766c 17bd 6c5d 423d
000001f0: c041 d03a 9747 a3bd aa51 ca3d fc63 203e
00000200: 90cd af3b e7a5 c73d da43 013e 4b7e ed3c
00000210: b34d 323d d2ec 303d 0253 5cbd 18e0 db3d
00000220: 40ba 5ebd 9588 8bbc 6cd5 db3b c0ec 4fbc
00000230: 3fa5 a9bd dae4 91bd 3389 f63b 498e b33c
00000240: bb22 c4bd 42e0 e33d 121e 323d 69c3 a2bc
00000250: 89b9 8b3d cec3 123d 5e30 0abd f5c0 bcbc
00000260: 972e ae3d e2ba aebd c109 263d 0c94 933d
00000270: 4b6d 223d 024c 01bd 2610 b3bd a121 9a3d
00000280: d4d1 e5bc 7f49 eebc 6cae 85bd d94e a23b
00000290: ac00 d2bd aa09 a0bd 4549 983d a096 5fbd
000002a0: 231d 8dbc 0a38 413d 3a95 b0bd 9c83 9dbb
000002b0: 2718 36bb ca2b c13d 10cd d4bc 5dac a5bc
000002c0: 459a d3bd 76ed 6d3c 4898 93bc 34b7 99bd
000002d0: 9311 fb3d 2354 92bd b64f 41bd 5b84 bbbc
000002e0: b625 9dbd 7660 c0b5 d5f9 3fbd 86cb 823d
000002f0: b1c6 8cbd a124 e7bc 5aa4 55bc 80a9 bc3d
00000300: 1b65 d13d a277 e1bc b5dc f53c 2116 ba3d
00000310: e51f d03d 74bd 86bb 6562 68bc 1661 583d
00000320: fef3 1d3e f5df e93b 60a0 2bbd ee36 85bd
00000330: 21ed 053e 7a9b 933d e617 953d cc9b 16bd
00000340: 09bf fcbc b350 243d fc83 e33c ca8d 0c3d
00000350: 2237 043d 43ee 66bc f95a cabb 7c7e f0bd
00000360: 2186 863d 7ba7 8c3d 9757 aabd 78b7 08bd
00000370: a384 f5bd 8047 afbd b112 ac3d 8cc7 b43c
00000380: fdea 903d 0d78 76bd 7467 6abd 5fdb 593d
00000390: 6821 823d d0f7 6c3d 7236 9cbd 9400 133d
000003a0: c1c3 493d 0995 083d c4ba 933d 0c88 1abd
000003b0: 6b2c 4a3d 2699 9dbc 2008 9c3d 9b21 09be
000003c0: 96c0 9f3c 3944 ecbd 40d0 113c b88b 023d
000003d0: 0cf3 823d 96db 94bc e638 bd3d 8574 243e
000003e0: 60ec 7d3d 35d2 293c 75af b4bd 945a cfbc
000003f0: 472b 16bb 1fb0 b4bd 2676 923d cad1 f93d

fc2.bias f4 [84]
0.026020655 0.048250064 0.09658487 -0.058163524 0.07258853 -0.06637916 0.014810205 0.0436445
0.0021862283 0.09563475 0.002776451 0.102701455 0.02282291 0.03828585 -0.051519997 -0.014260728
0.11605685 -0.028679838 0.06428818 0.07181027 -0.024263933 -0.07858114 0.06957815 -0.03943818
0.035357893 0.07716427 -0.08231719 0.011720047 0.034919217 -0.0822928 -0.038654514 -0.008431986
0.073356986 -0.0038250892 -0.08027535 0.028492644 -0.093349926 0.042573933 -0.044899248 0.040157344
0.043151774 -0.03922592 0.035724662 -0.062046032 0.03757088 -0.013823119 -0.036818773 -0.06606354
-0.00018905482 -0.013049159 0.022051595 -0.021007853 0.042055488 0.019635305 -0.00095017435 -0.043488413
0.099552915 0.02785065 0.09592581 0.07975169 0.048276417 -0.01154518 0.010296396 0.049679276
0.1140156 -0.012379969 0.05526179 -0.0335185 0.080558546 0.10513199 0.01769757 -0.05029136
0.10554688 -0.020556634 -0.08642219 0.04323706 0.04101282 0.014743244 -0.00059775094 -0.0659902
0.020208983 0.02969277 -0.04036103 0.08742896
00000000: 4529 d53c dca1 453d 4ace c53d e03c 6ebd
00000010: 4ca9 943d ccf1 87bd 81a6 723c 93c4 323d
00000020: d346 0f3b 27dc c33d 1ef5 353b 2455 d23d
00000030: 1df7 ba3c a0d1 1c3d a206 53bd d4a5 69bc
00000040: 37af ed3d fbf1 eabc 85a9 833d 4311 933d
00000050: 28c5 c6bc 26ef a0bd fd7e 8e3d ee89 21bd
00000060: 70d3 103d 4d08 9e3d ea95 a8bd 7105 403c
00000070: 7407 0f3d 2189 a8bd 3254 1ebd 5026 0abc
00000080: 303c 963d 59ae 7abb 6767 a4bd 6869 e93c
00000090: 3f2e bfbd 0162 2e3d 46e8 37bd 077c 243d
000000a0: eabf 303d 5cab 20bd 0654 123d fb23 7ebd
000000b0: ece3 193d 5d7a 62bc 48cf 16bd 524c 87bd
000000c0: 043d 46b9 24cc 55bc 8ca5 b43c a918 acbc
000000d0: 6042 2c3d 38da a03c 1f15 79ba e820 32bd
000000e0: 66e2 cb3d 0c27 e43c c074 c43d db54 a33d
000000f0: 7ebd 453d ff27 3dbc 37b2 283c 7f7c 4b3d
00000100: 0381 e93d 5ad5 4abc 305a 623d b24a 09bd
00000110: e1fb a43d 714f d73d 7ffa 903c 50fe 4dbd
00000120: f628 d83d 6366 a8bc 1efe b0bd 5819 313d
00000130: 0ffd 273d a68d 713c 63b2 1cba df25 87bd
00000140: 4f8d a53c 413e f33c 9b51 25bd f40d b33d

fc3.weight f4 [10, 84]
0.2289206 -0.21970843 -0.018729122 -0.072937004 -0.19694957 -0.17938015 0.059342735 0.26089033
-0.20655091 0.005638699 0.050348487 -0.08704699 0.043093298 0.18499029 -0.012404278 -0.1399942
-0.046184782 -0.08062108 -0.011278862 -0.088618 -0.0881205 0.17199777 0.11568673 -0.0313412
-0.045666248 0.10990413 -0.00089968945 -0.042860646 -0.016357703 -0.13103372 0.09389365 0.12713961
-0.20707633 0.13437542 0.13565959 0.31801134 0.0829302 -0.188118 0.01949033 0.10994783
-0.19676523 -0.049195718 -0.0150948195 -0.18068142 -0.07401254 -0.0016515678 0.10833919 -0.050043065
0.16893555 0.13727847 0.1459156 -0.081097916 0.035521388 0.1304845 0.05354544 0.04707278
-0.20842353 -0.1570459 0.18286274 -0.0793108 -0.020403093 -0.093345515 0.011757758 0.08865548
-0.27826685 -0.08552802 -0.10752558 0.010156141 0.049264148 -0.3095035 -0.14252037 -0.19556157
-0.22399561 0.048853923 0.13864191 0.24850436 -0.10112083 -0.15101168 0.09579576 0.08510495
0.10244712 -0.048611496 -0.11504214 -0.23001611 -0.028107224 0.32398343 0.25725126 -0.017006211
0.1687326 -0.095471084 -0.025191752 -0.09279649 0.29866698 0.2525827 0.021835402 -0.07491782
0.025800543 0.120786645 0.08391315 -0.052353654 0.072405346 0.096342765 0.041157607 -0.02719822
-0.0628815 -0.23651423 0.015567903 0.11023446 0.09294703 -0.051702805 0.040148094 0.18344977
0.015738064 0.24265917 -0.06759433 -0.0032776333 0.28097802 0.095299415 -0.04540681 -0.19613495
-0.002905439 0.12650366 0.08903655 -0.08209006 -0.19846259 0.04208376 -0.0011802248 0.42524624
-0.04236363 -0.10213258 -0.08734192 0.067504615 -0.11092312 -0.2508665 -0.22832575 0.06283014
-0.04292338 0.17305125 -0.18505678 -0.054482322 0.3550026 0.17552124 -0.21528399 -0.19528325
-0.0027220987 0.018215599 -0.024415506 0.05247263 0.018767517 -0.08117794 0.24653831 -0.0035194322
-0.15783772 0.2668438 -0.20248623 -0.06781276 -0.130247 -0.0033532553 -0.082741484 0.11334186
0.050872363 -0.12928931 -0.10422068 -0.022355072 -0.039913576 -0.16100928 0.15318242 -0.033102337
0.15105702 -0.22367027 0.20658197 -0.17798682 -0.10110258 0.021266103 -0.123736024 -0.1192132
0.20892684 -0.16621105 0.027193852 0.007868914 -0.08630819 0.011570288 -0.06511068 0.0065122927
0.2538447 0.041934766 -0.09446318 -0.10221911 -0.027455116 0.15150967 -0.032042623 0.099394806
0.17641494 -0.010134537 0.027273979 -0.08733765 -0.07215235 -0.10783285 -0.05072402 -0.086565115
-0.07502234 0.1761681 -0.10172645 -0.12159018 -0.066822276 -0.17978217 -0.14344893 -0.01166021
-0.27666372 0.0026570107 0.031366963 0.010099588 0.0832089 -0.11671117 -0.15545644 -0.10134983
0.2820266 0.26950255 0.099760264 0.059234057 0.07222287 0.0399512 -0.048306942 0.0814813
0.2931411 -0.063185796 0.03205766 -0.04306335 -0.0824164 0.18471298 -0.04663986 -0.19814101
0.21023923 -0.23825616 -0.1488139 0.15162621 -0.13070497 -0.00564956 0.20870234 -0.029287027
-0.20565313 -0.14722818 0.08087986 0.08176978 -0.10821756 0.11459672 -0.009592041 -0.005556129
0.044867292 -0.08342507 0.16750413 -0.09934137 -0.0061478885 0.08113827 0.17290147 0.17859477
00000000: 296a 6a3e 3ffb 60be d16d 99bc ff5f 95bd
00000010: 26ad 49be 6eaf 37be 5e11 733d 6b93 853e
00000020: 1582 53be d6c4 b83b 373a 4e3d b145 b2bd
00000030: 9982 303d 186e 3d3e 503b 4bbc a45a 0fbe
00000040: 412c 3dbd aa1c a5bd faca 38bc 5b7d b5bd
00000050: 8578 b4bd 2f20 303e 2aed ec3d a15f 00bd
00000060: 880c 3bbd 6b15 e13d 23d9 6bba a58e 2fbd
00000070: 9700 86bc b42d 06be 504b c03d e330 023e
00000080: d10b 54be b699 093e 59ea 0a3e 62d2 a23e
00000090: 4fd7 a93d 01a2 40be 2faa 9f3c 542c e13d
000000a0: d37c 49be 7381 49bd 4350 77bc 8d04 39be
000000b0: e393 97bd 6b79 d8ba f0e0 dd3d f5f9 4cbd
000000c0: 71fd 2c3e ba92 0c3e e66a 153e aa16 a6bd
000000d0: e07e 113d bb9d 053e 7752 5b3d 63cf 403d
000000e0: fa6c 55be a4d0 20be 5f40 3b3e b36d a2bd
000000f0: 6324 a7bc ef2b bfbd 9da3 403c 0191 b53d
00000100: fe78 8ebe 5129 afbd 5f36 dcbd f165 263c
00000110: 34c9 493d 3e77 9ebe dcf0 11be 4b41 48be
00000120: 1b5f 65be 0d1b 483d 25f8 0d3e ed77 7e3e
00000130: 7018 cfbd cea2 1abe 9130 c43d 814b ae3d
00000140: cccf d13d d91c 47bd 379b ebbd 5889 6bbe
00000150: 1f41 e6bc 28e1 a53e 70b6 833e 9c50 8bbc
00000160: 3dc8 2c3e 5886 c3bd ef5e cebc 160c bebd
00000170: e1ea 983e 8552 813e 28e0 b23c 846e 99bd
00000180: a95b d33c fd5e f73d a8da ab3d c970 56bd
00000190: 4149 943d 5b4f c53d e194 283d cdce debc
000001a0: 04c8 80bd c930 72be 8510 7f3c 9bc2 e13d
000001b0: 035b be3d 52c6 53bd 5472 243d 42da 3b3e
000001c0: 1ded 803c a57b 783e e56e 8abd 90cd 56bb
000001d0: 5adc 8f3e 572c c33d 7efc 39bd 9ad7 48be
000001e0: 2d69 3ebb 2d8a 013e cb58 b63d d51e a8bd
000001f0: c739 4bbe 0560 2c3d c6b1 9aba e0b9 d93e
00000200: 7c85 2dbd e32a d1bd 52e0 b2bd dc3f 8a3d
00000210: a92b e3bd 9371 80be 3ace 69be 17ad 803d
00000220: 6dd0 2fbd 5934 313e 867f 3dbe db28 5fbd
00000230: e7c2 b53e d7bb 333e 6873 5cbe 55f8 47be
00000240: 3d65 32bb e138 953c 0703 c8bc 8aed 563d
00000250: 56be 993c 9f40 a6bd 8a74 7c3e 46a6 66bb
00000260: 36a0 21be c09f 883e 8d58 4fbe 6be1 8abd
00000270: 785f 05be 4ac2 5bbb 5e74 a9bd c71f e83d
00000280: 8a5f 503d 6b64 04be a771 d5bd fc21 b7bc
00000290: 6b7c 23bd 9edf 24be dadb 1c3e 5196 07bd
000002a0: b1ae 1a3e d209 65be 398a 533e 2d42 36be
000002b0: df0e cfbd 4036 ae3c 5069 fdbd 0d26 f4bd
000002c0: ebf0 553e 3b33 2abe a4c5 de3c 9eec 003c
000002d0: 59c2 b0bd 4e91 3d3c c058 85bd 1265 d53b
000002e0: eff7 813e cac3 2b3d e975 c1bd 4158 d1bd
000002f0: 8de9 e0bc 5a25 1b3e 203f 03bd 818f cb3d
00000300: 1ea6 343e 540b 26bc ae6d df3c 15de b2bd
00000310: 9cc4 93bd 78d7 dcbd fdc3 4fbd 0d49 b1bd
00000320: 50a5 99bd 6965 343e f555 d0bd 4604 f9bd
00000330: 1eda 88bd d118 38be 47e4 12be 770a 3fbc
00000340: dea6 8dbe 3e21 2e3b a57a 003d be78 253c
00000350: 6e69 aa3d 4406 efbd f92f 1fbe 8090 cfbd
00000360: ca65 903e 3dfc 893e 1c4f cc3d 699f 723d
00000370: 96e9 933d dfa3 233d 80dd 45bd abdf a63d
00000380: 9716 963e 8e67 81bd e54e 033d 3263 30bd
00000390: eec9 a8bd 6625 3d3e 7009 3fbd 7ae5 4abe
000003a0: f448 573e 6cf9 73be ac62 18be e743 1b3e
000003b0: 86d7 05be f21f b9bb 11b6 553e 59eb efbc
000003c0: bc96 52be fcc2 16be 57a4 a53d ea76 a73d
000003d0: 2ba1 ddbd afb1 ea3d f027 1dbc 3010 b6bb
000003e0: c4c6 373d c3da aabd 3486 2b3e 7d73 cbbd
000003f0: 3a74 c9bb d22b a63d 150d 313e 8ce1 363e

fc3.bias f4 [10]
-0.18505147 0.036880292 0.14834478 0.21862897 -0.16245687 0.14687894 -0.22340725 0.10380052
0.24569121 0.06305363
00000000: 227e 3dbe ca0f 173d b2e7 173e 46e0 5f3e
00000010: 185b 26be 6f67 163e dfc4 64be 5e95 d43d
00000020: 7a96 7b3e 4322 813d
