defensive_model_t20.pth (torch_old, 179282 bytes, 10 tensors)

conv1.weight f4 [6, 1, 5, 5]
-0.12837097 0.24654001 0.8462464 0.8861396 0.351409 0.33814773 0.9048627 1.4276507
1.5454634 0.7316396 0.3488111 1.1683891 1.3294142 1.2102413 0.2215899 0.36704883
0.48237318 0.5877521 0.24981567 -0.062417924 -0.03750704 0.15617663 0.2857732 -0.11654749
-0.31032455 0.41757295 0.16250773 0.17148846 0.27482304 -0.0029194218 0.5093151 0.7077238
0.8409389 0.6336738 0.48634455 0.34205338 0.25082147 0.40350723 0.67089146 0.5116618
-0.2041048 0.017365659 0.06532539 0.7011056 0.59708977 -0.4520706 -0.465122 0.0048043546
0.42643604 0.20589569 0.78576225 0.83763385 0.73840654 0.69497603 0.13508576 0.6049987
1.1198329 0.94275606 0.73821884 0.28625545 0.099085726 0.69255775 0.9181166 0.36626303
0.3718397 -0.1922657 0.04538183 0.2985895 -0.006413577 -0.017982842 -0.14945 0.11359903
-0.0817832 0.01483654 0.055461787 -0.23488724 -0.14306203 -0.24992643 0.17457263 0.14510427
-0.19568631 -0.031696428 0.09885679 0.12773259 0.19937183 0.20119816 0.027826518 0.37650007
0.27801606 0.3479656 0.20419554 0.15355322 -0.0012852943 -0.058137752 0.12484231 -0.03811512
-0.053034928 -0.031119239 -0.073584065 0.0966927 0.15641096 0.25511622 0.13019775 -0.40041465
-0.41151974 0.43549234 0.26438522 0.09448895 -0.07334391 -0.31243524 0.30659553 0.7004981
0.6851038 0.42035964 0.1463829 0.20415357 0.53175163 0.31010672 0.21466103 0.36880112
-0.2681738 -0.07697862 -0.013792772 0.07861773 0.25138685 -0.032452162 -0.18653996 0.12099377
-0.051398356 0.02482358 -0.22892785 -0.09544983 0.09020891 0.037802678 0.038115513 0.33758253
0.51280874 0.57562673 0.13916461 -0.084785834 0.5361946 0.8151209 0.7375972 0.31793436
0.22356117 0.30664617 0.3555789 0.42888376 -0.054024458 0.05586737
00000000: ae73 03be fc74 7c3e 9ba3 583f 0bda 623f
00000010: e1eb b33e b321 ad3e 15a5 673f 42bd b63f
00000020: bfd1 c53f bc4c 3b3f 5e97 b23e c68d 953f
00000030: 3f2a aa3f 30e9 9a3f 76e8 623e d3ed bb3e
00000040: 9ef9 f63e ec76 163f aecf 7f3e f0a9 7fbd
00000050: fba0 19bd c4ec 1f3e dd50 923e 73b0 eebd
00000060: dce2 9ebe 1fcc d53e 6d68 263e ac9a 2f3e
00000070: 9bb5 8c3e c553 3fbb 7962 023f 632d 353f
00000080: c647 573f 7238 223f 2702 f93e 9f21 af3e
00000090: ac6b 803e 8098 ce3e 8bbf 2b3f 45fc 023f
000000a0: d900 51be 6d42 8e3c 51c9 853d a87b 333f
000000b0: e0da 183f cc75 e7be 7924 eebe d96d 9d3b
000000c0: d355 da3e 52d6 523e b727 493f 2c6f 563f
000000d0: 3608 3d3f f3e9 313f ec53 0a3e 32e1 1a3f
000000e0: af56 8f3f 7658 713f e9fb 3c3f 1390 923e
000000f0: 75ed ca3d 774b 313f b109 6b3f d486 bb3e
00000100: c661 be3e 4de1 44be 4ce2 393d b9e0 983e
00000110: fc28 d2bb c150 93bc 6c09 19be 9ca6 e83d
00000120: f37d a7bd f614 733c e62b 633d 4886 70be
00000130: da7e 12be b7ec 7fbe 2bc3 323e 3796 143e
00000140: fe61 48be 1dd4 01bd 6e75 ca3d 55cc 023e
00000150: 2128 4c3e e406 4e3e 70f4 e33c 9ec4 c03e
00000160: 1f58 8e3e 8c28 b23e a318 513e 0e3d 1d3e
00000170: 5277 a8ba da21 6ebd 53ad ff3d 9a1e 1cbd
00000180: 273b 59bd c6ed febc 3eb3 96bd d306 c63d
00000190: 322a 203e 989e 823e 8f52 053e 2603 cdbe
000001a0: b7b2 d2be daf8 de3e 805d 873e 6c83 c13d
000001b0: 5535 96bd 83f7 9fbe 17fa 9c3e d853 333f
000001c0: f662 2f3f 6139 d73e 66e5 153e a20d 513e
000001d0: e020 083f 4fc6 9e3e 1ad0 5b3e 80d3 bc3e
000001e0: 144e 89be f7a6 9dbd 14fb 61bc 5502 a13d
000001f0: c7b5 803e 8fec 04bd 5504 3fbe 95cb f73d
00000200: 1587 52bd d25a cb3c 106c 6abe 337b c3bd
00000210: 73bf b83d fbd6 1a3d 031f 1c3d 9ed7 ac3e
00000220: 6f47 033f 465c 133f 2b81 0e3e 32a4 adbd
00000230: 0d44 093f c3ab 503f 2cd3 3c3f 4bc8 a23e
00000240: 38ed 643e ba00 9d3e 700e b63e a796 db3e
00000250: c048 5dbd 2fd5 643d

conv1.bias f4 [6]
0.0003405758 -0.00047917152 0.033540007 1.4191437e-05 0.01165743 0.044003155
00000000: 4f8f b239 5039 fbb9 3f61 093d c217 6e37
00000010: cefe 3e3c a73c 343d

conv2.weight f4 [16, 6, 5, 5]
0.074712545 0.01668163 -0.009194691 -0.051224034 -0.075653285 -0.12059642 -0.21107635 -0.15450855
-0.072345175 -0.025011843 0.07880353 0.3156753 0.3067087 0.19626012 -0.0023237846 0.3270672
0.4104352 0.24401535 0.11651449 0.17694867 -0.40288854 -0.44529375 -0.24788809 -0.1181288
-0.18231933 -0.07683226 -0.070816144 0.022920236 0.022593234 0.013574691 -0.04929639 -0.103382036
-0.14387882 -0.007940494 -0.0025047981 0.07475226 0.10343384 0.12959178 0.19495457 0.04218453
0.06918752 0.19334616 0.1887396 0.26398635 0.11806201 -0.22390112 -0.27477 -0.18976332
-0.09977759 -0.028093394 0.08574569 -0.0018677675 -0.031439394 -0.039087452 -0.02642793 -0.079362705
-0.073279195 -0.1330144 -0.09482495 -0.120202824 0.1513668 0.1611439 0.1663711 0.05217718
-0.031045144 0.1484924 0.30176172 0.24019678 0.2947249 0.068808414 -0.120372586 -0.23209348
-0.22237182 -0.07302943 0.02065061 0.06301105 0.08625614 0.030509192 -0.06499374 -0.040624805
-0.10398537 -0.009251213 0.067266166 -0.010355658 0.062082175 0.12171568 0.16985917 0.04994279
-0.0049241367 0.019167645 -0.0238929 -0.016900916 0.058961548 -0.047063943 -0.020529484 -0.10549806
-0.15720682 -0.044128645 -0.010024989 0.03146915 -0.032743964 -0.035266463 0.028127318 -0.118171476
0.050724693 0.010073393 0.06584127 -0.015967412 0.014322265 0.016882863 0.1713848 0.14658651
0.26541647 0.11259945 0.13509418 0.06884378 0.008713241 -0.0034970923 2.134535e-05 0.014356214
-0.13115078 -0.2050192 -0.25439078 -0.19181305 -0.047142647 -0.08326139 -0.0057537165 -0.09137458
-0.032958996 0.034745723 0.048716344 0.12498809 0.13348608 0.054988697 0.04648739 0.16813655
0.20882374 0.20078923 0.03895676 0.07042234 -0.06211352 -0.02231923 -0.09404319 -0.057557955
-0.06435215 -0.11852584 -0.20295283 -0.15767074 -0.074998654 -0.012104949 -0.01714587 0.020325597
-0.17307599 -0.21417695 -0.10647202 0.19356705 0.13204251 -0.028673863 -0.096989185 0.041129753
0.25377336 0.4403241 0.54211754 0.49063766 0.281389 -0.41320983 -0.27529147 -0.05867399
-0.029168429 -0.10312271 -0.41425014 -0.5659829 -0.36613575 -0.3024121 -0.16173506 0.090302765
-0.084563605 -0.095386066 -0.14858095 -0.1041944 0.11595829 0.20805095 0.075156175 -0.06640987
-0.047510702 0.1873068 0.20002909 0.27973837 0.3584469 0.31883162 -0.2820928 -0.2382077
-0.15216023 -0.013987535 0.07255017 -0.23582797 -0.3229354 -0.25538364 -0.29170397 -0.15798284
0.07158963 -0.04650267 -0.15054795 -0.034943167 -0.009004881 0.12356293 0.07760098 -0.010227636
-0.11337816 -0.0102318525 0.21579035 0.37012672 0.4824354 0.3103025 0.30307278 -0.3457967
-0.18246256 0.020455986 0.14989083 0.06539407 -0.38107803 -0.4008489 -0.369032 -0.36161217
-0.27663118 0.00593409 -0.046636257 -0.064620085 -0.02894581 -0.050442465 0.049789865 0.07401067
0.009005326 0.02744849 0.03947046 -0.011908577 0.020498058 0.06011376 0.08507973 0.038296882
-0.09409523 0.003870557 -0.005572043 -0.0631516 -0.017167361 -0.08335136 0.0068794335 -0.014073422
-0.0484711 0.06828543 -0.010129602 -0.10089256 -0.12161617 -0.12035984 0.0003355919 0.118653
00000000: e402 993d eaa7 883c 54a5 16bc 4bd0 51bd
00000010: 1cf0 9abd 41fb f6bd 6624 58be 7d37 1ebe
00000020: b529 94bd a3e5 ccbc bf63 a13d 31a0 a13e
00000030: ec08 9d3e 6af8 483e a34a 18bb 5a75 a73e
00000040: 9024 d23e 29df 793e 269f ee3d 0832 353e
00000050: 6847 cebe 8bfd e3be 60d6 7dbe 83ed f1bd
00000060: ebb1 3abe 3b5a 9dbd 0e08 91bd 38c3 bb3c
00000070: 7215 b93c 6168 5e3c 03eb 49bd f6b9 d3bd
00000080: f854 13be d918 02bc 8a27 24bb b717 993d
00000090: 1fd5 d33d b5b3 043e 2ca2 473e b0c9 2c3d
000000a0: 30b2 8d3d 89fc 453e f444 413e 3829 873e
000000b0: 7fca f13d 5646 65be a7ae 8cbe 5151 42be
000000c0: 3158 ccbd 1e24 e6bc 709b af3d e1cf f4ba
000000d0: 98c6 00bd 2a1a 20bd 637f d8bc ea88 a2bd
000000e0: 6713 96bd ed34 08be 9533 c2bd e62c f6bd
000000f0: e6ff 1a3e e802 253e 305d 2a3e bdb7 553d
00000100: 6352 febc 640e 183e 8380 9a3e 25f6 753e
00000110: 2fe6 963e 6deb 8c3d e785 f6bd eaa9 6dbe
00000120: 70b5 63be 7490 95bd 782b a93c f00b 813d
00000130: 0fa7 b03d 6aee f93c 701b 85bd 3266 26bd
00000140: 48f6 d4bd 6692 17bc d8c2 893d c7aa 29bc
00000150: e149 7e3d 1246 f93d 90ef 2d3e d090 4c3d
00000160: a75a a1bb 7705 9d3c 0bbb c3bc ca73 8abc
00000170: aa81 713d 1fc6 40bd 732d a8bc 5e0f d8bd
00000180: d3fa 20be 3dc0 34bd da3f 24bc cce5 003d
00000190: 891e 06bd 9173 10bd 436b e63c e303 f2bd
000001a0: b2c4 4f3d df0a 253c cad7 863d 17ce 82bc
000001b0: efa7 6a3c ee4d 8a3c 7f7f 2f3e c61a 163e
000001c0: abe4 873e 8a9a e63d 2156 0a3e f8fd 8c3d
000001d0: fbc1 0e3c 792f 65bb ca0e b337 5336 6b3c
000001e0: 644c 06be 8ef0 51be 823f 82be a46a 44be
000001f0: a618 41bd f384 aabd ac89 bcbb 9922 bbbd
00000200: 0300 07bd 8851 0e3d ca8a 473d c1f9 ff3d
00000210: 93b0 083e d43b 613d 9069 3e3d fd2b 2c3e
00000220: e4d5 553e b19b 4d3e 2091 1f3d 9639 903d
00000230: bf6a 7ebd d1d6 b6bc b799 c0bd e4c1 6bbd
00000240: 0fcb 83bd adbd f2bd ded2 4fbe 7074 21be
00000250: e598 99bd d653 46bc 7f75 8cbc de81 a63c
00000260: d53a 31be 3451 5bbe 010e dabd 7136 463e
00000270: 2736 073e 73e5 eabc 44a2 c6bd ac77 283d
00000280: 95ee 813e 2972 e13e 37c8 0a3f dc34 fb3e
00000290: 3812 903e 3d90 d3be 01f3 8cbe 2354 70bd
000002a0: a1f2 eebc 0032 d3bd 9818 d4be 41e4 10bf
000002b0: 2576 bbbe c2d5 9abe e09d 25be a8f0 b83d
000002c0: af2f adbd c559 c3bd 9b25 18be e063 d5bd
000002d0: 8a7b ed3d 4f0b 553e 7beb 993d e601 88bd
000002e0: 959a 42bd 5bcd 3f3e 6dd4 4c3e de39 8f3e
000002f0: 5a86 b73e e63d a33e 786e 90be b8ec 73be
00000300: e4cf 1bbe f92b 65bc 2f95 943d e37c 71be
00000310: ca57 a5be a5c1 82be 395a 95be 41c6 21be
00000320: 959d 923d 9579 3ebd 3e29 1abe 9120 0fbd
00000330: 3589 13bc 900e fd3d 43ed 9e3d d191 27bc
00000340: cf32 e8bd 80a3 27bc 25f8 5c3e 4081 bd3e
00000350: c601 f73e f8df 9e3e 5b2c 9b3e 440c b1be
00000360: 77d7 3abe 5093 a73c fb7c 193e 54ed 853d
00000370: a91c c3be 113c cdbe c3f1 bcbe 3b25 b9be
00000380: 9aa2 8dbe c172 c23b a905 3fbd 8957 84bd
00000390: c31f edbc c29c 4ebd 75f0 4b3d e892 973d
000003a0: 138b 133c a8db e03c c7ab 213d 311c 43bc
000003b0: 8beb a73c d939 763d 483e ae3d 31dd 1c3d
000003c0: 00b5 c0bd 2ca9 7d3b af95 b6bb a055 81bd
000003d0: 91a2 8cbc 1eb4 aabd df6c e13b 3694 66bc
000003e0: a289 46bd 3bd9 8b3d a1f6 25bc c2a0 cebd
000003f0: e611 f9bd 387f f6bd 62f2 af39 5800 f33d

conv2.bias f4 [16]
-0.07595552 0.12921965 -0.04448653 -0.018128546 -0.012998718 0.049435787 -0.059949845 0.052048244
0.0066596675 -0.011783378 0.048252255 -0.02447576 0.08279971 -0.053829633 0.07797632 0.026215317
00000000: 918e 9bbd 2852 043e 8237 36bd 5182 94bc
00000010: 93f8 54bc 2e7d 4a3d f88d 75bd 8a30 553d
00000020: 5739 da3b 120f 41bc 28a4 453d 6481 c8bc
00000030: e592 a93d 767c 5cbd 0db2 9f3d 81c1 d63c

fc1.weight f4 [120, 256]
0.0011117021 -0.035564456 -0.061913483 0.045746908 -0.023566257 0.041324377 -0.02658647 0.03102887
-0.09240274 0.028451437 0.031159226 -0.063788705 -0.03748091 -0.054424156 -0.06332758 0.04600441
-0.018451415 -0.03952166 -0.033829078 -0.013129798 -0.04109645 -0.03379213 -0.04676171 -0.035308063
-0.03343606 -0.108044766 -0.09462224 0.059789535 -0.07734695 -0.11568896 -0.13997078 -0.14316444
-0.05752029 -0.03897051 0.018223263 0.013096879 0.017732082 0.02370504 -0.033969216 -0.010781223
-0.020812498 -0.008746032 -0.00967861 0.03380159 -0.038839296 -0.038215 0.045081627 0.052931502
0.069546446 0.0077523272 0.0769274 0.051512275 -0.06454328 0.027250985 0.070465244 0.07311701
0.028124636 0.12964617 -0.07570626 0.007652461 0.060045768 0.043390904 -0.078209005 0.03641069
-0.033582903 -0.00073205726 0.0053654914 0.06331253 -0.0023100139 -0.00627452 -0.036686935 0.02591235
0.034821317 0.04762432 -0.06394182 0.03820029 -0.06695332 -0.020583522 0.034244005 0.03289372
-0.04397094 0.03580485 0.005417806 0.021517819 0.06655446 0.038447104 -0.067938365 -0.03371549
-0.028333714 -0.017549057 -0.040030714 0.023548726 -0.07724415 -0.022871153 0.14354862 0.04065092
-0.014560074 0.03325957 -0.0217654 -0.062356476 -0.03034099 -0.013551487 -0.01385306 -0.025496872
-0.014372338 0.05678997 0.025671035 -0.0027914962 -0.0187301 0.042939577 0.018376645 0.03356564
0.011984111 0.027681356 -0.0064718723 0.037389 -0.04277919 -0.058462698 -0.044944633 -0.0153143285
0.045311242 0.024066385 -0.04562927 -0.031140491 -0.054609884 0.047266066 -0.0069046714 -0.023114378
0.07210875 -0.031856 -0.07462284 0.014417407 0.05916997 0.08124362 -0.027794585 -0.050276343
-0.04912228 0.03633195 0.057719313 -0.0770933 -0.06608401 0.064931676 0.05561189 0.07934608
-0.020467421 0.055105314 0.043694977 0.1319504 -0.07216495 0.054558158 -0.030140398 0.005747359
0.032744713 0.067397065 -0.020035373 -0.124262646 0.048069444 0.0553977 0.04986151 0.04070653
-0.05904692 0.01296897 0.007223731 -0.0740337 0.046991404 -0.008872715 -0.051161896 0.012537742
0.056153815 -0.0425907 -0.120331526 -0.034781136 -0.05029129 -0.0373973 0.019431368 0.027168091
0.044310506 0.05404848 0.029517481 0.042912923 0.0023780398 0.00442798 0.052072525 0.016233167
0.016994119 0.07159372 0.018479759 -0.0699346 -0.01879061 0.019379128 -0.015386713 0.02308575
0.025710728 -0.032790534 0.051371407 0.102183804 0.04695878 0.072425656 -0.0045229904 0.066385366
0.008763944 0.009101562 0.0012119536 -0.07923622 -0.057102937 -0.073592365 -0.07458318 0.09886333
-0.054660883 -0.07541973 0.041340806 -0.0075653372 -0.004296213 0.018451544 -0.054939922 0.029584708
0.029961126 -0.07638876 0.003206218 0.01601967 -0.043377735 -0.031640183 -0.07377498 -0.17233871
-0.027784215 0.054566056 -0.0017028626 0.05330296 -0.060003616 -0.033595406 -0.044404805 -0.03454972
0.03630583 0.053987928 -0.052395962 -0.05555826 0.046816267 0.061230283 0.036859773 -0.0161323
0.0054229917 0.08194213 -0.020048115 -0.0013985122 0.07994278 0.079534575 0.08125616 -0.014665797
0.0461985 0.004436405 0.06917547 -0.005700245 0.050076786 0.044397768 -0.0002533986 -0.035338826
00000000: 88b6 913a 09ac 11bd fe98 7dbd 1c61 3b3d
00000010: 060e c1bc c043 293d decb d9bc 4230 fe3c
00000020: a63d bdbd fd12 e93c a241 ff3c a7a3 82bd
00000030: 9585 19bd ddeb 5ebd e4b1 81bd 1f6f 3c3d
00000040: 6c27 97bc 77e1 21bd 5c90 0abd 5d1e 57bc
00000050: c054 28bd 9e69 0abd 3589 3fbd 309f 10bd
00000060: 40f4 08bd 9346 ddbd 4ec9 c1bd dfe5 743d
00000070: 1468 9ebd 55ee ecbd 8054 0fbe b399 12be
00000080: 659a 6bbd 8b9f 1fbd f448 953c 4b94 563c
00000090: df42 913c 1231 c23c 4e23 0bbd baa3 30bc
000000a0: f97e aabc 844b 0fbc 0893 1ebc 8973 0a3d
000000b0: f415 1fbd 5587 1cbd 83a7 383d b4ce 583d
000000c0: 5e6e 8e3d 3c07 fe3b 1d8c 9d3d 89fe 523d
000000d0: 442f 84bd 753d df3c 1550 903d 5fbe 953d
000000e0: a365 e63c f7c1 043e e20b 9bbd 7fc1 fa3b
000000f0: 8df2 753d a9ba 313d 0b2c a0bd 6023 153d
00000100: 3a8e 09bd 88e7 3fba 01d1 af3b 00aa 813d
00000110: 9a63 17bb 7d9a cdbb 0a45 16bd 2346 d43c
00000120: cca0 0e3d b811 433d eef3 82bd e877 1c3d
00000130: d21e 89bd c69e a8bc 7143 0c3d 91bb 063d
00000140: df1a 34bd 1ba8 123d da87 b13b 2346 b03c
00000150: b44d 883d b67a 1d3d 4523 8bbd 4119 0abd
00000160: 1b1c e8bc 0ac3 8fbc 3ff7 23bd 42e9 c03c
00000170: 2e32 9ebd 495c bbbc 69fe 123e 9481 263d
00000180: 608d 6ebc 303b 083d 5a4d b2bc 8169 7fbd
00000190: ab8d f8bc 0e07 5ebc f2f7 62bc d1de d0bc
000001a0: f479 6bbc 999c 683d 104c d23c 89f1 36bb
000001b0: de6f 99bc 69e1 2f3d 9e8a 963c 207c 093d
000001c0: 0159 443c 03c4 e23c 0012 d4bb 3525 193d
000001d0: 3b39 2fbd 9576 6fbd dd17 38bd f3e8 7abc
000001e0: 4898 393d de26 c53c c2e5 3abd 581a ffbc
000001f0: 9dae 5fbd 109a 413d 9540 e2bb 5d5a bdbc
00000200: c1ad 933d 707b 02bd dcd3 98bd fd36 6c3c
00000210: 365c 723d 0e63 a63d 78b1 e3bc 91ee 4dbd
00000220: 7234 49bd d0d0 143d 166b 6c3d 18e3 9dbd
00000230: 0e57 87bd e6fa 843d 4bc9 633d 3380 a23d
00000240: 4bab a7bc 1cb6 613d 81f9 323d 011e 073e
00000250: 38cb 93bd 6078 5f3d ffe8 f6bc 5754 bc3b
00000260: 521f 063d 7907 8a3d 3921 a4bc 6a7d febd
00000270: 77e4 443d b3e8 623d 953b 4c3d e4bb 263d
00000280: 2fdb 71bd ce7b 543c 0cb5 ec3b fb9e 97bd
00000290: 0f7a 403d dd5e 11bc 238f 51bd 1a6b 4d3c
000002a0: 8b01 663d 9673 2ebd 6070 f6bd aa76 0ebd
000002b0: 3dfe 4dbd e92d 19bd 882e 9f3c 9e8f de3c
000002c0: ef7e 353d f061 5d3d a5ce f13c 76c5 2f3d
000002d0: e3d8 1b3b 9718 913b 004a 553d 6bfb 843c
000002e0: 4037 8b3c ba9f 923d dd62 973c df39 8fbd
000002f0: c4ee 99bc fac0 9e3c 8d18 7cbc 541e bd3c
00000300: 4e9f d23c 5e4f 06bd d36a 523d be45 d13d
00000310: da57 403d e753 943d 9835 94bb 0df5 873d
00000320: a596 0f3c b81e 153c 6ada 9e3a 9946 a2bd
00000330: c5e4 69bd 98b7 96bd 11bf 98bd dc78 ca3d
00000340: 17e4 5fbd a975 9abd fa54 293d a6e6 f7bb
00000350: 3fc7 8cbb b127 973c af08 61bd a15b f23c
00000360: 0971 f53c b671 9cbd 691f 523b af3b 833c
00000370: daac 31bd 2399 01bd 5617 97bd 8f79 30be
00000380: b99b e3bc a880 5f3d 9632 dfba 3454 5a3d
00000390: 5ac6 75bd 569b 09bd d0e1 35bd 0284 0dbd
000003a0: 6cb5 143d 7222 5d3d 269d 56bd 0f91 63bd
000003b0: 6ac2 3f3d 9bcc 7a3d 46fa 163d e327 84bc
000003c0: 5ab3 b13b 47d1 a73d f23b a4bc 484e b7ba
000003d0: 0ab9 a33d 06e3 a23d a169 a63d d048 70bc
000003e0: a33a 3d3d 435f 913b deab 8d3d 1fc9 babb
000003f0: 511d 4d3d 6fda 353d 96da 84b9 72bf 10bd

fc1.bias f4 [120]
-0.019351218 -0.0327963 0.049471665 -0.008042929 0.025923107 0.040517114 0.019941231 0.054557346
0.039567586 -0.0049103526 -0.06023797 -0.014357001 -0.049659006 -0.012046756 0.06000357 -0.03525107
0.024245974 -0.047823742 0.011020814 -0.06593531 -0.062342 0.052628648 -0.05647151 0.0062582265
0.0071222144 -0.0129151065 -0.06062695 0.00928125 -0.055055488 -0.058884386 -0.0365402 0.059596345
0.028959492 -0.05398466 -0.00073770067 -0.026866592 0.037864134 -0.03009176 -0.054271515 0.03625156
0.07634396 0.011299157 -0.009644601 -0.029141247 -0.0006836987 -0.038987655 0.05266667 0.04363451
0.05290234 0.054770928 -0.012367465 -0.016401581 0.013686393 0.084455386 -0.00423881 0.0048189065
-0.019262338 0.05303152 0.022374753 0.11093991 -0.029260352 -0.010731 0.08013117 0.039526016
0.06932919 -0.027997846 0.024831297 0.009437723 -0.0058749467 0.014635383 -0.0150689315 0.06486509
0.034151465 -0.003367741 0.047047 0.06550437 0.030422218 -0.030380907 0.020948295 0.010094993
0.042217866 0.06441518 -0.0019439033 0.018290998 -0.0025135416 -0.029450813 0.06188672 0.033063393
0.043908063 0.036479015 -0.03733006 -0.016840039 -0.058372345 -0.04120502 0.062336706 -0.054911807
0.058446527 0.025394116 0.014090646 0.03161201 0.073679015 0.01678326 -0.02996509 0.0386483
-0.038829047 -0.014186379 -0.041331943 -0.046086885 0.019471671 0.043800134 0.0467977 0.03702481
0.031803887 0.05756899 -0.054824512 -0.044465978 0.07633332 0.03510198 -0.037094723 -0.026791604
00000000: 7286 9ebc 6a55 06bd cda2 4a3d 7dc6 03bc
00000010: b25c d43c 46f5 253d cb5b a33c 8677 5f3d
00000020: 9f11 223d 06e7 a0bb 17bc 76bd a039 6bbc
00000030: 3e67 4bbd c25f 45bc 4ec6 753d 6d63 10bd
00000040: 7e9f c63c d4e2 43bd a590 343c 1809 87bd
00000050: 535a 7fbd 2391 573d ac4e 67bd cf11 cd3b
00000060: 7761 e93b e299 53bc f753 78bd 6210 183c
00000070: dd81 61bd c130 71bd 2dab 15bd 4c1b 743d
00000080: 753c ed3c 051f 5dbd 4162 41ba 5417 dcbc
00000090: 6c17 1b3d ff82 f6bc cf4b 5ebd 847c 143d
000000a0: 395a 9c3d 1920 393c 6304 1ebc a0b9 eebc
000000b0: 3e3a 33ba 85b1 1fbd 02b9 573d 1aba 323d
000000c0: 20b0 583d 7b57 603d e8a0 4abc 9c5c 86bc
000000d0: e53c 603c f2f6 ac3d b7e5 8abb ebe7 9d3b
000000e0: 0dcc 9dbc 9437 593d 424b b73c 7734 e33d
000000f0: 68b3 efbc 14d1 2fbc d01b a43d 08e6 213d
00000100: 76fc 8d3d bd5b e5bc 016b cb3c aea0 1a3c
00000110: a082 c0bb 3fc9 6f3c aee3 76bc fdd7 843d
00000120: 68e2 0b3d 51b5 5cbb 5bb4 403d 2827 863d
00000130: 0438 f93c 61e1 f8bc c29b ab3c 7865 253c
00000140: a4ec 2c3d 1bec 833d 92ca feba 01d7 953c
00000150: 3bba 24bb d542 f1bc ee7c 7d3d 7b6d 073d
00000160: f1d8 333d 056b 153d 68e7 18bd 1ff4 89bc
00000170: d717 6fbd 98c6 28bd c654 7f3d 34eb 60bd
00000180: a065 6f3d 5207 d03c 74dc 663c 987b 013d
00000190: 06e5 963d 0c7d 893c 5979 f5bc ae4d 1e3d
000001a0: 350b 1fbd fc6d 68bc af4b 29bd 9ac5 3cbd
000001b0: 0e83 9f3c c567 333d f2ae 3f3d 54a7 173d
000001c0: cb44 023d 76cd 6b3d ab8f 60bd f521 36bd
000001d0: a554 9c3d 18c7 0f3d a3f0 17bd 117a dbbc

fc2.weight f4 [84, 120]
-0.018567165 0.057092838 -0.010513426 0.044349965 -0.045859955 0.05029578 0.043595843 -0.0142083075
0.04002625 -0.115241766 0.016401626 -0.007839068 -0.08211243 0.04243628 0.012577479 0.09181139
-0.08595192 0.084954664 -0.07397696 0.07473734 -0.06363749 -0.019969858 0.014333324 0.0056287837
0.1683807 -0.07566707 -0.011311559 -0.020517455 0.0653959 -0.012960829 -0.047118112 -0.024770912
0.061151966 -0.0005902938 -0.060374267 0.030031443 0.0021768506 0.006822023 0.10392008 0.08989917
-0.037254434 -0.061100572 0.0452318 0.03386825 0.0065922425 -0.07180054 -0.05407658 0.07076687
-0.03444332 -0.05314613 0.04543636 0.08222933 0.010295426 0.123136014 -0.088479824 0.04582462
-0.09624313 -0.048074782 0.13354754 0.08149531 -0.012432642 0.062688865 0.12316746 -0.020511165
0.072871566 0.087133214 -0.0043638903 0.014317267 0.0727083 0.09516921 0.12744269 -0.05064895
-0.03553563 -0.014645284 0.03458253 0.036533594 0.104302704 -0.015413898 -0.034554794 0.044257276
-0.082941696 -0.0016132977 0.0061924662 -0.05248963 -0.07386045 -0.035203487 -0.046928626 0.0068378374
0.093692996 -0.038884502 0.020073071 -0.0029331492 -0.022392265 0.087097265 -0.03900317 0.039415155
0.0596235 -0.01689706 0.063432865 -0.07765753 -0.028396163 -0.059758402 -0.06427912 -0.01363474
0.004105713 -0.04425974 -0.12032471 0.0954325 0.011538976 -0.08003935 -0.036732078 -0.04235557
-0.011375002 0.12429089 -0.098625086 0.122980356 0.1309755 0.1497669 -0.0129941115 -0.002718532
0.06302997 0.07143373 0.013403427 -0.050483905 -0.051574465 0.03515497 -0.016596626 -0.06162026
0.074876785 -0.013746463 -0.08923914 -0.021309301 -0.008903587 -0.005438188 -0.07403156 0.025302099
-0.01795033 -0.014229668 0.0014074544 0.004191157 -0.05599724 0.06563896 0.053453803 0.10930367
-0.066425405 -0.05227449 0.006629065 0.12340382 -0.05313684 -0.16032022 -0.06236916 -0.039240927
-0.04014331 0.050058473 -0.041076943 -0.019255022 0.10930925 -0.009014192 -0.050445728 0.071209915
0.11536621 0.07812792 -0.015600074 0.07870329 -0.04707175 -0.001079537 0.06419409 -0.07837069
0.06159911 0.09102858 0.014779996 0.02017393 0.05021293 -0.041761365 0.03677795 0.022317678
-0.073914655 -0.021285944 0.015221958 0.08512371 0.050615564 -0.08728649 0.0013243693 0.017370205
0.030159896 -0.08395947 -0.04803738 -0.06829189 0.10724419 0.06015338 0.07378839 0.12970836
-0.039147478 0.0013469205 -0.03612664 0.10420602 0.120900266 0.08826565 0.06840629 0.025581392
-0.124282934 0.13870308 -0.046819016 -0.012624519 0.105224796 0.10546192 -0.05325772 -0.043557655
-0.035607703 0.1405587 -0.03170646 -0.017492449 -0.07190671 0.06676976 0.072639465 0.0017159753
0.08104334 0.030078769 -0.08287537 -0.11646125 0.045000456 -0.03384121 0.08788739 0.060873978
-0.12969734 0.031948987 0.09284556 -0.09539581 -0.0244254 -0.070649765 0.020218993 0.13173823
-0.06682589 0.030348893 0.083529785 -0.045190115 0.120515555 -0.039092667 -0.068904504 -0.049627036
0.08698058 -0.035794992 -0.06269097 0.05295132 0.07715312 0.007342699 -0.017057974 -0.020495456
-0.06812535 0.022236122 0.083935514 0.047887594 0.0056358064 0.07100598 0.061540537 -0.08805846
00000000: 2b1a 98bc 2eda 693d 8140 2cbc 4fa8 353d
00000010: a6d7 3bbd f302 4e3d 8e91 323d f6c9 68bc
00000020: 91f2 233d e003 ecbd b45c 863c 6f6f 00bc
00000030: 902a a8bd aad1 2d3d c511 4e3c 9c07 bc3d
00000040: 8f07 b0bd b6fc ad3d 3b81 97bd e40f 993d
00000050: 5f54 82bd d497 a3bc 51d6 6a3c a971 b83b
00000060: fd6b 2c3e 56f7 9abd 1e54 39bc 3914 a8bc
00000070: 49ee 853d a859 54bc ecfe 40bd 5eec cabc
00000080: 7c7a 7a3d f2bd 1aba 024b 77bd 8004 f63c
00000090: 7ea9 0e3b 478b df3b 0dd4 d43d 0e1d b83d
000000a0: 1b98 18bd 9844 7abd fb44 393d 6fb9 0a3d
000000b0: bd03 d83b 290c 93bd 677f 5dbd 39ee 903d
000000c0: 7014 0dbd c2af 59bd 7a1b 3a3d da67 a83d
000000d0: 25ae 283c bc2e fc3d e934 b5bd 99b2 3b3d
000000e0: 1e1b c5bd 10ea 44bd b0c0 083e 03e7 a63d
000000f0: 48b2 4bbc 0563 803d 393f fc3d 0807 a8bc
00000100: b03d 953d e672 b23d f7fe 8ebb f892 6a3c
00000110: 17e8 943d 13e8 c23d 5680 023e 4675 4fbd
00000120: cf8d 11bd c6f2 6fbc 69a6 0d3d 40a4 153d
00000130: a89c d53d 938a 7cbc 5489 0dbd 1e47 353d
00000140: 56dd a9bd 4a75 d3ba 2cea ca3b 5eff 56bd
00000150: 2644 97bd 8831 10bd 3b38 40bd f00f e03b
00000160: 1de2 bf3d 5b45 1fbd 4870 a43c 143a 40bb
00000170: fc6f b7bc 0d60 b23d cac1 1fbd c971 213d
00000180: c537 743d b46b 8abc 17e9 813d e90a 9fbd
00000190: 129f e8bc 3ac5 74bd c5a4 83bd 3f64 5fbc
000001a0: 3889 863b b349 35bd cd6c f6bd 1d72 c33d
000001b0: f90d 3d3c aceb a3bd 6074 16bd 097d 2dbd
000001c0: 375e 3abc 398c fe3d f3fb c9bd 20dd fb3d
000001d0: 711e 063e 7f5c 193e 41e5 54bc 6629 32bb
000001e0: db15 813d d94b 923d 0c9a 5b3c 36c8 4ebd
000001f0: bf3f 53bd a8fe 0f3d a6f5 87bc 8765 7cbd
00000200: 0059 993d d838 61bc 03c3 b6bd d890 aebc
00000210: 5ae0 11bc d432 b2bb dc9d 97bd 5946 cf3c
00000220: 920c 93bc 8e23 69bc 557a b83a f955 893b
00000230: 5d5d 65bd b86d 863d 60f2 5a3d 9ada df3d
00000240: 0b0a 88bd c71d 56bd a138 d93b 24bb fc3d
00000250: 04a6 59bd fc2a 24be ce76 7fbd 18bb 20bd
00000260: 506d 24bd 1d0a 4d3d 4c40 28bd b5bc 9dbc
00000270: 87dd df3d 43b0 13bc 2ea0 4ebd 81d6 913d
00000280: 1f45 ec3d 8801 a03d 7497 7fbc 312f a13d
00000290: 4fce 40bd 407f 8dba 3178 833d d080 a0bd
000002a0: 594f 7c3d 316d ba3d cc27 723c cc43 a53c
000002b0: 13ac 4d3d f70d 2bbd 7aa4 163d 90d3 b63c
000002c0: 9160 97bd dc5f aebc 8565 793c 5755 ae3d
000002d0: 4452 4f3d 42c3 b2bd 7696 ad3a f64b 8e3c
000002e0: e311 f73c f1f2 abbd d8c2 44bd 9edc 8bbd
000002f0: d8a2 db3d 6463 763d 5e1e 973d 45d2 043e
00000300: 1b59 20bd 278b b03a 87f9 13bd f769 d53d
00000310: 8f9a f73d 9fc4 b43d 9918 8c3d 1190 d13c
00000320: 0d88 febd 2e08 0e3e 4cc5 3fbd 12d7 4ebc
00000330: 1980 d73d 6bfc d73d c424 5abd 8369 32bd
00000340: 62d9 11bd 9fee 0f3e a2de 01bd 534c 8fbc
00000350: d343 93bd 95be 883d 00c4 943d 94ea e03a
00000360: 0dfa a53d c067 f63c 90ba a9bd 3c83 eebd
00000370: 6652 383d 159d 0abd 4efe b33d fe56 793d
00000380: 61cf 04be f1dc 023d d025 be3d e15e c3bd
00000390: c717 c8bc d3b0 90bd 4da2 a53c 63e6 063e
000003a0: 03dc 88bd 3e9e f83c aa11 ab3d 4519 39bd
000003b0: dcd0 f63d a21f 20bd ce1d 8dbd b845 4bbd
000003c0: e022 b23d c59d 12bd 2064 80bd 7ce3 583d
000003d0: 7402 9e3d 069b f03b 2abd 8bbc 16e6 a7bc
000003e0: 4e85 8bbd 8728 b63c 62e6 ab3d c825 443d
000003f0: 92ac b83b 956b 913d ee11 7c3d fe57 b4bd

fc2.bias f4 [84]
0.103756994 -0.074876495 -0.03440672 0.01332234 -0.07364998 -0.05683403 0.036901467 0.05951726
-0.074090004 0.07149847 0.04576483 -0.058029823 0.045505226 -0.0789557 -0.024787666 -0.063348554
-0.062081315 -0.071410246 0.028573647 0.025417136 -0.010085738 0.028255858 0.013022102 -0.03746932
-0.020311674 0.051697116 0.01660711 0.042070657 -0.018784937 0.013078877 -0.056656443 0.036159556
0.120353535 -0.06067043 -0.08614725 -0.036929317 0.088369004 0.11245266 0.0326798 0.11223457
-0.005971611 0.0018261613 -0.006285864 0.0905794 -0.056006927 0.03825005 0.06077595 0.0065696198
0.084758066 0.18644887 0.090153165 0.038896922 0.20807423 0.06637927 -0.07000422 0.09430016
0.03379008 -0.0775676 0.052879304 -0.013892046 0.015780319 0.10979691 -0.026806042 -0.055679567
-0.0066822385 0.0802509 -0.07328454 0.0009924838 0.09980986 -0.024657175 -0.047871213 -0.08567868
0.056018382 0.07712545 -0.081676625 0.14675222 0.022812 0.08141899 0.028859481 -0.071846254
0.078367524 0.0028354754 -0.077461846 0.102756925
00000000: 8c7e d43d d958 99bd 10ee 0cbd f245 5a3c
00000010: cdd5 96bd cdca 68bd fe25 173d 5fc8 733d
00000020: 80bc 97bd ca6d 923d e773 3b3d aeb0 6dbd
00000030: b063 3a3d 87b3 a1bd 810f cbbc e3bc 81bd
00000040: fa48 7ebd 893f 92bd 4813 ea3c 9937 d03c
00000050: a73e 25bc d478 e73c a85a 553c 6e79 19bd
00000060: ab64 a6bc 5bc0 533d a20b 883c 4852 2c3d
00000070: dee2 99bc c948 563c 9610 68bd 0b1c 143d
00000080: ea7b f63d 8f81 78bd f86d b0bd 3243 17bd
00000090: cffa b43d 954d e63d 41db 053d 3ddb e53d
000000a0: 81ad c3bb ce5b ef3a a6f9 cdbb b181 b93d
000000b0: 8567 65bd 16ac 1c3d 34f0 783d f745 d73b
000000c0: a395 ad3d 74ec 3e3e 39a2 b83d 6152 1f3d
000000d0: 6911 553e dbf1 873d 5f5e 8fbd 7120 c13d
000000e0: 7867 0a3d c3db 9ebd f897 583d 779b 63bc
000000f0: ba45 813c 34dd e03d 5898 dbbc 4210 64bd
00000100: aef6 dabb 955a a43d 3416 96bd 3b16 823a
00000110: 1d69 cc3d d8fd c9bc 9b14 44bd 4e78 afbd
00000120: 8873 653d f3f3 9d3d 1346 a7bd 3746 163e
00000130: 3be0 ba3c 00bf a63d b86a ec3c 2124 93bd
00000140: 277f a03d 62d3 393b 51a4 9ebd 3972 d23d

fc3.weight f4 [10, 84]
-0.06561854 0.03642764 0.039433766 -0.07248775 0.1669005 -0.2136482 -0.07615796 0.08922544
-0.03115875 -0.26732373 0.05190644 0.08509783 -0.19577253 -0.023120204 -0.31905425 -0.02153582
0.11490008 0.026016144 0.16875887 0.20801626 -0.11025504 -0.19225176 -0.050110295 0.22787805
0.039159063 -0.03787629 -0.10172295 0.050133687 0.103239685 0.2958352 0.3415976 -0.039528858
0.031172302 -0.049778692 0.09674185 -0.17809813 0.10986431 0.039241683 0.10859264 0.07928985
0.38184908 -0.1834732 -0.031711012 -0.10418165 0.14516485 0.083330214 -0.25016263 0.06391563
0.29950997 -0.57362264 -0.29933816 0.16703917 -0.20308354 -0.043446407 0.016565116 -0.2662889
0.11327135 0.06507906 0.24973536 0.06966149 0.38906574 -0.031337213 -0.0148337465 -0.41417766
-0.06333817 -0.07150783 -0.043722503 0.07341436 -0.25097665 0.060668796 0.068659134 0.46384495
-0.36117095 0.0155196125 -0.12868777 0.06315608 0.077597536 0.007541423 -0.16910468 -0.33556393
-0.047253694 0.048097324 0.5406585 0.28552532 -0.27060112 -0.001742554 0.124486215 0.25106046
-0.26472276 0.116137475 0.26024958 -0.056156512 0.101273105 -0.02615286 -0.043459643 0.13953847
-0.07613187 0.0025267182 0.15697983 -0.10684158 -0.18735857 0.045434523 -0.3262503 -0.298644
-0.26940084 0.24514066 0.40444404 0.24109457 0.10736295 0.076376274 0.046733454 -0.020268226
-0.038964994 -0.06766232 -0.3643933 -0.061328262 -0.051866546 0.17655101 -0.055325534 -0.02157317
0.045443043 -0.13954614 -0.09571657 0.379291 0.04080096 -0.12746936 0.27917558 0.10892596
0.093326025 0.15929383 0.108026914 -0.024332082 -0.28584197 0.1875465 0.23580523 -0.26424363
-0.41502807 0.1318158 -0.003814178 0.27746695 0.06995243 -0.118091725 -0.0041639293 0.02382184
0.25169206 0.3291911 0.0057758726 0.40882787 0.09362995 -0.39388016 0.07256422 -0.17868926
0.50333464 -0.08656755 0.32437629 -0.29618332 -0.15011793 0.053514007 0.08613093 -0.07598218
0.06641526 0.1499074 0.3512327 -0.4250609 -0.342182 -0.36034927 -0.061788898 -0.24465474
0.028224854 0.36219186 0.00013545144 -0.11376116 0.1201789 -0.22335301 -0.15083902 -0.124627635
-0.009619269 0.10565681 0.11593199 0.006646852 -0.32990018 0.032248065 -0.25576973 -0.32166404
0.07043421 -0.025213517 -0.1475069 0.18965736 0.10564723 -0.18586855 -0.038596332 0.35974276
0.13751835 0.25084877 0.22544922 -0.036874607 -0.1635317 -0.10674986 0.0077303853 -0.2284224
0.33677778 -0.12841295 0.09575373 -0.1086084 0.48303998 0.19516988 0.3006199 -0.21485434
-0.3183543 -0.25516924 -0.21679546 0.20269941 -0.13083349 -0.04949061 0.555212 0.112099394
-0.27271244 0.061563846 -0.13409257 0.012587642 -0.16833562 -0.114412054 -0.006327118 -0.089694455
0.017200707 0.041841533 -0.16334665 -0.036832076 0.08243621 0.12930952 0.056137204 -0.39061877
-0.031497553 -0.21776219 0.00023442651 -0.18482365 0.14279896 0.062372163 0.06331997 -0.11454733
-0.03859713 0.13430537 -0.042318586 0.14323002 -0.034560375 0.029424472 0.063309744 0.07305629
0.14082167 -0.01133061 0.47180313 -0.20511353 -0.00926326 -0.050043415 -0.08845812 -0.25867984
00000000: 0363 86bd 2635 153d 4d85 213d 7574 94bd
00000010: f7e7 2a3e 98c6 5abe b4f8 9bbd d4bb b63d
00000020: a340 ffbc a8de 88be d99b 543d c547 ae3d
00000030: 9878 48be 9566 bdbc 145b a3be e36b b0bc
00000040: bc50 eb3d cf1f d53c 20cf 2c3e 3702 553e
00000050: 65cd e1bd a5dd 44be 7440 4dbd dd58 693e
00000060: 4165 203d 2b24 1bbd 1f54 d0bd fb58 4d3d
00000070: 546f d33d b677 973e e1e5 ae3e 03e9 21bd
00000080: 0e5d ff3c bee4 4bbd 9720 c63d 5b5f 36be
00000090: 8a00 e13d e3bb 203d d165 de3d b862 a23d
000000a0: b981 c33e 66e0 3bbe 68e3 01bd 305d d5bd
000000b0: 18a6 143e 08a9 aa3d 5115 80be 33e6 823d
000000c0: 5f59 993e efd8 12bf da42 99be 510c 2b3e
000000d0: 22f5 4fbe dcf4 31bd 91b3 873c 0557 88be
000000e0: cffa e73d 2c48 853d a0ba 7f3e afaa 8e3d
000000f0: a033 c73e 735b 00bd 3e09 73bc 180f d4be
00000100: 71b7 81bd b272 92bd 5e16 33bd 455a 963d
00000110: 0380 80be d87f 783d 299d 8c3d 167d ed3e
00000120: 66eb b8be f945 7e3c bac6 03be fa57 813d
00000130: 75eb 9e3d 0b1e f73b c729 2dbe 09cf abbe
00000140: 178d 41bd b301 453d 9868 0a3f 6030 923e
00000150: 3b8c 8abe 6966 e4ba a1f2 fe3d ff8a 803e
00000160: be89 87be 7cd9 ed3d 6f3f 853e 5f04 66bd
00000170: 4668 cf3d 863e d6bc bd02 32bd 2ce3 0e3e
00000180: 07eb 9bbd 4c97 253b 52bf 203e c2cf dabd
00000190: edda 3fbe 8d19 3a3d 480a a7be dee7 98be
000001a0: e8ee 89be 2706 7b3e 4a13 cf3e 7fe1 763e
000001b0: 1be1 db3d 2a6b 9c3d 946b 3f3d 8d09 a6bc
000001c0: c299 1fbd 8b92 8abd c291 babe 5833 7bbd
000001d0: 0472 54bd cac9 343e 079d 62bd 37ba b0bc
000001e0: 7c22 3a3d 2fe5 0ebe 0d07 c4bd 6e32 c23e
000001f0: e81e 273d 5487 02be 1af0 8e3e 9314 df3d
00000200: b721 bf3d ec1d 233e 373d dd3d 1354 c7bc
00000210: e159 92be 310c 403e ed76 713e f14a 87be
00000220: 8f7e d4be b9fa 063e 4af7 79bb 2610 8e3e
00000230: 3843 8f3d 13da f1bd 9271 88bb 0526 c33c
00000240: c8dd 803e bc8b a83e 8843 bd3b e351 d13e
00000250: 0fc1 bf3d a9aa c9be 8d9c 943d 51fa 36be
00000260: 8ada 003f 544a b1bd a614 a63e 57a5 97be
00000270: 84b8 19be 8131 5b3d 6a65 b03d 8c9c 9bbd
00000280: b904 883d 5381 193e c6d4 b33e 95a1 d9be
00000290: 7b32 afbe b37f b8be 5b16 7dbd c686 7abe
000002a0: cf37 e73c 3671 b93e f807 0e39 9cfb e8bd
000002b0: 5b20 f63d a7b6 64be 8b75 1abe c63c ffbd
000002c0: 239a 1dbc 9962 d83d c06d ed3d d6cd d93b
000002d0: ade8 a8be 8c16 043d 40f4 82be 26b1 a4be
000002e0: d03f 903d 948c cebc 0c0c 17be 8a35 423e
000002f0: 935d d83d 5354 3ebe 3017 1ebd 3430 b83e
00000300: 9cd1 0c3e 406f 803e 29dc 663e d409 17bd
00000310: db74 27be ac9f dabd 2c4f fd3b 90e7 69be
00000320: 236e ac3e af7e 03be 881a c43d 156e debd
00000330: 0451 f73e 9dda 473e daea 993e c702 5cbe
00000340: 56ff a2be 8ba5 82be a1ff 5dbe 6f90 4f3e
00000350: 37f9 05be aab6 4abd 6022 0e3f 5e94 e53d
00000360: f7a0 8bbe 5f2a 7c3d 904f 09be 663c 4e3c
00000370: 2c60 2cbe de50 eabd b653 cfbb bab1 b7bd
00000380: 7fe8 8c3c 0762 2b3d 5844 27be 3bdd 16bd
00000390: 51d4 a83d b769 043e 20f0 653d 2fff c7be
000003a0: 9403 01bd 0dfd 5ebe 63d0 7539 6942 3dbe
000003b0: e439 123e f479 7f3d e7ad 813d ca97 eabd
000003c0: 0618 1ebd 5987 093e 4156 2dbd e4aa 123e
000003d0: 2e8f 0dbd 970b f13c 8aa8 813d 899e 953d
000003e0: 8e33 103e 06a4 39bc 2e90 f13e 4809 52be
000003f0: eec4 17bc 53fa 4cbd 8829 b5bd af71 84be

fc3.bias f4 [10]
-0.18436521 -0.024527123 -0.00527032 0.116493024 -0.094230056 0.058557972 -0.4697841 -0.013726936
0.35176128 0.10288734
00000000: 3cca 3cbe 1bed c8bc a6b2 acbb e593 ee3d
00000010: b0fb c0bd 7cda 6f3d 8b87 f0be f1e6 60bc
00000020: 0e1a b43e 99b6 d23d
