defensive_model_t10.pth (torch_old, 179282 bytes, 10 tensors)

conv1.weight f4 [6, 1, 5, 5]
00000000: 8c18 fabd d4f4 6ebe b608 2e3d a8a0 af3e
00000010: 0987 c9bd fb93 cbbd 4584 1e3e b39e ea3d
00000020: e48e be3e 106c b33d fa24 123e cc3b 423e
00000030: 6a1a 6f3f e803 663f 653e df3e fe80 bc3e
00000040: 63a1 053f 5f4f 7f3f a9c9 243f 758d 8c3e
00000050: e5ab 843e 4b64 e23e a87a 103f e3f9 8c3e
00000060: 854b 553e baa7 39be a539 09be 1810 c2bc
00000070: c55f 0fbd 43b6 8abd 25b8 08be a2db 583e
00000080: 6fa0 fa3d f08c 5d3e 9d27 b33d 195b e6bd
00000090: 9fef 943e 7d2c 8e3e ee23 6fbb a828 0f3d
000000a0: cc3d 203e 62f4 953d 42ac af3c 9b05 953d
000000b0: 57ac 273e df85 273e c324 1a3e e2ce bcbd
000000c0: d4a5 c3bd bfe8 16bd 144c 9bbd 87c3 933e
000000d0: d09b 4d3e c5da c53e c07a 3d3d afb5 4bbd
000000e0: 7a97 743e c52e 3f3f 7948 1b3f 1445 e43c
000000f0: d520 7bbd 526a 553f adda 973f aff0 3f3f
00000100: 2770 f43d c0c7 c83e fcd1 5a3f f536 713f
00000110: 2a45 543f ae84 df3e e329 903e 00d0 233f
00000120: fa14 0a3f dfd7 4f3e 2dd5 753d 9fbc a4bd
00000130: 9049 2d3e 7ec2 a2bd d968 23bd 8eec 30be
00000140: 3e68 86bd 8dbc fc3c 47df 7f3e a6ef a8bc
00000150: 81d1 12be dc58 403d 5dff c3bd d994 f73d
00000160: 3abf abbd fb77 aebd 8ff4 f3bd 25ed 403e
00000170: 12a1 6c3d 95f1 11bd 0e59 9c3c 8916 a43d
00000180: f5d3 173e e68a 14bd 1eaa 37be aad8 4bbe
00000190: 731b 43be 7b46 24be d84e 18be 3c6c 563d
000001a0: 5b23 653e ce0d 86bd ab75 99be 3685 34be
000001b0: b9fd 453d 0ed7 f73e c500 37bd cf6b 69bd
000001c0: 92cd 1f3e 9688 e93e 1ef6 423f 561c 753e
000001d0: 1627 8b3c f0eb 213f 3e0b 213f 81ae 563f
000001e0: b307 573b a8c8 513e 79f4 113f b672 433f
000001f0: d653 de3e 5e9d 313d 4fa5 053e dbd2 b2bd
00000200: 764b 12be 9a9f 733d bc88 36be 002d 5f3d
00000210: e73a 4abe 68fe ff3d 3684 95bd bfc1 24be
00000220: 1508 f2bb 7ba6 32be 34b8 043e 5db4 f2bc
00000230: 22a5 06be 4248 22be 58f8 273e 90ec 993c
00000240: c6bf 5fbc 6306 4bbe e41b 3f3d 15e0 e23b
00000250: 20fe 6cbd d9c6 1d3e
-0.12211713 -0.23335582 0.042488776 0.34302258 -0.09840209 -0.099403344 0.15480144 0.11456051
0.37218392 0.08760846 0.14271918 0.18968123 0.9339968 0.8984971 0.4360229 0.36817163
0.5219938 0.99730486 0.6437021 0.27451673 0.25912395 0.44217142 0.5643716 0.27534398
0.2082959 -0.18130389 -0.13400896 -0.023689315 -0.035003442 -0.06773045 -0.13351496 0.21177533
0.122376315 0.21635795 0.0874779 -0.11247844 0.29089066 0.27768317 -0.0036489922 0.034950882
0.15648574 0.07322003 0.021444444 0.0727646 0.16374336 0.16359662 0.15053086 -0.09219147
-0.095531136 -0.036843058 -0.0758287 0.28860113 0.20078969 0.3864347 0.04625964 -0.049733814
0.23885909 0.7468074 0.6065746 0.02786497 -0.061310608 0.83365357 1.186361 0.7497663
0.11935454 0.39214897 0.8547666 0.9422448 0.82918036 0.43655914 0.28156957 0.6398926
0.5393826 0.20297192 0.060017753 -0.08043789 0.16922593 -0.07947253 -0.039894912 -0.17277738
-0.06562851 0.030851627 0.24987517 -0.020622086 -0.14337732 0.046959743 -0.09570191 0.12088937
-0.08386083 -0.08518978 -0.1191188 0.18840463 0.057770796 -0.03563078 0.019085433 0.08012111
0.14826949 -0.036265276 -0.17935988 -0.1990687 -0.1905344 -0.16042511 -0.14873827 0.052349314
0.22376768 -0.06545602 -0.29972586 -0.17628941 0.048337672 0.4840626 -0.04467847 -0.05698758
0.15605763 0.4561202 0.76156795 0.2393659 0.016986411 0.6325064 0.6290778 0.8386002
0.0032810986 0.204867 0.5701366 0.7634691 0.43423337 0.043362968 0.13051341 -0.08731624
-0.14286599 0.05947838 -0.17825598 0.054486275 -0.19749032 0.12499696 -0.07300608 -0.16089533
-0.0073862174 -0.1744632 0.12960893 -0.02962702 -0.1314893 -0.15847877 0.1640333 0.01878956
-0.013656562 -0.19826655 0.046657458 0.0069236853 -0.05785954 0.15407886

conv1.bias f4 [6]
00000000: 1e65 833c b74e 443e 7fe0 183c eed7 393c
00000010: eebd ba3d 201c 303e
0.016039427 0.19170652 0.009330868 0.011342986 0.091182575 0.17198229

conv2.weight f4 [16, 6, 5, 5]
00000000: c4e3 253d 7f5a 863d 9209 813d 4c35 c23d
00000010: 885a 5c3a b9ae 493e 295c a23e a3a1 8c3e
00000020: 8263 3f3e f58d 4ebc 9929 0ebc 47e0 863d
00000030: 0818 a3bc b1ec 07bc 15c3 1e3c 31e6 75be
00000040: 50bf 4dbe 94d0 12bd 6fe4 33bb 5d38 47bd
00000050: 8999 ab3c 82bd 053a 7fab b03c 56e9 513d
00000060: 3ae3 963d 81c2 1cbd 3b77 933d 1412 383d
00000070: 8e88 1b3d 585e 41bd 493b a53d 18d3 eb3d
00000080: a4ad c2bc 221b 883d f688 d23c c049 d7bb
00000090: 5d81 23bd d9c4 acbd a1d9 3e3c 1354 483d
000000a0: 7257 e5bd 608d d5bd 137f a53b 1c4d 343c
000000b0: a9a6 49bd 6efd 473d 6dd6 f33c d51e 77bb
000000c0: b12f 68bd 61ec 883d 1aab 75bc 58ef 86bb
000000d0: 2f82 433c 1af1 40bd 928c fdbc 7bce 7f3e
000000e0: a536 783e 29ea a13e 0b91 f73d 67b9 a4bd
000000f0: f47a 183d c2c5 e53d 9535 1b3d 5826 963d
00000100: c427 14bd a25a b8be 6526 69be 01b2 efbd
00000110: cd5b 5c3c 5519 2a3d 0d3b 3abe 3465 dabb
00000120: 9596 383c 51b5 d93d 96ed b43d 2585 0b3d
00000130: dc65 b2bd a7f7 77bd 80d9 3cbd 9eae 00bc
00000140: d3e1 943b 4a02 9b3d 982b 8cbd fea8 723d
00000150: 46ea 35bd 60f2 8abc ecd9 b9bd 9008 fe3c
00000160: aec9 613d 754d 80bd 346c 7f3d 4ee8 79bd
00000170: 7fc7 3e3d 2ac8 f83a 3e45 6abb 381c e3bc
00000180: de23 bebc 8919 913d e032 a23d e8bc 973d
00000190: c3f5 123e f051 193e c649 a13d ae1b 213c
000001a0: 40e2 ccbd 71c6 133e 296d 133e 0309 4e3e
000001b0: 8863 c83d 32b4 febd 440d ecbd 7ce9 c5bd
000001c0: 6407 323d f00a 543d 7005 d5bc d761 ebbd
000001d0: 91fb f7bd 8ca1 b73d 9e16 0e3e bec3 cebd
000001e0: 3237 56bc c8c1 4a3d e381 33bc 27dd df3d
000001f0: 87c5 adbd 68d6 3fbd d709 9bbc 24a7 32bd
00000200: d4ff 91bd 14cb 25bd 77fc 1ebd 982b 23bc
00000210: 95ab 93bd 43ab e0bc 07ab 8bbd f7a8 22bd
00000220: c644 263c 06ec d3bc dc79 933c 676b afbd
00000230: e403 d4bb a713 073d 5b05 8b3c 91fd 793c
00000240: 52fb 2fbd 6d85 03bb d5f7 84bd 5c4f 83bd
00000250: 4f38 4c3b 1ec6 e03b 91f5 bcbc edb2 57be
00000260: 6d7e 10be c224 1d3d d9ec d03c 40de a3bd
00000270: 9578 2dbe 008d 56bd 1549 2f3e b12d f13d
00000280: 6812 c3bd 0d85 533c fd86 313e 3bbb 5f3e
00000290: 9bb0 813d f79d bdbc 6fbe 233e bfea 9d3d
000002a0: 6b17 87bd 3edb 95bd 6973 90bd 3160 c0bc
000002b0: f238 babd afcb 9ebd 814a 08be 9f6b 863c
000002c0: c73d e93c 4ba9 6ebd 100a 2939 ea0d 973c
000002d0: 78c8 8bbd 19a3 e13b 3b26 a6bd c9e3 24bd
000002e0: 94b4 673d 1f80 6ebd 63fa ebbb 7f22 1b3c
000002f0: 1a34 9a3d 4587 b43d d95c 673c 2650 7e3d
00000300: 46c9 c33c 56f8 293d 6695 13bd 5731 733d
00000310: 161a 913d ed2f 2bbc 487e 6fbc d8ca 42bd
00000320: 2b57 6fbd 30ae 79be 7852 91bd f1aa 2d3d
00000330: 5217 183d 36d6 21be df87 f1bd 3f5a aa3c
00000340: c887 243e 5272 db3d ab22 b5bd f791 493d
00000350: 3bbc 3f3e 07b1 3c3e 9d49 ff3d b4c0 963d
00000360: 5f6b 183e 6e42 163e 6424 98bb 89ae fc3c
00000370: 52d7 743d 9e2d df3d cd57 8e3c dbcf 8fbc
00000380: 25fa eebd cac3 f13b fc91 7ebd 2c42 123d
00000390: fee9 3ebd 351e a93d 080a e73c 733f b73c
000003a0: 76fa 7a3d a45c 0fbd 6973 99bc a443 86bd
000003b0: 9ad3 1e3d a7f7 a1bd cfad 3e3a 720f 54bb
000003c0: 6ff4 a43b 8a36 f73c 6232 6f3d acf7 923d
000003d0: 4ffb a2bd 3ba1 6b3d f870 11bc 3b81 a53c
000003e0: 5cd7 2d3c b7c1 5c3d feb9 3bbe 35d1 4dbe
000003f0: 54a3 68bd ab7d 8dbc 4247 9f3d 9325 dbbd
0.040500417 0.065602295 0.063006535 0.09482822 0.0008405824 0.19695558 0.31710938 0.2746707
0.18690303 -0.012607087 -0.00867691 0.06585746 -0.01990892 -0.008296178 0.009690066 -0.24013592
-0.20092511 -0.035843447 -0.002744939 -0.048637737 0.020947235 0.0005101786 0.02156615 0.051247917
0.07367559 -0.03827143 0.07200476 0.044939116 0.037972026 -0.047209114 0.08067948 0.11514872
-0.023764439 0.066458 0.025700074 -0.006570071 -0.039918292 -0.08435983 0.011648566 0.048908304
-0.111983195 -0.10427356 0.005050549 0.011004712 -0.049231205 0.048825674 0.029765332 -0.0037707586
-0.056686107 0.06685711 -0.014994407 -0.0041178875 0.011932894 -0.047104932 -0.030950818 0.2498111
0.24239595 0.31623963 0.120882116 -0.08043175 0.037226632 0.1121936 0.037892897 0.07331532
-0.036170736 -0.36006647 -0.22768553 -0.117038734 0.013449621 0.041528065 -0.18186589 -0.0066648964
0.01126637 0.106302865 0.088343784 0.034062523 -0.087108344 -0.060538914 -0.04610586 -0.007854132
0.004543522 0.07568796 -0.06844252 0.059243195 -0.044412874 -0.016961277 -0.090747684 0.031009942
0.055123977 -0.06264774 0.06235905 -0.06101256 0.046576973 0.0018980552 -0.0035746838 -0.027723417
-0.023210462 0.070849486 0.0791986 0.07409078 0.14351563 0.14972663 0.07875399 0.0098332595
-0.10004091 0.14431168 0.1439711 0.20120625 0.09784609 -0.12436713 -0.11525968 -0.09663674
0.04346408 0.051768243 -0.02600357 -0.11493271 -0.12108529 0.089663595 0.13875815 -0.100959286
-0.013074683 0.04950121 -0.01095626 0.10930853 -0.08484941 -0.046835333 -0.01892559 -0.04361643
-0.071288735 -0.040476874 -0.038814988 -0.009959124 -0.07210461 -0.027425414 -0.0681973 -0.03971192
0.010148233 -0.02586938 0.018002443 -0.08565407 -0.0064701904 0.032977726 0.016970327 0.015258209
-0.042964287 -0.0020068542 -0.06492583 -0.06411621 0.0031161492 0.006859555 -0.023066314 -0.21064349
-0.14110728 0.038365133 0.025503563 -0.08001375 -0.1694053 -0.05238056 0.17117722 0.11776293
-0.09524995 0.01291014 0.1733665 0.21848767 0.06332513 -0.023146613 0.15990613 0.0771079
-0.065962635 -0.07317208 -0.07053263 -0.023483368 -0.09092893 -0.07753693 -0.13309671 0.01640874
0.02847184 -0.05826692 0.00016120845 0.018439252 -0.06825346 0.006885898 -0.08112761 -0.040256295
0.056568697 -0.058227655 -0.0072014793 0.009468674 0.07529469 0.08814863 0.014121258 0.062088154
0.023899686 0.041496597 -0.03603115 0.059373226 0.070850536 -0.010448438 -0.01461751 -0.047556728
-0.05843274 -0.24382854 -0.07095808 0.04239935 0.037131615 -0.15804371 -0.117934935 0.020794986
0.16067421 0.10715164 -0.08844503 0.04921147 0.18724148 0.18426906 0.124652125 0.07360974
0.14884709 0.14673778 -0.00464301 0.030844944 0.059775658 0.10897373 0.017375851 -0.017555168
-0.11668805 0.007378076 -0.06215094 0.035707638 -0.04660987 0.08257715 0.028203025 0.022369122
0.061274014 -0.03500046 -0.01873179 -0.0655587 0.038776018 -0.07908564 0.00072738243 -0.003235784
0.0050340216 0.030177373 0.05839766 0.07176146 -0.079580896 0.05752681 -0.0088770315 0.020203223
0.010610428 0.05389568 -0.18332669 -0.20099337 -0.056796387 -0.017271837 0.07777263 -0.10700526

conv2.bias f4 [16]
00000000: 8ddd 8a3d 9d53 65bd 5922 9e3d 6c5d a23c
00000010: d29c 4dbd 69ba 663d 0a6c bfbc 8db7 99bd
00000020: 8d96 1dbd f6f6 b93d 1cc4 9dbc fbaa ab3d
00000030: f669 023c 2421 193d e1d1 f83d 2298 54bd
0.06780539 -0.055987943 0.07721395 0.019819938 -0.050198384 0.05633012 -0.023366947 -0.07505713
-0.038473655 0.09080307 -0.019258551 0.08382221 0.007959833 0.03738512 0.12149406 -0.051902898

fc1.weight f4 [120, 256]
00000000: 8d1b 7a3c ca79 103d 6df2 0f3c 797e 1fbd
00000010: 504a adbc 64bc 203d 1389 90bc 9cb5 223d
00000020: 5352 053c 61a1 f43b 2a9f 57bc 3054 1bbc
00000030: 0714 30bd dfb4 573d ac12 8d3c 6427 56bb
00000040: 1e15 323c 24ef d4bb dbd0 1c3b 46b6 56bd
00000050: 74ca 21bd 216f 663c e8e9 87bd 4e0d 5c3b
00000060: 7b76 81bd f34e 3dbd 2905 8f3c 4ac1 3ebd
00000070: 191c d0bc d339 b73c 0939 6c3c 6a29 81bc
00000080: 5562 04bc a8cb a7bc b528 643c 2446 2ebb
00000090: eca0 e63c 25e2 d03c 3ae2 1a3d 3bd6 2ebd
000000a0: 816e 6cbb 04ea 3b3d f937 38ba 4173 a33c
000000b0: d1a2 86bd dd82 82bd 04b5 d3bc ae5f f53b
000000c0: 3562 83bd fb7b 233d 116f 343c 278c aabc
000000d0: b980 14bd 9778 553d fd1b 1bbd 6cd0 173c
000000e0: e326 8cbd c6e5 8f3b a8ac eb3b d807 c13b
000000f0: 92a3 4cbd 8134 073d d864 413d e420 81bb
00000100: 706e 47bd 2657 acbc dac7 003d 2008 753b
00000110: b33a d63c 1fad 5a3d 4746 243d a3a8 5cbd
00000120: d35b f4bc a9bc 1a3d 12de a2bb abf7 74bd
00000130: a955 b33b 97f6 bebc 02e9 8a3c 968f 303c
00000140: 8dda da3c ed82 e13c 408a 273d fca9 0fbd
00000150: 977c 60bd a2ab 683d ec4b 863d a7d5 18bb
00000160: 75b4 9bbc 5353 4fbd 78ed 203d 119d 54ba
00000170: 86e9 7a3d 9e3c de3b 2c4f 793d 5b61 abbc
00000180: 3165 ee3c 3fb2 093d a124 973c 90c0 6abd
00000190: 1b7b c53b 75f5 5f3d 734e 433c 40fb bcbc
000001a0: 010c 1dbd 6242 36bc bcad 49bd 5da1 73bd
000001b0: 4916 8cbc 2e96 f0bc 883f bbbb 4743 21bc
000001c0: 6888 7a3d f4b9 263d a971 4c3d f7e5 323d
000001d0: e13d c9bc b96c 493d 77cb 753d cb5e 3a3d
000001e0: becc 2f3c f810 ce3c 75db 1f3c ef82 f0bc
000001f0: 6282 7abb e9e3 0c3c eec3 e53c 9d1f 52bc
00000200: 2dc6 3fbd c15b 35bd a18e 6ebd 5cdb 70bd
00000210: d586 1a3d 6a8f 42bc 4c24 4cbd fda9 143d
00000220: 5ed3 8c3c 3741 d6bc 9ffc 18bd ff4d 71bd
00000230: 5b50 21bd b9b4 dfba e201 ebbc e033 5bbd
00000240: a81a 82bd 79b3 c0bc 6983 8c3c 0bcd 3b3d
00000250: 8898 113d 06d1 9cbc 9207 1f3d 9ec1 88bd
00000260: ae7c 8e3c c9c5 cd3c d530 933c 6b28 653d
00000270: fc5b 243d 03ca 5d3d 7c20 59bd 7009 95bb
00000280: c519 403b d4e3 5abc 4258 7d3d 7979 003d
00000290: 5ea2 4f3d 2131 e43c 3f59 88bc e6fe 3e3b
000002a0: 2cb7 34bd 8ac9 143c b630 2d3d a2d7 203d
000002b0: a0eb 08bd 4351 3e3d 51e3 8bbc c96e e63c
000002c0: 6c4a 1c3a f40f 3c3d 3da4 c13c dc8d 88bc
000002d0: 3296 06bd c543 50bc e9dc 413d bdf9 91bd
000002e0: 18a0 6cbd 7f33 1dbd 722c 283c f8d1 943b
000002f0: 929d debc 7221 283c d303 833d a032 d73c
00000300: a1aa 0fbd ae51 663b 45ef 43bc e025 a0bc
00000310: cd87 eb3c 08a7 2bbb 47d3 83bd 3d92 e2bc
00000320: e83d a83b d065 703c c0ac 403d 658b 823d
00000330: ef47 d33c 7086 803c 8540 92bc c2ed 1fbd
00000340: d3fe 2bbd c5bd 2b3d e6fb 4bbd 9928 72bd
00000350: a503 33bd 95a6 04bd ab6e 623d a6e4 28bc
00000360: 16d2 9fbc 7c43 193c 709a a0bc edd1 413d
00000370: 115e 15bd 4594 edbb 40ed 3abd f6e1 91bc
00000380: 4d90 2a3c 2767 12bd 8095 e43c 1c8c 3bbd
00000390: 44a9 e0bc c9f5 823d 2b55 3dbc 3fde 9ebc
000003a0: 5f69 1ebd 1630 b33c 0722 fa3b 6801 67bd
000003b0: 8877 57bd 9c24 a63d adc1 7fbd 458a 79bc
000003c0: 7d10 eb3b 397d 6dbc c78f d5bc 6cbb 273d
000003d0: f941 5c3c a98c 84bb 8089 163d 7190 5dbd
000003e0: 95bb 4dbd b137 6f3d f507 243d 3233 d4bc
000003f0: 87bb 39bd 6078 5f3d 7515 67bb d48b 9cbc
0.015265358 0.035272397 0.008785826 -0.038938973 -0.021153599 0.039242163 -0.017643487 0.039723977
0.008137303 0.007465527 -0.013160506 -0.009480521 -0.04298785 0.052662726 0.017220818 -0.0032677287
0.010869293 -0.0064982343 0.0023928198 -0.052419923 -0.039499715 0.014064581 -0.06636411 0.0033577266
-0.063214265 -0.04621787 0.017458515 -0.046571054 -0.025404023 0.02236644 0.014417895 -0.015766818
-0.008080085 -0.020482853 0.013925721 -0.00265921 0.028152905 0.02549846 0.037813403 -0.042684775
-0.0036076608 0.04587747 -0.00070273835 0.019952418 -0.065740235 -0.063726164 -0.02584315 0.0074882125
-0.06415216 0.03991316 0.011012808 -0.020818783 -0.036255572 0.052116957 -0.03786849 0.009266
-0.068433546 0.004391405 0.007192213 0.0058908276 -0.04996068 0.033009056 0.047215313 -0.0039406884
-0.048689306 -0.02103765 0.031440593 0.0037388876 0.026151037 0.053387757 0.040106084 -0.053871762
-0.029828941 0.037777577 -0.0049703205 -0.059806507 0.005472858 -0.023310943 0.01695681 0.010776421
0.026715541 0.02752825 0.04090333 -0.03507422 -0.054806318 0.056804307 0.0655745 -0.0023320706
-0.019006947 -0.050616574 0.039288968 -0.0008110563 0.06125786 0.0067821285 0.06086652 -0.020920446
0.029100986 0.033617254 0.018450083 -0.05731255 0.006026638 0.054677445 0.011920559 -0.023069024
-0.038341526 -0.011124225 -0.04923795 -0.05948006 -0.01710047 -0.029368486 -0.0057143606 -0.0098427
0.061165243 0.040704682 0.049913082 0.043676343 -0.024565639 0.04917595 0.060008492 0.045500558
0.010729967 0.025154576 0.0097569125 -0.029359309 -0.0038224687 0.00859926 0.028047528 -0.01282492
-0.046819855 -0.044276956 -0.05824149 -0.058802947 0.037726242 -0.011875013 -0.049839303 0.036294926
0.017190631 -0.026154144 -0.037350293 -0.058912273 -0.039383274 -0.0017067409 -0.028687421 -0.05351627
-0.063527405 -0.02352308 0.017152505 0.04584984 0.035545856 -0.019142639 0.03882558 -0.066775545
0.017393436 0.025118725 0.01796762 0.05594675 0.040126786 0.05414773 -0.053009495 -0.004548244
0.0029312235 -0.0133599825 0.061851747 0.031365845 0.050691955 0.027855458 -0.016644118 0.002914363
-0.04412 0.009081254 0.042282782 0.039268143 -0.033427835 0.046464216 -0.017076166 0.028128998
0.00059620175 0.04591365 0.023637885 -0.016669206 -0.03285808 -0.01271147 0.047329817 -0.07127712
-0.057769865 -0.03837919 0.010264503 0.004541632 -0.027174745 0.01026188 0.06397214 0.026269257
-0.035074834 0.00351439 -0.011958902 -0.01954931 0.028751278 -0.0026192088 -0.06436782 -0.027657622
0.005134333 0.0146727115 0.047039747 0.06374244 0.025791137 0.015689105 -0.017853031 -0.039045103
-0.041991066 0.041929025 -0.049800776 -0.05912075 -0.043704648 -0.032385428 0.055281322 -0.01030842
-0.019509356 0.009354468 -0.019604892 0.04731934 -0.03646666 -0.007250341 -0.045636415 -0.017807942
0.010410381 -0.035742905 0.027903318 -0.045787916 -0.027424462 0.06394536 -0.01155595 -0.019393085
-0.03867471 0.021873515 0.007633451 -0.056397825 -0.05260423 0.081124514 -0.062440563 -0.01523072
0.0071735964 -0.014495187 -0.026069535 0.040950224 0.0134434635 -0.0040450883 0.036752224 -0.05409283
-0.05022772 0.05840272 0.04004665 -0.025903318 -0.045344856 0.054558158 -0.0035260592 -0.019109644

fc1.bias f4 [120]
00000000: 73e0 5c3d 6828 b73c 0179 323d 84f3 5abc
00000010: 5c70 68bd d5e7 9cbc 5e6d 1a3d 536e 10bd
00000020: 354a 9f3c 34a0 5bbd cb8a eb3c 88be f23c
00000030: 69a1 703d e839 6fbd 982c 54bd d550 753d
00000040: 1232 f8bc 7b35 5c3d 575a 0e3d 0f93 8ebd
00000050: cf9f 343d 8330 d1bc 64cf 2f3c 1560 a63b
00000060: cbf0 653d 80ff f53b fcf7 0fbd bb5c 0dbb
00000070: 184e ebbb 9954 27bd 0758 55bd cf94 f03c
00000080: 8815 edbc 065d ddbc 7741 dcbc 9c3a 013d
00000090: 9149 833c d702 b039 dad6 b33c 01dd 613d
000000a0: b412 033d c22a 4d3b 72bc 9a3d 84da 09bc
000000b0: beb5 493c fefd 49bd 0496 88bc 57b5 0e3d
000000c0: 8a5f d9bc 33fc cfbc 6e8e 0b3d d39e 063d
000000d0: f411 26bd 4735 013d 1027 d3bb 899b 3dbc
000000e0: 3aca 3d3d 2dbd bc3b f051 763c 0fab 883b
000000f0: f100 42bd 240e 343d 04d2 59bc 6b0d 693d
00000100: 7324 083d 5ea3 6b3d 69e8 5bbd 5638 963b
00000110: 8907 d7ba 6098 ef3b b478 95bc 25b1 913d
00000120: 48a4 18bd 50d9 49bc 05ff 27bd 9c06 55bd
00000130: 4bbb 833a 380e ab3c b74d 00bd e74a 9c3d
00000140: ab69 af3d bf29 a1bb 66eb 2e3b f934 403d
00000150: 2c9a f9bc cfc6 67bd f1ec cfbb 1e29 28bd
00000160: b7ff 723d 668a 8ebc 90dd 963d 3d6a 843c
00000170: c623 1a3d b445 8f3d 01ed 88bd c846 4d3d
00000180: ebc9 e43b 56cb 9c3d 6396 d8bb cc5d 1cbd
00000190: b809 eb3c 7feb b3bc c272 f3bc 4e4b f23b
000001a0: 9b03 20bd 1e99 933c 28e6 13bc a0cd 32bd
000001b0: be8d b0bc c89b 4e3c e6ee 33bd 8490 78bd
000001c0: 6242 653d d47a 053d 0eae 4bbc 3c03 aebc
000001d0: b0b5 a9bc 8fdf 6f3d 570f a43c b569 063d
0.05392499 0.022358134 0.04357243 -0.013363723 -0.05674778 -0.019153515 0.037701957 -0.035261463
0.019444564 -0.05361958 0.028752705 0.029631868 0.058747683 -0.058404833 -0.05180034 0.05989154
-0.030297313 0.05376194 0.034754124 -0.06961643 0.044097718 -0.025535828 0.010730598 0.005077372
0.05613784 0.0075072646 -0.035148606 -0.0021570164 -0.0071809404 -0.040852163 -0.052085903 0.029367832
-0.028940931 -0.027021896 -0.026886685 0.031550035 0.01602629 0.00033571452 0.021953035 0.055142406
0.03200026 0.0031306003 0.07555474 -0.008413915 0.012311397 -0.04931449 -0.016673096 0.034840908
-0.026534814 -0.025388813 0.03407138 0.03286631 -0.040544465 0.03154495 -0.0064438656 -0.011572727
0.046335436 0.005759856 0.015034184 0.0041707824 -0.04736418 0.043958798 -0.0132947005 0.056897562
0.033237886 0.057528846 -0.05368844 0.0045843525 -0.0016405444 0.0073118657 -0.018246032 0.07113866
-0.037266046 -0.012319878 -0.04101469 -0.052008256 0.0010050324 0.020880803 -0.031324115 0.07631474
0.085650764 -0.0049183066 0.0026690601 0.04692552 -0.030469023 -0.056586083 -0.0063453843 -0.041054837
0.0593259 -0.017399978 0.073664784 0.01616394 0.037631772 0.06995717 -0.0668583 0.05011633
0.0069820783 0.07655971 -0.0066097244 -0.03817539 0.028691158 -0.02196288 -0.029717807 0.007394231
-0.03906594 0.018017348 -0.0090270415 -0.04365313 -0.021551963 0.012610383 -0.043929003 -0.060684696
0.05597151 0.03258784 -0.012431635 -0.021241777 -0.020716518 0.05856281 0.020026846 0.032815654

fc2.weight f4 [84, 120]
00000000: 6a20 483d 773d 6cbc a93a 883d d3b2 1e3e
00000010: f053 a33d b9a7 103e e324 53be 87b5 21bb
00000020: 317e 01bd 5138 2bbe 9efd d83d 463e 08be
00000030: 1a15 a03d 629a a73d 2d08 e73d 26c1 21bd
00000040: 44fe cdbd dc79 4d3d 9fbf 393c 336c 9abd
00000050: 75f8 e43d 9fa6 bf3c f231 62bd 1d2d 3f3c
00000060: b937 823d 1092 043d 4ecd 8fbd 2d79 4bbd
00000070: 8acb 07bd b2cd b3bd bc0b 12be e872 153d
00000080: 4a88 3fbd d374 b63d fd25 9ebd 4746 793d
00000090: ac5f ac3d 6d8c 623e 7967 dc3d 0658 f23d
000000a0: 6a24 e53d ddb7 1e3c 7763 813c 5d16 d93a
000000b0: 049e 80bd e76c 99bd c1e8 cf3d 7eec ab3d
000000c0: 69f8 943c 0cf5 da3c 9615 80bd 6dd7 4c3d
000000d0: 91c3 37bd 0782 293d 8127 aa3c b24d 723d
000000e0: 1b95 15bc 3984 2a3d a4af 313d 855a babc
000000f0: 3ffd be3d d333 68bd 6d60 7b3d c44c 56bd
00000100: 5118 a5bd ade5 9bbc fd0d ab3d 6603 933d
00000110: 65bc 18bd 5c08 bc3d 3ac7 8cbd 61ce 89bb
00000120: 48df 933d 5902 2dbd 3148 983d fc7f d13c
00000130: 828b 91bd 3c5b bc3d 4609 4ebd d254 813d
00000140: a249 1e3d bac7 303b a534 83bd 3e92 f73d
00000150: 2fb0 a33b 5c57 973d c7b9 2c3e 2588 59bc
00000160: c489 95bd 972c 273d c921 35bc b9ba 033d
00000170: fa8b 88bc d80b acbc 7b00 13bd 728b f73c
00000180: 3f84 1abe ae59 a93c ca59 253d 1226 bc3b
00000190: df4f 803d e1d3 9b3c 34f3 c53d 20a2 8fbd
000001a0: 2f0c f63d 3d0d 003e 1857 1e3e 5e8f f9bd
000001b0: deec 46bd bcb8 c2bd 23cd 933d d57d 443d
000001c0: 03f6 82bd ea12 aabd 7b31 b3bc abf8 87bc
000001d0: 3f12 823d 9bb1 8ebc 974d cf3c b3fd 133e
000001e0: 895b dabb fee2 aebd 18d1 c0bd 8c51 d63c
000001f0: 20a6 983c 1980 dcbd e10d dc3a 4520 c13c
00000200: 3ccc a7bd 840e f2bb 0552 babd 6530 14bd
00000210: a706 9b3d 6dce 3bbc dc43 6fbc 0229 18bb
00000220: 5160 bcbd 4957 b13d 9c5e 96bc bb3e 3c3b
00000230: 9663 c2bc bf19 3fbd e2b9 b73d 792e 503c
00000240: f804 74bd 9611 98bd 89fa 773d 7949 a9bd
00000250: 5815 5e3d 08c9 2fbd fbe9 7f3d a5c3 013d
00000260: 688d 943d 6fe0 abbd 019b 84bc 8f62 9dbd
00000270: fa90 8a3d 3902 8abc 2803 873d eaa9 bebd
00000280: 08b3 a43d 6271 b93d 8eb7 243d 2326 62bd
00000290: 0344 87bd 446c a53d 3ee0 87bc 0af0 893b
000002a0: 2460 663d a964 933d 7ca5 4abd 7c46 943c
000002b0: eb1f 37bd 9053 923d ce75 7f3d dc35 b3bc
000002c0: 948d afbd 478b 6c3c 1919 0a3d 3681 b2bd
000002d0: 2b09 5fbb b76e 1c3c fe64 a93d 2504 a1bc
000002e0: 5654 133c 3dba 8cbd bb0a 173d e718 67bc
000002f0: 9d35 9d3c a150 b03b 8584 6f3d aa16 23bd
00000300: 3e32 bf3b 8004 aa3d 1947 a33b c962 b6bd
00000310: 28b8 0abb fe55 4dbd 5a7f 6d3c 7eb0 f83c
00000320: 4134 413d 25a6 38bd ab0f b03d 9957 6a3d
00000330: 187a 9abc ec23 963d 0c3d b4bd 14da 853d
00000340: 279d cd3b c832 e23a 1287 963c ebfe 9c3c
00000350: 3177 c5bc 21da 563d 409d c1bd 7001 6f3c
00000360: 8a78 a03b d5cb 6f3d 8863 b7bd 4d87 9dbc
00000370: eb98 02bd dcda 3bbd affb 59bd 048a 62bd
00000380: b8c7 19bb e512 78bd aaf8 b2bd f456 dbbb
00000390: f859 debc 1818 7a3d 086d b5bd 84f4 283d
000003a0: 6b39 0abd 50cc 7f3b ea52 943d 1049 943d
000003b0: 4e0e 1d3c 7685 4c3c e56b 613c fe81 29bc
000003c0: 0502 8abc 1dbf bd3c cc2e 653d 49da 003d
000003d0: 16fe 323d 8558 9fbc 1c71 b53c fa64 5a3d
000003e0: 8e7a 8f3d f1ca d6bd 44f4 b2bc 6bdd bfbd
000003f0: 66c3 83bd 816e f0bc c9b0 813d 7558 06bd
0.048859037 -0.014418951 0.066518135 0.15497904 0.07974994 0.14126481 -0.2061954 -0.002467485
-0.031614486 -0.16720702 0.10595249 -0.13305005 0.07816525 0.08183743 0.11280856 -0.03949084
-0.10058263 0.050165042 0.01133719 -0.075401686 0.11180202 0.02339488 -0.055223413 0.011668471
0.063582845 0.03236586 -0.07021581 -0.04967611 -0.033153094 -0.08779468 -0.14262289 0.036486536
-0.046760835 0.08909001 -0.077220894 0.060858037 0.084166855 0.2212388 0.10761923 0.118331954
0.11188586 0.009687391 0.015794499 0.0016562451 -0.06280139 -0.074914746 0.10151816 0.08394717
0.018184857 0.026728176 -0.06254117 0.050010134 -0.04486424 0.04138377 0.02077079 0.059156127
-0.009129788 0.041630004 0.043380395 -0.022748241 0.093256466 -0.05669005 0.061371256 -0.052319303
-0.080612786 -0.019030416 0.083522774 0.071783826 -0.037289042 0.09181282 -0.06873937 -0.0042055105
0.07220322 -0.042238567 0.074356444 0.025573723 -0.07106687 0.09197089 -0.050301813 0.06315006
0.03864444 0.0026974515 -0.064065255 0.1208844 0.004995368 0.07389709 0.16867743 -0.013277088
-0.07301667 0.04081401 -0.011055418 0.032160494 -0.016668309 -0.021001741 -0.03588913 0.03021786
-0.1508951 0.020672645 0.040368833 0.005741843 0.06265234 0.01902193 0.09665528 -0.07013345
0.120140426 0.1250505 0.15462911 -0.12185548 -0.048565738 -0.095078915 0.07216861 0.047971565
-0.06394579 -0.08304389 -0.02187418 -0.016598066 0.063511364 -0.017418673 0.025305552 0.14452247
-0.006663744 -0.08539389 -0.094148815 0.026161931 0.018633902 -0.1076662 0.0016788804 0.023574958
-0.081932515 -0.0073869843 -0.09097675 -0.036178965 0.07569628 -0.01146279 -0.014603581 -0.0023217802
-0.091980584 0.086592264 -0.01835566 0.0028723914 -0.023729127 -0.046655413 0.08971001 0.012706392
-0.05957505 -0.07425229 0.060541663 -0.08265967 0.054219574 -0.042916328 0.062479 0.03168072
0.072535336 -0.08392417 -0.016187193 -0.07684814 0.06765933 -0.016846763 0.06592399 -0.09309752
0.0804196 0.09054829 0.040214114 -0.05521215 -0.06604769 0.08077291 -0.01658642 0.004209523
0.05624403 0.07196934 -0.049474224 0.018100016 -0.044708174 0.071448445 0.062368207 -0.021876268
-0.08571926 0.014437503 0.03371534 -0.08716051 -0.0034032564 0.009547881 0.08271216 -0.019655297
0.008992275 -0.0687146 0.036875468 -0.014105058 0.019190604 0.0053807055 0.05847599 -0.039816536
0.0058348468 0.083016396 0.0049828407 -0.089055605 -0.0021166895 -0.050130837 0.014495695 0.030357596
0.047168974 -0.045080323 0.085967384 0.057212446 -0.018857047 0.0733107 -0.08800706 0.06535736
0.0062748375 0.0017257566 0.018374953 0.019164523 -0.024104686 0.052454118 -0.09453821 0.014587745
0.004897182 0.058544 -0.08954531 -0.019229556 -0.031884115 -0.045863017 -0.05321854 -0.055307403
-0.002346499 -0.060564894 -0.08738835 -0.006693715 -0.02714251 0.061058134 -0.08858687 0.041248813
-0.033746164 0.0039031692 0.07242377 0.07240498 0.00958593 0.012482991 0.013758634 -0.010345934
-0.016846666 0.023162419 0.055952832 0.031458173 0.043699346 -0.01945139 0.022148661 0.053318955
0.07005797 -0.10487927 -0.02184499 -0.09368404 -0.06433754 -0.029349567 0.06332547 -0.032799203

fc2.bias f4 [84]
00000000: 3bcd 3ebd 323f 40bc b6ba debc aab3 1fbd
00000010: 5471 1cbd 86c4 c3bd eb1f 4f3d 8977 adbd
00000020: d775 7a3b 4da1 b73d bfe7 6d3d d963 95bd
00000030: a395 9d3c 03c4 24bd b0fb 33bd bb43 82bd
00000040: 8168 683d c686 ac3c 199b 863c 9ccf efbc
00000050: 5b49 a7bd 9357 71bd b85c 3bbc 506b a9bc
00000060: 0bb0 4abd a805 323d 8f20 4f3c ab0e f83b
00000070: e0e7 c33d 832f 703d baea db3d 4622 c73d
00000080: bdf8 d63c 2e4e 46bd 8a42 99bc 92ec ac3d
00000090: 3196 ca3c af42 74bd 9a6d bd3c aa60 ccbc
000000a0: 8a57 98bd a99b 9d3b 9e68 433d b606 933d
000000b0: 62b2 b73d 1f95 fa3c 642a 893d 61ab 693d
000000c0: 26b0 843d 5a53 1fbc a437 333d f8a3 f9bc
000000d0: 632d da3c 12d6 47bd c58b de3d cb7d 81bd
000000e0: cd69 83bc 720b ad3d b58a 223e 6d25 a2bd
000000f0: 5126 1fbb 1cbb 9dbd 02b9 a13b c592 e83c
00000100: b3e5 e43d 739a 96bd 8705 233d 4905 ca3d
00000110: 3b79 933b 1a67 29bd 2b6d d7bc a49a 883d
00000120: f07a 833b 870e 303c cdcb 27bd a31e 30bd
00000130: b2d5 edbc 2ace 3a3d 9c25 a8bd 16f3 15bd
00000140: bc14 193c 6679 9a3a a303 b33d 3973 ec3c
-0.04658244 -0.011733817 -0.02718864 -0.0389897 -0.038194016 -0.09558968 0.05056755 -0.08470065
0.003821721 0.089663126 0.05808234 -0.07294435 0.019236391 -0.040225994 -0.0439412 -0.06360575
0.056740288 0.021060359 0.016431378 -0.0292738 -0.08168288 -0.058921408 -0.01143568 -0.020681053
-0.049484294 0.043462425 0.01264204 0.007570108 0.09565711 0.05863906 0.1073813 0.09723334
0.026241655 -0.0484144 -0.018708486 0.0844356 0.02472982 -0.059633907 0.023123551 -0.024948437
-0.07438572 0.004809816 0.047707193 0.071790144 0.08969571 0.030588685 0.066975385 0.057048205
0.0647891 -0.009724462 0.043754235 -0.030473694 0.02663297 -0.048788138 0.10866503 -0.06322821
-0.01604166 0.08449449 0.15873225 -0.07917295 -0.0024284313 -0.07701704 0.0049353847 0.028390298
0.11176624 -0.073536776 0.039800193 0.09864289 0.004500536 -0.04135809 -0.026297173 0.0667012
0.004012458 0.010745651 -0.040965844 -0.042997967 -0.029032562 0.04560677 -0.082102984 -0.036608778
0.009343322 0.0011785447 0.08740928 0.028863536

fc3.weight f4 [10, 84]
00000000: 1ea3 373d 0c53 bc3d 73ca 2cbd 86a0 a33e
00000010: e175 a7bc 911e 8d3e fa69 b8bd 9193 1d3e
00000020: 5bae 2bbd 3910 0bbe b615 5ebe 4813 57bd
00000030: f7c1 d33c 2236 03be 0b6f 463e d22e 17bd
00000040: 8634 38bd a732 91bd 832d 9c3d fafc 923d
00000050: a9a6 d5bc 61fc 253d c9b8 c7bc f857 55bd
00000060: 16c9 e8bd 6daa 6fbd 0513 333d 08e4 d0bd
00000070: 00ec 06be acef 873d 4641 b6bc ec51 00bf
00000080: f717 cfbd 442a 0c3d 7f0c 9a3e 8bcf 38be
00000090: 5366 ccbd 216d f03d f234 a4bd ec96 303e
000000a0: 217a 3c3d 4e94 96bd 26b8 d7bd d9fb 473d
000000b0: fe64 e6ba 0a7d 003c fe5a f8bc 39e3 66be
000000c0: a8d9 13be b4c4 45be d4b1 b5bd 53c3 f13d
000000d0: a869 10be cadb aabd ab03 0dbc c8cf 07be
000000e0: 7541 ae3e 2776 96be d2e4 b23d c11f 203e
000000f0: 2413 6fbe 7666 233e 590e 3dbe dba7 87bb
00000100: 6575 88be 328f 84be 0ee9 a43c cbb3 68bd
00000110: 5c18 bfbb 3484 083e 8073 593e 0da3 64bd
00000120: 01ef cd3d d178 333e 7b23 babd dc56 5a3e
00000130: 9f29 313e 07b6 f33a 6534 a53d af2d 3bbe
00000140: a661 dd3b 6755 d5bb 406e 783d b93c 85bd
00000150: ae65 d6bd cc20 c73b 3cd0 8c3d 3b15 16be
00000160: 19d6 f63d 9fd1 1b3e 92a1 1ebe 04d6 c43c
00000170: 2bd6 313d b45d cdbc 23ea b73d 0e6a 453d
00000180: 0e6e b5bd 41f1 443e 68fb 2dbe 6827 bc3c
00000190: 15cb 203d 9168 5fbc c349 ccbd a8d6 5b3c
000001a0: 4a26 cbbd b767 24bd 1f36 da3d 451d 8d3d
000001b0: c366 be3d fb13 963c d7ab 85bd a841 84be
000001c0: fc1c 9a3d 32d1 a8bd 712d a53e 44e2 b23e
000001d0: fafa 95bd 8b11 bebd 4d4f 2cbe 2fed 82bb
000001e0: 1a5a c5bd fd38 df3d d4d6 c4bd 69c5 2fbe
000001f0: b3ca 5f3d ef1d d5bd b8ea 30bc 7086 a7bd
00000200: 9b2b 1a3d ef08 873e 720a a03d 07b0 3c3c
00000210: 085c 79be 89c1 c63d df04 f73d 9115 72be
00000220: 1b07 63bc 8f69 d73d 8764 c6be 3d34 e0bd
00000230: ce27 3dbe f41d 553e c5a9 55be 4c23 943d
00000240: bc9f e83d 275a a7bd 0748 62bd f510 bbbe
00000250: 800c c13e 6073 5fbe acb8 07bc 94ea 8cbe
00000260: d24b 9a3d 3034 743e 6465 9bbd 8d21 8f3e
00000270: 3c9d 68be bf6f 7fbb 2daf 3abd cfa1 a2bc
00000280: 395c acbe dba6 f7bd e825 5a3e 7969 813d
00000290: af0d 393e 72c0 e33a 51bf 973e 2621 593d
000002a0: 3e40 27be a2bc c5bd 9502 cdbd 5eee aabe
000002b0: da44 11be 1898 b4bc eec3 853e e7a3 30bd
000002c0: 8076 423e 5f94 c53d 564f 85be 4231 63bd
000002d0: b12b 9ebc 4450 38be 33d8 4b3d d313 653d
000002e0: 38c9 bbbd a70d 473b 4126 cebc 0040 353d
000002f0: f715 87b7 85f4 1ebb 1364 1f3c 7c4d ef3c
00000300: f92e 413e 81de 31bc 0f77 e73d 63c6 8dbd
00000310: cb2d 6c3e 22b6 c3bd ba34 af3e adb0 913d
00000320: a998 393e bd17 5fbc ff53 c73d eaf9 39be
00000330: a7d0 a7bd d02d 9fbd 7534 d4bd e8aa 11bd
00000340: 6f7e b23d 0889 53bd f9fe 92be 426a 3abd
00000350: c54d 71be 859c 1bbe 6782 8ebd d49a 5b3e
00000360: 219c 193e 69ff 32be b02a ff3c 718d 85bd
00000370: e9ac 2ebd 2c77 c93d 8573 e13d 6424 d3bd
00000380: bda4 733e 2ca2 683e 69d9 843e 69a4 d23b
00000390: a6e7 46be b232 e3bc c01f b2bd 23ca 4f3e
000003a0: 3fb1 4ebe b92e 1f3e f334 5dbd b1c2 f23d
000003b0: ac1d d1bc 76ef a63e 5026 83bd 3c1a 69be
000003c0: e046 a1be 07ac cbbd e94a 37bd 6020 28be
000003d0: 0694 793d c8a3 a63e c17c be3d 1865 2ebd
000003e0: ea8b 48be 8ddb 5d3d 9467 9f3e a4da dbbd
000003f0: bf2b d3be 0128 84bd 39ff 6fbd b115 5b3d
0.044833295 0.091955274 -0.042185258 0.31958407 -0.020441951 0.27562383 -0.090045884 0.15388323
-0.041914325 -0.13580407 -0.2168797 -0.052508622 0.025849326 -0.12813619 0.19378297 -0.036909886
-0.044971965 -0.07089739 0.07625868 0.07177158 -0.026080446 0.04052389 -0.024380105 -0.052085847
-0.11366479 -0.05851214 0.04371931 -0.101997435 -0.13175964 0.06637511 -0.022247922 -0.50125
-0.10111993 0.034219995 0.3008766 -0.18047921 -0.09980454 0.11739565 -0.08017911 0.17245072
0.04601491 -0.073525056 -0.105331704 0.048824165 -0.0017577705 0.007842312 -0.030316826 -0.22547616
-0.14438498 -0.19313318 -0.08871809 0.11804833 -0.14102805 -0.08342703 -0.008606832 -0.13262856
0.34034315 -0.29387018 0.0873505 0.15637113 -0.23347145 0.15957054 -0.18462504 -0.004139883
-0.26652065 -0.258905 0.02013066 -0.05681209 -0.0058317613 0.13331681 0.21235466 -0.05581956
0.10055352 0.17526557 -0.090887986 0.21322197 0.17301033 0.0018593677 0.08066634 -0.18279146
0.0067560254 -0.006510425 0.060652018 -0.065057226 -0.104686126 0.0060769077 0.06875655 -0.14656536
0.12052555 0.15216683 -0.15491322 0.024027832 0.043417137 -0.025069095 0.08980205 0.048196845
-0.08858882 0.19232656 -0.16990435 0.02296801 0.039256174 -0.01363577 -0.099750064 0.013417877
-0.099194124 -0.040137973 0.10654854 0.06890348 0.09296944 0.018320074 -0.065269165 -0.25831342
0.075250596 -0.08243026 0.32261232 0.34938252 -0.073232606 -0.0928069 -0.16827126 -0.0039955596
-0.09636326 0.108995415 -0.09611288 -0.1716515 0.05463667 -0.104061 -0.010798149 -0.08179939
0.03763924 0.26374003 0.07814492 0.011516578 -0.24351513 0.09704883 0.12061476 -0.2364104
-0.013856675 0.105181806 -0.3874857 -0.10947464 -0.18472216 0.20812207 -0.20865543 0.07233295
0.11358592 -0.08171492 -0.055244472 -0.36536375 0.3770485 -0.21821356 -0.008283775 -0.2752272
0.07533993 0.23848033 -0.07587698 0.27955285 -0.2271623 -0.0038976518 -0.045577217 -0.019852547
-0.3366411 -0.12092372 0.21303523 0.063189454 0.18071626 0.0017376079 0.2963815 0.05301013
-0.163331 -0.096551195 -0.10010258 -0.33384985 -0.14186421 -0.02204518 0.26126045 -0.04312506
0.18990517 0.0964744 -0.2603709 -0.055466898 -0.019307943 -0.17999369 0.04976673 0.05592711
-0.09169239 0.0030373128 -0.025164725 0.04425049 -1.6103482e-05 -0.0024254632 0.009728449 0.029211752
0.18865575 -0.010856272 0.113020055 -0.06922605 0.23064344 -0.095562235 0.34219915 0.07113776
0.18124641 -0.0136164995 0.09732818 -0.18161741 -0.08194094 -0.0777241 -0.10361568 -0.03556338
0.087155215 -0.051644355 -0.28710154 -0.04551149 -0.23564823 -0.15196426 -0.06958466 0.21445781
0.15000965 -0.17480244 0.031148285 -0.065211184 -0.04264537 0.09837183 0.11008362 -0.10309675
0.23793311 0.22718114 0.2594712 0.0064282906 -0.19424304 -0.027734134 -0.08697462 0.20291953
-0.20184802 0.15545167 -0.054005574 0.11853541 -0.025526844 0.3260457 -0.06403792 -0.22763914
-0.31499386 -0.09944921 -0.044749174 -0.164186 0.06093218 0.3254683 0.09301139 -0.04257688
-0.19584623 0.054164458 0.3113371 -0.10735062 -0.41244313 -0.06452943 -0.05859301 0.053487483

fc3.bias f4 [10]
00000000: 901a 59be 4301 ccbc e5e8 013e f20c 0c3d
00000010: b742 08be d652 81bc 6c2d 1fbe 0f34 a83d
00000020: 499b 6e3e e26f 1b3e
-0.21201539 -0.024902945 0.12686498 0.034192033 -0.133067 -0.01578657 -0.15544671 0.082130544
0.23301424 0.15179399
