victim-model.pth (torch_old, 179282 bytes, 10 tensors)

conv1.weight f4 [6, 1, 5, 5]
000000 cb bd 39 3e 18 08 0f 3f 21 20 fb 3e 5f c3 b5 3e
       0.18138807 0.55871725 0.4904795 0.3550062
000010 ff 01 12 3f 9d 2d 1d be 89 ed d1 3c 56 13 98 3e
       0.57034296 -0.15349431 0.02562596 0.29702252
000020 20 c5 a0 3d 8e 06 29 3e 52 8f 9d be 79 51 c5 be
       0.078500986 0.16506407 -0.30773407 -0.3853872
000030 f4 aa d5 be 0e 6c c6 be e5 cc 33 be c9 2d b6 be
       -0.4173199 -0.38754314 -0.1755863 -0.35581806
000040 69 f4 87 be d9 fd a6 be 34 c2 73 be 37 03 20 be
       -0.26553658 -0.32615545 -0.23804551 -0.15626226
000050 bd 4c f8 3d f6 68 63 bd 4d 5b 01 3c fa d3 41 3d
       0.12124012 -0.05552002 0.007895303 0.047321297
000060 04 9a 01 3d 6c 7a 63 3e 9d d9 3d 3e 7e 94 21 3e
       0.03164102 0.22214669 0.18540044 0.15779302
000070 f1 55 dd 3c 73 29 83 3d 30 86 3b be df 73 fe 3d
       0.02701852 0.0640439 -0.18312907 0.124244444
000080 60 7e 23 3c 8d c1 20 3d 9f 03 e3 bd 42 8d 8c be
       0.009978861 0.039247084 -0.11084675 -0.2745152
000090 b1 8b 51 be 0b 2d 4d be 00 7f 2d be 52 16 34 be
       -0.20463444 -0.20036714 -0.16942978 -0.1758664
0000a0 29 55 82 bd 4a 47 d7 bd 66 8a 8e bd 7e 82 91 bb
       -0.06363899 -0.10511644 -0.06959991 -0.0044406047
0000b0 7f 0f f2 bd 10 a2 00 3e 88 bc 3a 3e 0b 71 82 3d
       -0.11819362 0.12561822 0.18235981 0.063692175
0000c0 4c c5 9a bd 65 ef 59 3d 1f d5 ac be 69 c7 12 be
       -0.07557163 0.05320682 -0.33756348 -0.14333881
0000d0 13 76 32 bc d6 15 e4 3e ab 5d 0f 3e 8e b1 bb be
       -0.010892409 0.4454791 0.14000575 -0.366589
0000e0 5f 32 83 be 0c 00 9f 3e 86 a2 e0 3e e1 26 95 3c
       -0.25624368 0.31054723 0.43873996 0.018207015
0000f0 8d b3 e4 be 42 af cd 3d de 13 d5 3e 8a ac 9b 3e
       -0.44668236 0.100431934 0.4161672 0.30405074
000100 2a f5 fa bd 4c 09 f6 bd 52 9e 4a 3e 9c 93 8f 3e
       -0.122537926 -0.12013492 0.19786957 0.28042305
000110 8d 0d df 3e 3d 2a 5c bd 39 e3 e7 bc 68 55 83 3e
       0.43565026 -0.05375122 -0.02830659 0.25651097
000120 8b a9 69 3e 50 1c b9 3e 02 ee 16 3e 45 b7 25 be
       0.22818582 0.36154413 0.1473923 -0.16183193
000130 75 75 e3 bd 4f a3 fc bd 49 64 51 3d 28 bd 1d be
       -0.111063875 -0.12335836 0.05112103 -0.15404189
000140 ef bb 91 3d 04 81 59 3d 97 72 17 3c 14 31 bb 3d
       0.071159236 0.053101555 0.009243629 0.0914022
000150 af fe 89 3d dd 56 2b be ad c2 17 bc 88 73 20 3e
       0.0673803 -0.16732354 -0.009262723 0.15669072
000160 7b 97 32 be 0f e2 70 bd 62 54 8d bd 09 bd 31 3e
       -0.17440598 -0.058809336 -0.0690086 0.17357267
000170 52 90 2d be b1 f4 06 be ec 58 81 bc 07 2e 04 3e
       -0.16949585 -0.1317928 -0.015789472 0.12908183
000180 ea 4c 58 bd 6b 19 5a bd c2 86 08 3d 10 da d7 3d
       -0.052807726 -0.053246897 0.03333164 0.10539639
000190 b5 e9 a9 3e ec 3c 26 3f 6f 9d 45 3f 53 c9 9a 3e
       0.33186117 0.6493671 0.7719335 0.30231723
0001a0 fe d7 44 be 92 0c 9b 3e 94 10 72 3f c6 31 57 3f
       -0.1922302 0.30283028 0.94556546 0.84060323
0001b0 93 da b0 3e 65 f7 93 3c ee eb 02 3e ec 6c 87 3e
       0.3454176 0.018062303 0.12785313 0.26450288
0001c0 b3 4b 93 3e 6a 98 56 3e a1 20 4a 3e 18 51 64 be
       0.2876869 0.20956579 0.1973901 -0.2229656
0001d0 26 00 0f be a1 6d 34 be c7 b3 ed bd b8 6e fb 3d
       -0.139649 -0.17619945 -0.116065554 0.12276977
0001e0 8a 65 b6 be 3c af 79 be 60 8c 0f be 9e 8f 25 be
       -0.35624343 -0.24383253 -0.14018393 -0.16168067
0001f0 3e 0a b9 bd 2f f6 83 3e 99 0c 36 3e 3d b3 a0 bd
       -0.09035157 0.2577376 0.17778243 -0.07846687
000200 99 d0 d7 bd 32 a9 19 be 67 5e 38 3e 23 b5 02 3d
       -0.10537834 -0.15005949 0.18004762 0.031911027
000210 18 fd 9b bd 79 1f c7 bd 3a be e4 bd ab f0 de bc
       -0.07616633 -0.097228 -0.11169095 -0.027214369
000220 26 3c 55 be f3 ac 0d 3d 08 af 41 be ca 07 15 be
       -0.20823726 0.034588765 -0.18914425 -0.14553753
000230 ff c8 74 be 56 5f 19 be 2d 0b 57 be c3 9a 39 3c
       -0.23904799 -0.14977774 -0.21000357 0.011328402
000240 18 e1 25 be e2 a1 71 be 56 ba 1f 3c d1 b1 ab bc
       -0.16199148 -0.2359691 0.009749016 -0.020958813
000250 36 7c 3d 3d 78 a2 0e 3e
       0.046261035 0.13929164

conv1.bias f4 [6]
000000 a2 17 00 3d b4 cc 7b 3d 54 89 28 bd 90 18 51 be
       0.031272538 0.061474517 -0.04114659 -0.20419526
000010 92 35 88 bb 1e 10 97 3e
       -0.0041567767 0.29504484

conv2.weight f4 [16, 6, 5, 5]
000000 46 d9 17 bd eb 35 31 bc 01 e8 e1 bc c3 42 31 3c
       -0.037072442 -0.010816078 -0.027576448 0.01081914
000010 91 ef 93 3d f7 20 e9 bc 03 f1 eb 3c 78 b8 ac bc
       0.07223428 -0.028458102 0.028801447 -0.021084055
000020 f5 47 3f bd 0f d3 49 bd 01 c2 65 3d 0f 5f 25 3c
       -0.046699483 -0.049273547 0.05609322 0.0100934645
000030 e7 20 12 3d 04 a0 0f 3d f1 32 fa 3d e5 f5 42 3e
       0.03567591 0.035064712 0.122167476 0.19039114
000040 40 15 a1 3e f1 a4 c1 3e 43 e3 2c 3e 4a dd 39 3c
       0.31461525 0.37821153 0.16883568 0.011344263
000050 77 b2 12 3e b9 1c 11 3e c5 52 b0 3d 5f 19 42 3c
       0.14325891 0.14171113 0.08609537 0.011846869
000060 67 7b 5c bd 29 7d 8e bd cc 41 66 bc 2c 15 d3 bd
       -0.053828623 -0.06957466 -0.014053773 -0.103067726
000070 67 b4 c4 3b 08 22 81 bd 0f 3a 6b 3d 21 39 56 3c
       0.006002951 -0.06305319 0.057428416 0.013075144
000080 cb da 1e 3d 63 4e 6e 3d 89 14 80 ba 1a f9 6a bc
       0.038782876 0.058180224 -0.0009771745 -0.014341617
000090 0a b9 70 bd 1b df 01 bc 8e 54 82 3c 77 12 56 3d
       -0.058770217 -0.007926728 0.01590946 0.052263703
0000a0 85 bd 92 3d 61 98 a2 3d 4e 18 16 3e 93 d5 07 3e
       0.07165054 0.0793922 0.14657709 0.13265066
0000b0 02 8f 91 3d f8 be 86 3d ec d3 b4 3d 7d 87 45 bb
       0.07107355 0.06579393 0.088294834 -0.0030140572
0000c0 0f e3 88 3d 1a 6f b9 3d 9e 78 bd 3d 3d 1c 55 bd
       0.06683933 0.09054394 0.092515215 -0.052028883
0000d0 10 52 5a bd 18 22 bf 3d b5 b3 b7 bc 80 ba 24 3e
       -0.053300917 0.09332675 -0.022424558 0.16086769
0000e0 b9 e6 97 3d 9d b9 ab 3d 4c 53 9a 3d 0d 3f a9 bb
       0.07417054 0.08385012 0.07535419 -0.005164987
0000f0 fd 2a eb bd 8f e6 c5 bc 8a fa 2b 3d ef e0 41 bd
       -0.11482809 -0.02415779 0.04198698 -0.047333654
000100 cf 76 99 bd 0c 18 f8 bd 97 0b 72 be 5c 76 80 be
       -0.07493364 -0.121139616 -0.23637234 -0.250903
000110 24 5b 05 be ab 3f b8 bd c3 ce 15 3c d9 3d f0 3c
       -0.13023049 -0.08996519 0.009143534 0.029326366
000120 04 18 1c bc b8 12 53 3d 95 31 90 bc 6e 59 4e 3d
       -0.00952721 0.051531523 -0.017601768 0.050378256
000130 ad 1b 8a bd 5f 40 37 3d 38 ef e4 3c 45 59 19 bd
       -0.0674356 0.044739123 0.0279461 -0.03743865
000140 dc b5 45 3d 6d 5e f0 bc d9 3f 65 bd 0c 42 86 3c
       0.048269138 -0.0293419 -0.055969093 0.016388915
000150 5b 6c 21 bd e5 77 b7 bc 63 4d 45 3d 4e 06 62 3d
       -0.039409976 -0.022396037 0.048169505 0.055181794
000160 b5 7c 9f bb 7f 95 d0 3c b9 24 a0 3d c5 c5 a2 3d
       -0.004867161 0.02546191 0.07819504 0.07947878
000170 44 cf 73 bd 3d b2 a2 bc e4 aa 37 bd ec c6 02 bd
       -0.059523836 -0.019860381 -0.04484071 -0.031927988
000180 ab 99 03 3c 8d 0a 7c 3d 97 38 4d bd fd c5 45 3c
       0.008032243 0.0615335 -0.050102796 0.01207113
000190 c3 27 36 bc fd 52 f9 3c 67 0c 00 be 16 ef 9d bd
       -0.011117878 0.03043508 -0.12504731 -0.07711618
0001a0 0a 2c 2e bc d3 8a d9 3c 15 0b 35 be f3 cd 62 be
       -0.010630617 0.026555454 -0.17680009 -0.22148876
0001b0 ac 42 b8 bc 61 2b 3a 3d da 01 92 3d c6 fa 5b 3d
       -0.02249273 0.045451526 0.071292594 0.053705953
0001c0 20 90 0c 3e 1f c5 4d 3e 38 15 7f 3e 2d 21 3d 3e
       0.13726854 0.20094727 0.24910438 0.18469687
0001d0 9c dd ae 3e bd 29 a8 3e 5c c3 31 3e 64 41 08 be
       0.3415345 0.32844344 0.1735968 -0.13306195
0001e0 5d f0 96 be 0f 39 c3 be 1b a8 bc be 82 cb 5c be
       -0.29480258 -0.3812947 -0.36847004 -0.21562007
0001f0 b4 c1 16 be 40 a9 86 bd a9 9b 93 bd a2 09 8a bc
       -0.1472233 -0.065752506 -0.07207424 -0.016850296
000200 45 97 21 bd 40 31 fc bc 96 83 a2 bd 2f 68 eb bc
       -0.039450902 -0.030785203 -0.07935254 -0.028736202
000210 f4 22 bd 3d 22 52 34 bc 04 81 8a 3d 01 b7 72 bc
       0.092351824 -0.01100591 0.06762889 -0.014814139
000220 9e d8 98 bd 03 5c 21 bd d0 28 95 3d 44 7a 80 bc
       -0.074631914 -0.03939439 0.07283175 -0.0156833
000230 09 cc ae bd 2b c4 01 3c 4f c9 cc 3d aa 8f 9b 3b
       -0.0853501 0.007920305 0.09999334 0.0047473507
000240 77 9b 1c 3e 49 c2 83 bc 6a ce e1 bd 57 cf a1 3d
       0.1529368 -0.016083853 -0.110256985 0.07900875
000250 ba e3 c5 3c 80 bc 1c 3d 4c 35 38 3d 86 95 21 3d
       0.02415644 0.038265705 0.044972703 0.039449237
000260 c9 d4 90 bd 7d a1 2f be 3b 02 bf bd b1 25 ec bc
       -0.070718355 -0.17151447 -0.09326597 -0.028826566
000270 2d 62 8f bd 87 89 ff bd ff fa e7 bd 5d 46 5d bd
       -0.070011474 -0.12477403 -0.113271706 -0.05402218
000280 27 ee 9a bc 62 c0 83 bd 6d 67 c6 bd d0 66 da bd
       -0.018912388 -0.064331785 -0.09687696 -0.10664141
000290 99 df a6 bd c9 d9 19 3e b4 93 4f bb a3 05 1c bd
       -0.081481166 0.15024485 -0.0031673731 -0.038091313
0002a0 9a 28 91 bd f2 43 05 bd ce 76 43 bd 71 04 a6 bd
       -0.07087822 -0.0325355 -0.047720723 -0.08106316
0002b0 77 a5 a6 bd b0 58 5b bd a6 26 04 3d 38 68 f7 bc
       -0.08137029 -0.053551376 0.03226342 -0.030201063
0002c0 cc be 92 bd 56 02 81 3c 0d 3f 3d bd 61 2d 9f bd
       -0.07165298 0.015748184 -0.046202708 -0.07772327
0002d0 a9 ac ad 3c ea 01 83 3d 55 4d 5d 3d 52 8b 6e bd
       0.021200495 0.063968495 0.054028828 -0.058238335
0002e0 ef a9 9d bc e3 ec 8e 3d 02 9f 85 3d c0 44 c5 3c
       -0.01924607 0.06978776 0.06524469 0.024080634
0002f0 d5 8c a1 bd 05 57 f7 3c 18 0d 0a 3d 0e 98 8c bd
       -0.0788819 0.030192861 0.033703893 -0.0686494
000300 b1 fe 54 3c 23 59 68 bd 0b 5c b1 bd 6f 57 0c 3d
       0.013000176 -0.056725632 -0.08660134 0.03426307
000310 ef d7 0a bd ad 42 b5 bd d3 29 fe bc dc 11 18 3d
       -0.033897337 -0.08850608 -0.031025803 0.037126407
000320 c4 92 4a 3b 33 96 0d bd 78 c7 b5 3d b1 41 35 3e
       0.0030910233 -0.03456707 0.08875936 0.1770084
000330 4a d0 91 bd 93 46 34 3c 8d bb 14 be de be ab 3d
       -0.07119806 0.011003154 -0.1452467 0.083860144
000340 b3 70 1e 3e 33 71 6a bd 85 38 1f bd 91 7d 37 be
       0.15472679 -0.05723686 -0.03887226 -0.17918994
000350 d4 d7 07 3e 13 51 58 3e 44 c7 2d be c4 45 2e be
       0.13265926 0.21124677 -0.16970545 -0.17018801
000360 d3 0a 05 be f8 b2 a5 3d 0e 07 c1 3d 1a ca 48 be
       -0.1299241 0.08090776 0.09425174 -0.19608346
000370 12 3d a8 bd 84 12 5f bd b1 40 11 3e cd 66 86 bd
       -0.08214773 -0.054461017 0.14184834 -0.065625764
000380 bd a6 71 be a8 ef 58 bd 56 e8 6a bd cd c3 72 3c
       -0.23598762 -0.05296293 -0.05735048 0.01481719
000390 21 0c a1 3c c2 8b 86 bd b2 75 8a 3d ee f4 11 3c
       0.019659104 -0.065696254 0.0676073 0.008908493
0003a0 a5 0b 9e 3c 0f 0e 10 3d 17 a9 e2 bc 7e d0 f3 3b
       0.019292662 0.035169657 -0.027668519 0.0074406257
0003b0 2c 15 77 3d cf b8 83 bd ea e0 09 bd f7 b7 66 3d
       0.060322925 -0.06431734 -0.03366176 0.056327786
0003c0 40 c9 42 3a 34 2a 47 3d 5d 44 c7 3c 11 72 be 3c
       0.0007430501 0.048624232 0.02432459 0.02324775
0003d0 86 78 6b 3d bc 1a 82 3d 93 42 63 3d 7f 17 93 bd
       0.057487987 0.063527554 0.055483412 -0.07182216
0003e0 24 3d c3 bc de 87 4c ba 3f db 00 bd e8 da 1e be
       -0.023832865 -0.0007802228 -0.03145909 -0.15513194
0003f0 bc f3 89 bd b7 ac 92 3d 89 c7 cd bd df 2f 81 3c
       -0.06735942 0.07161849 -0.10047824 0.015769897

conv2.bias f4 [16]
000000 32 8a 87 3d f8 31 fb bc 94 54 5a bd fe 2b bf bc
       0.066181555 -0.030663475 -0.053303316 -0.023336407
000010 9d 12 9c 3d 75 af 48 3d 79 83 76 bc 2b a6 e1 bd
       0.07620738 0.048995454 -0.015045994 -0.11018022
000020 53 12 de bd c4 2c c6 bd 1a c2 a7 3d 13 a7 6b bd
       -0.10843339 -0.09676507 0.08191319 -0.05753238
000030 c6 49 86 bb 4a ea 26 be f4 b8 58 bd 5a ca 41 3c
       -0.00409815 -0.16300312 -0.05291076 0.0118280295

fc1.weight f4 [120, 256]
000000 76 55 00 3d 87 13 39 bd a4 68 58 bc 45 25 98 39
       0.031331502 -0.04518464 -0.013208542 0.00029019467
000010 7e d1 d3 3c ef 2c 7b 3d 91 f1 3d 3c 87 49 6d 3d
       0.02585673 0.06132215 0.011593238 0.05793145
000020 c6 3c 06 3d 53 1d 27 bd 3d 17 a7 3b 8b df a4 3c
       0.0327728 -0.04079945 0.0050992058 0.020126125
000030 66 f9 2c 3d 49 35 b4 bc 39 5e 50 bd b2 a7 41 bc
       0.042230032 -0.021998065 -0.050871108 -0.011819767
000040 9c 56 28 3d f3 51 55 3d ab 4b 3b 3d 39 5f f5 bb
       0.041098222 0.052080106 0.04572646 -0.007488158
000050 50 fe 3b bd e1 de b7 3b 29 f0 70 bd 5a df c3 3c
       -0.04589683 0.005611286 -0.058822785 0.023910213
000060 0c 39 7d bd 47 f8 cc 3c c2 1a cf 3c e7 de e4 3b
       -0.061821982 0.025020732 0.025281314 0.00698458
000070 59 fa 4a 3d ed c6 25 bd a1 9c a0 3c ef db 29 3d
       0.049555156 -0.040472914 0.019605936 0.04146951
000080 0e a4 62 bc 6d 71 e9 3c 32 ee d0 3c 4f 87 11 3d
       -0.013833059 0.028496468 0.025504205 0.03552943
000090 a0 bb d6 bc 68 49 e2 bc ff 5e 32 3b 27 80 11 bc
       -0.026212513 -0.027622893 0.0027217267 -0.008880652
0000a0 08 58 8b 3b 3e 14 00 bd 17 6e 71 3c 6f 2f 5e 3d
       0.0042524375 -0.031269304 0.01473572 0.054244455
0000b0 16 e0 2b 3d 85 db 4a bd e2 1f 29 bb 32 74 42 bd
       0.041961752 -0.049525756 -0.0025806357 -0.047474094
0000c0 17 cf 06 bd a3 44 c7 3c a3 3d 6a bb 3f 8a d0 bc
       -0.03291234 0.02432472 -0.0035742305 -0.025456546
0000d0 57 44 b0 3c 30 dc 63 bb b8 c9 3f 3c 26 50 4a 3d
       0.021516962 -0.0034768693 0.011705808 0.04939284
0000e0 5f 9d 5d 3d dd 25 67 3c fa ed 0f bd 70 fb cd bc
       0.05410516 0.014108148 -0.03513906 -0.025144309
0000f0 b9 c1 10 bd ec 50 e7 bc 4b 40 03 3d d1 cc 15 bd
       -0.035341 -0.028236829 0.032043736 -0.03657228
000100 12 9b c7 bc 74 0f fb bc a3 7f d2 39 fc fa c2 3a
       -0.024365935 -0.030647017 0.00040149418 0.0014875825
000110 ee b5 35 3d 5b 74 84 bc 8b 41 10 ba 74 06 2f bd
       0.044362955 -0.016168764 -0.0005502931 -0.042730764
000120 7b 5a 62 3d 77 37 da 3c 67 9e 95 bc 0d 99 1e 3d
       0.05526207 0.026637776 -0.018264009 0.03872018
000130 cb 5d 30 3d a3 a5 e1 3c 6e e3 6d bc 88 f8 1c 3d
       0.043058198 0.027544802 -0.0145195555 0.038322955
000140 92 92 5b 3d 67 dd 32 3d c9 2f 17 bd c0 b4 2a 3c
       0.053606577 0.043668177 -0.036910806 0.010419071
000150 8c f4 79 bd 4d c6 9e ba 68 9f 10 3d c7 51 2e bd
       -0.061024234 -0.0012113542 0.03530827 -0.042558458
000160 42 ae 28 bd 1b a3 60 3d ce 69 fd 3a c5 9a 9c bc
       -0.04118181 0.05484305 0.00193339 -0.019116769
000170 92 a7 09 bd 82 66 d1 3b 63 ef 0c bc be 49 d4 bb
       -0.033607073 0.0063903937 -0.008601996 -0.0064785173
000180 b5 22 89 3c 33 7d 89 3b 08 f8 d5 bc 3a 14 58 3c
       0.016740182 0.004195833 -0.026119247 0.013188416
000190 e8 fa 95 bc bf 6c 2d bd 85 db dd bc 74 a0 95 bc
       -0.018308118 -0.042340036 -0.027082214 -0.018264987
0001a0 8f 9c 15 3d 96 d7 66 3d f9 71 e2 bc ab b6 46 bc
       0.03652626 0.056357943 -0.027642237 -0.012128512
0001b0 91 d9 46 3d f3 78 72 3c 9d 47 21 bd 0c fd 4d 3d
       0.04854733 0.014799344 -0.039374936 0.050290152
0001c0 d7 3a b7 bc d8 b4 57 bd 1d e2 57 bd b9 f3 66 bd
       -0.022366924 -0.0526627 -0.052705873 -0.056384776
0001d0 c7 3e 21 3b ae b6 8c bc 48 10 a0 bc 05 dd 27 3d
       0.0024604069 -0.017176952 -0.019539014 0.040982265
0001e0 b4 e2 46 bd d1 f9 3b bc b7 0a 43 bd f3 cb 36 bd
       -0.048556045 -0.011473135 -0.04761764 -0.044628095
0001f0 9f 35 84 bb ab 37 08 bd 75 1d fd bc 61 e5 98 bc
       -0.0040347124 -0.033256214 -0.030897835 -0.018664064
000200 fb 0d 07 3c 4e 4e 80 3c 2e bb 07 3d f6 3f 66 bd
       0.008243079 0.015662339 0.033137493 -0.05621334
000210 9a 98 6c bd d5 47 0a bd cf ce 87 3c 1b 3a 8b bc
       -0.05776272 -0.03375991 0.016578106 -0.01699548
000220 56 72 00 3c cb e0 ca bc 62 33 4a bd 36 24 c2 3c
       0.00783976 -0.024765393 -0.04936541 0.023698907
000230 04 b7 7c bd 56 a3 7c 3d d2 57 52 bd 3d 0b 0d bc
       -0.061697975 0.061679207 -0.051353283 -0.008608636
000240 b4 fd 67 3d 97 91 12 bd 6b d2 28 bc 3c 91 7b bd
       0.056638435 -0.035783377 -0.010304074 -0.061417803
000250 f5 d6 62 3b ec 3a 8c bc 4e 3f 37 3c 14 c5 56 3d
       0.0034612988 -0.01711794 0.011184527 0.052434042
000260 06 68 17 bd c4 09 70 bc 08 15 20 3d 1f d4 0d bd
       -0.03696444 -0.014650766 0.039082557 -0.034626123
000270 c6 01 de bc 62 34 05 3d 1d 57 af bc 77 53 2a bd
       -0.027100455 0.03252066 -0.021403844 -0.041583505
000280 97 7e 37 bd 5f 38 8a 3c 55 75 7e 3d ee 37 44 bb
       -0.04479846 0.016872583 0.062123615 -0.0029940563
000290 7c 4e 5d bd d0 e3 b5 bc 7d fd 44 3d 70 81 3e bc
       -0.054029927 -0.022203356 0.048093308 -0.01162754
0002a0 f6 f1 3b bd d7 95 09 bd de aa 72 bd de fd 16 3d
       -0.04588505 -0.033590164 -0.059244983 0.0368632
0002b0 eb 22 1d bd 13 70 49 bc 96 e4 33 bd 72 a4 65 bd
       -0.03836338 -0.012294787 -0.04391917 -0.05606503
0002c0 5e f8 49 3d ba 4b 87 bc 31 48 bb bc c4 56 76 3c
       0.049309127 -0.016515601 -0.022861572 0.015035335
0002d0 1d f4 03 3b 69 d2 9f bc 3d 0e 24 3d 9b 66 c9 3c
       0.0020134517 -0.019509511 0.04005264 0.024585059
0002e0 63 02 48 3d ee 43 0d bd 50 9d 43 bd ba 82 30 3c
       0.0488304 -0.03448861 -0.047757447 0.010773355
0002f0 5f 60 e2 bc 02 aa 63 3d cb ff 68 bd 69 68 62 3d
       -0.027633844 0.055582054 -0.05688457 0.055275355
000300 86 72 18 bd 05 dc 18 3d 96 f6 da bc 90 4e 52 bc
       -0.037218593 0.037319202 -0.02672891 -0.012836114
000310 6c 59 32 bc bc 93 16 3b a0 5e 9d 3c 0e 74 61 3c
       -0.010885578 0.002297624 0.01921016 0.01376058
000320 cf ba 55 3d c0 bd fc 3c a0 29 a9 3c 73 0d d8 3c
       0.052180108 0.030852199 0.020649731 0.0263736
000330 8b ff a1 bc 45 35 08 bd dd 9d c3 3b c8 e0 2f bd
       -0.019775173 -0.033253927 0.0059697465 -0.042938977
000340 33 ed 4e 3d 5f 24 04 bd 77 2c 08 3d eb 7f 7e 3d
       0.05051918 -0.03226125 0.03324553 0.06213371
000350 10 8a 2e 3c 3a e4 a8 bc aa 25 96 bb f5 95 45 3d
       0.010653034 -0.02061664 -0.0045821266 0.048238713
000360 90 90 e0 3c 5b 1b 4f bd ea 74 6f bd d1 d7 e6 bb
       0.027412683 -0.050563198 -0.058461107 -0.0070447703
000370 43 e3 c5 bc 01 c8 d1 bc 83 33 a2 3a d6 53 95 bc
       -0.024156218 -0.025608065 0.0012374971 -0.018228453
000380 9c 21 39 bd f0 fa 2c bd ec 1a 1c bd 63 12 12 bb
       -0.045198068 -0.0422315 -0.038111612 -0.0022288791
000390 db 1a f9 3c 4d 03 55 bc 9a 58 90 3c 96 5d 3c 3d
       0.030408313 -0.013001275 0.017620374 0.045987688
0003a0 68 da fa bc 73 26 c6 3c 21 c1 bc bc 6d 59 b4 3c
       -0.030621722 0.024188256 -0.02304131 0.022015298
0003b0 ea 04 94 bc fe 4c 2d bd 43 ab a9 3c 3b ad 22 3d
       -0.01806875 -0.042309754 0.020711547 0.039715987
0003c0 80 30 10 3d 05 47 c0 bc 89 d0 5d 3d a8 a4 69 3d
       0.035202503 -0.023471365 0.054153953 0.057041794
0003d0 48 f7 42 bd d1 97 89 bc e4 f6 bc 3c 13 fe 75 3c
       -0.047599107 -0.016796025 0.023066945 0.015014189
0003e0 05 d1 4e bd e3 c8 99 3c a6 8d 45 bd f7 21 3c bd
       -0.050492305 0.018772548 -0.04823079 -0.04593083
0003f0 f3 30 7b bc d5 af b7 bc 37 df de bc e8 3a 64 bb
       -0.015331495 -0.02242271 -0.027206047 -0.003482515

fc1.bias f4 [120]
000000 e9 b2 20 3c 6a c4 96 3d d3 1e 98 3c 7b 4b 89 bd
       0.0098082805 0.07361682 0.018569386 -0.0670385
000010 48 4e 40 bd c9 0a c3 bc 81 52 43 bd ee 77 fc 3c
       -0.046949655 -0.023808854 -0.047686104 0.030818906
000020 72 cf ac bb 44 5c 37 bc a4 b6 50 3d 1a e5 c1 bc
       -0.005273753 -0.011191431 0.05095543 -0.023668814
000030 f4 94 03 3c c4 dd 20 bd 1c c9 a6 3b 5e 25 37 3d
       0.008031119 -0.039273992 0.005089892 0.04471337
000040 f3 f4 a6 3b ed 3d 9a bd 9d fa 54 bd 1c f6 52 bd
       0.005095118 -0.07531343 -0.051996816 -0.05150424
000050 33 0c bf 3c 97 ac 38 3d 7e 8b 5d 3d cf c4 2a bc
       0.023321247 0.04508647 0.05408811 -0.010422899
000060 e5 c9 bb 3d 9c e2 b8 bc 86 d1 23 bd b0 88 55 3d
       0.09169368 -0.022568993 -0.03999474 0.05213231
000070 7b b4 5f bd 86 77 d0 3c b5 e3 13 3d e0 39 21 bc
       -0.05461548 0.025447618 0.03610583 -0.009840459
000080 ba 71 51 3c 0e d3 5e 3d 14 10 17 bd ca e4 ce 3d
       0.012783462 0.054400496 -0.036880568 0.10102232
000090 59 d5 b6 3c 4a 28 59 3d 49 e3 55 3d eb a3 ad 38
       0.022318529 0.05301694 0.05221871 8.279815e-05
0000a0 aa 85 1a bd 25 91 91 bb ff 81 7b bc 67 f9 b7 3d
       -0.03772513 -0.0044423514 -0.015350818 0.089831166
0000b0 73 86 86 bc b8 c1 fd 3c 88 95 08 3d 2c 5e 5f bc
       -0.016421532 0.030976161 0.03334573 -0.013633292
0000c0 5b 9f b6 3c f2 56 e2 bc 12 5b 2c 3a 60 7e 16 bb
       0.022292783 -0.02762935 0.000657485 -0.002296351
0000d0 26 e1 87 bb 2b 17 2b bc 45 78 04 3c b6 80 0a 3d
       -0.004146713 -0.010442535 0.008085315 0.033814155
0000e0 40 40 8b bb da 0e d1 3d 1a 1c 00 bd 6a de 20 3c
       -0.0042496026 0.10207911 -0.0312768 0.009818653
0000f0 4e ff 92 3d c0 69 09 3d 63 d0 c2 bc b5 0e 6f bd
       0.07177602 0.033548117 -0.023781007 -0.058363635
000100 fa c6 36 bd cb 67 eb 3b 18 26 e6 bc 64 41 89 bd
       -0.044623353 0.007184004 -0.028094336 -0.067019254
000110 f9 c2 77 3d 7c a3 cb bb 58 4f aa 3d 11 f2 5a bd
       0.060488675 -0.006214557 0.08315915 -0.05345351
000120 f2 96 a5 3d 9a fa 99 bc ef 6d b1 3d d7 d9 4b 3d
       0.08085431 -0.018796254 0.08663546 0.049768295
000130 ba 21 53 bd 94 03 54 3b 3d 6a 81 3c 6c 9f b2 3d
       -0.051545836 0.0032350766 0.015797729 0.087218136
000140 fe ad 8b ba ec 7f c7 bc b8 c3 21 3d 51 7a ed bb
       -0.0010656712 -0.02435299 0.039493293 -0.0072472473
000150 42 29 30 bd b3 c6 3d 3d db f2 f6 ba 12 22 96 3d
       -0.043008097 0.046332072 -0.0018840687 0.07330717
000160 48 9d c0 3a 77 a8 2c bd a4 a6 0f 3d b7 90 57 bd
       0.0014695311 -0.042152848 0.03507103 -0.052628245
000170 f9 59 e4 3c 03 d2 e7 3c 68 e8 23 bd 83 f0 61 bb
       0.027874934 0.028298384 -0.04001656 -0.0034475632
000180 a0 84 03 bd d3 45 81 bc b0 6e 80 3c a0 58 3e bb
       -0.032108903 -0.015780365 0.01567778 -0.0029044524
000190 4c 6d 5b 3b b9 02 48 3d a5 c9 56 bd aa 74 b2 bc
       0.0033481894 0.04883072 -0.052438397 -0.021784145
0001a0 9a be 4a 3c 38 d6 45 bd 08 29 59 bd 1c 9c 4e 3d
       0.0123745445 -0.048299998 -0.053017646 0.050441846
0001b0 c8 94 0b 3d 3e 83 8b bd 7c e7 53 bd 98 7b 10 bd
       0.034077436 -0.06812142 -0.051734433 -0.03527412
0001c0 8f cc fa 3c 92 d3 96 bd e7 ac 16 bd e9 a5 e3 3c
       0.03061512 -0.073645726 -0.036785986 0.027789073
0001d0 05 a8 87 3c 04 6a b9 3c f8 48 3c 3d 28 28 42 3d
       0.01655961 0.02263356 0.045968026 0.047401577

fc2.weight f4 [84, 120]
000000 74 51 b5 bd 8d 3a 74 bc 1d 8e 8a bb de d0 d3 3d
       -0.088534266 -0.014906538 -0.004228367 0.10342573
000010 85 05 90 bc 05 0b 4a bd 8a 49 69 bd 6e 8c 58 3c
       -0.017580757 -0.049326915 -0.056954898 0.013217075
000020 e8 e4 d5 ba 49 da 62 bd 6b e0 f9 bd 80 15 00 be
       -0.001631883 -0.055383954 -0.122010075 -0.12508202
000030 02 dc 17 bd 17 a3 92 bd f0 4e fe 3c e0 cb 83 bd
       -0.03707505 -0.07160013 0.0310435 -0.064353704
000040 b8 b8 8f 3d 00 eb d9 3d 4a 6a 7a bd 81 d4 ac 3d
       0.07017654 0.10640526 -0.06113652 0.084389694
000050 92 cb 0a 3e 88 33 54 3e 8c 48 3e bc 2b d0 00 3d
       0.13554218 0.20722783 -0.011613976 0.031448524
000060 ca 65 01 bd 53 8e eb 3c db f6 16 be 81 06 0f 3d
       -0.031591214 0.028754389 -0.14742605 0.034918312
000070 06 f4 48 bb 98 8f 32 3d 4d e6 02 be 4a 36 39 3d
       -0.0030663027 0.043593973 -0.12783165 0.04521779
000080 22 1c 9f 3d b4 fb cb bd bd e9 a7 3d 13 ff 9d bd
       0.07769038 -0.09960118 0.08198879 -0.07714667
000090 ae e9 c5 3c 8e 0a 5f 3d 8f 06 62 3d 8a 2d c8 bb
       0.024159279 0.054453425 0.055182036 -0.0061089443
0000a0 24 02 95 3d fd c0 c5 bb fd 66 5a bb 9f 39 a6 3d
       0.07275799 -0.006034969 -0.0033325546 0.08116459
0000b0 64 7e ce b9 42 eb 8c bd 2a 0f 2b 3c 02 34 92 3d
       -0.0003938555 -0.06880809 0.010440627 0.07138826
0000c0 e6 e6 03 bd cc 99 a7 bb bf a3 1f be 7f 7d 5b bd
       -0.032202624 -0.0051147696 -0.15589808 -0.05358648
0000d0 83 67 04 3d a7 bd 1e 3c bc 54 98 3d a4 ec 20 be
       0.03232528 0.009688771 0.07438037 -0.15715271
0000e0 aa 1d 5c 3d 26 bd c9 bc 11 e5 01 3b 14 86 14 3e
       0.053739227 -0.024626326 0.0019820372 0.14504272
0000f0 6f dd af bd 44 b2 f0 bd b6 98 87 3d d4 d6 29 bc
       -0.08587157 -0.117527515 0.06620924 -0.01036616
000100 92 0d 09 3d 5c 27 34 3d 6a 21 68 3d 23 29 14 be
       0.033460207 0.04398285 0.05667249 -0.14468817
000110 42 fc b7 3d b1 d5 21 3d fa c1 7b bc 8e f5 05 3e
       0.08983661 0.039510433 -0.015366072 0.13081953
000120 c9 3d 7d 3d 9f 12 66 bc e0 48 a6 bc 8c a2 bb 3c
       0.0618265 -0.014042526 -0.020298421 0.022904657
000130 13 e1 d3 bd 6a 68 7c 3d 73 e5 a3 bd eb 66 b3 bd
       -0.10345664 0.061623015 -0.08002748 -0.087598644
000140 dd 56 1e bd 05 ed b6 3c 39 4a 88 3c 06 80 c9 3d
       -0.038657058 0.022329817 0.016636955 0.09838872
000150 08 95 67 bc 62 12 8c 3d 46 bd d3 3d ae e9 b4 3b
       -0.014134653 0.06839444 0.103388354 0.005521021
000160 a8 76 13 3e cc da 3e bd 9f ee 0a 3d d9 7e 88 3c
       0.14400733 -0.04659538 0.033918973 0.016662048
000170 e2 10 ec 3b 56 c8 8e 3c 66 ca d4 3d 1e 4d 28 3a
       0.007204161 0.017429512 0.10390167 0.0006420183
000180 6b 9e a6 3d 45 57 f7 bd 19 41 a1 bd 2f 4a 05 be
       0.081356846 -0.12077192 -0.078737445 -0.1301658
000190 ef 35 02 bc 77 b4 f4 bd 11 d5 d4 3d 58 ce 58 3b
       -0.007947429 -0.119484834 0.10392202 0.0033081975
0001a0 3b 2c 06 3d 07 d7 7f 3c d7 2a 0e 3e 13 f5 cd 3c
       0.032757025 0.015615231 0.1388353 0.025141275
0001b0 fb 98 01 3d 87 62 57 bd c7 80 3e 3d 05 ad 3f bd
       0.031640034 -0.052584197 0.04650953 -0.046795864
0001c0 6f ea af bc f0 64 e8 3d b1 c9 80 bc ca b6 2b 3c
       -0.021474091 0.11347377 -0.015721174 0.010480592
0001d0 90 62 de 3c 5a d7 12 3e f9 66 d1 bc bd 6f 25 be
       0.027146608 0.14339963 -0.025561797 -0.16155906
0001e0 e0 7f b1 3c 66 18 1a 3e d7 08 9b bc e2 53 0b 3d
       0.02166742 0.1504837 -0.018925114 0.034015544
0001f0 47 b6 43 bd 31 1a a9 3d 26 8c a1 3a 6b 62 3e 3e
       -0.047781255 0.08256949 0.0012325093 0.18592231
000200 0c 61 e0 3c e4 d3 6c bd ae a4 9c 3c 57 80 f6 3b
       0.027390026 -0.057819262 0.019121494 0.0075226235
000210 76 9e 0b 3e f4 cb 3b bd ea f9 25 3c f7 02 0d 3d
       0.13634667 -0.0458488 0.010130385 0.034426656
000220 45 bb bc bd a9 5a cd 3d 7f 91 af 3c df a4 32 bc
       -0.09215406 0.10027058 0.021431683 -0.010903566
000230 49 c4 4d 3d 6e ff 31 3d df a5 81 3d 60 d8 fe 3d
       0.05023602 0.043456487 0.063304655 0.12443614
000240 83 0e 07 bc 1b 91 86 bc d6 69 89 3c df 7a 2e bd
       -0.008243206 -0.016426614 0.0167741 -0.042597648
000250 8a 9a 1f bd 6e f3 0b bc f1 0e 37 3d 07 d0 dd 3c
       -0.03896574 -0.008541925 0.044691984 0.027076734
000260 47 29 51 bc 9b 90 0e be 35 21 bb bd 73 ab 98 bd
       -0.012766189 -0.1392235 -0.09137193 -0.07454576
000270 a5 cf 71 3d 50 d4 de bd ef 0c 24 3c 5b cb 4c bd
       0.059035916 -0.10880339 0.010012849 -0.049998622
000280 e8 53 b7 bd 1b 8d b3 3d ed 1a ca 3d cb 12 79 bc
       -0.08951551 0.08767148 0.09868417 -0.0152022345
000290 7e 4d 62 bd 67 3b bb bb 33 e9 af 3d b8 eb a4 3c
       -0.055249684 -0.0057138684 0.08589401 0.02013193
0002a0 9e 52 af bc db 49 04 3e 40 c2 d5 bc 79 a4 e8 bc
       -0.0214017 0.12918799 -0.026093602 -0.02839874
0002b0 93 3c 5a bd e9 fe 8e bd 4b fc 45 be f3 33 eb 3d
       -0.053280424 -0.06982214 -0.19334523 0.11484518
0002c0 34 ec 3c 3d 8e d5 02 3d 8f 94 38 3d 7e a8 63 bd
       0.0461237 0.031941943 0.04506355 -0.05558061
0002d0 1a cc de 3d a3 66 20 bd 44 9f 09 3d 7a 75 da 3c
       0.10878773 -0.039160382 0.033599153 0.026667345
0002e0 ce 24 f6 bc 88 63 5c bd 97 c7 e2 ba 34 a0 37 3d
       -0.030046847 -0.053805858 -0.0017301914 0.044830516
0002f0 96 6f c7 3d 70 3e 9c bd 63 16 53 ba 73 b5 43 bd
       0.0973808 -0.076290965 -0.0008052347 -0.047780465
000300 13 f4 f7 bc 3c 10 80 bd 16 12 dd bc 3d 03 a0 bd
       -0.03026775 -0.062530965 -0.026986163 -0.07813118
000310 15 fa ba bd 0c 02 68 3d d0 60 3b bd cd a6 f7 bd
       -0.091297306 0.056642577 -0.045746624 -0.120923616
000320 1b d1 97 3d ca 7d b3 3d 14 0b 61 bd b8 61 9b 3d
       0.074129306 0.08764227 -0.054942206 0.07586998
000330 45 f1 91 3d bc 87 96 bd 6d 48 e4 bc a5 00 14 3d
       0.07126097 -0.07350108 -0.027866567 0.036133427
000340 da ff ae bb 74 25 b1 bd 91 27 e8 bd 22 4d 2c 3d
       -0.0053405585 -0.08649722 -0.11335672 0.042065747
000350 be 0e 85 3d c8 44 c6 bd aa 55 49 3d 34 83 c8 bc
       0.064969525 -0.09681088 0.04915396 -0.024476625
000360 2f 14 05 be 0a 25 a1 bc 86 0d 9a bd d7 a4 97 bd
       -0.1299598 -0.019670982 -0.07522111 -0.074044876
000370 7d 08 2d 3d 1c 9b e2 bc 5d c0 c0 3d e3 78 9e 3d
       0.042244423 -0.027661853 0.094116904 0.07737901
000380 09 50 88 bd b0 60 c1 3d 71 e7 a2 bd c1 e8 90 bc
       -0.066558905 0.0944227 -0.079543 -0.01768911
000390 50 26 8d 3c 25 f4 5c be a3 92 d1 3c dc 5d 38 3d
       0.017230183 -0.21577509 0.025582617 0.045011386
0003a0 ff 6c 09 3e 33 1c dd bd 85 e5 17 3e 09 dd 57 bd
       0.13420485 -0.10796394 0.14833649 -0.05270103
0003b0 3b e5 da bd 50 7b e0 bc fa 45 a5 bd 19 cb bd 3d
       -0.106882535 -0.02740255 -0.080699876 0.092672534
0003c0 29 12 11 3b 4a cf a2 3d 6c aa ca 3c 2e bf d5 3c
       0.0022136068 0.079496935 0.024739467 0.026092138
0003d0 6f d6 05 3d 60 7b 10 3d bc 0c 50 bd 51 50 9b 3b
       0.032675203 0.03527391 -0.050793394 0.004739799
0003e0 9f 26 7b 3c bc 8b a1 bd ee 63 ec 3c e5 9b 56 bd
       0.015329032 -0.0788798 0.028856244 -0.052394766
0003f0 63 4d 74 bd 96 b3 a1 3d b3 06 16 bd 51 49 ad 3d
       -0.059644114 0.078955814 -0.036627483 0.084612496

fc2.bias f4 [84]
000000 8a 24 33 bd ef 14 2f 3c 30 73 58 3b 24 5a b7 bc
       -0.04373602 0.010686143 0.0033027641 -0.02238185
000010 c2 b7 cf 3c ac 14 97 bd b4 b9 09 3d 03 43 a4 3c
       0.025356177 -0.0737699 0.033624366 0.020051485
000020 79 db 94 3d 7a 78 aa 3d 04 dd db 3c 18 cd 95 3c
       0.072684236 0.0832376 0.026838787 0.018286273
000030 dd c4 5d bd 68 f1 27 bc 9b ae 96 3d 3c 11 8d bd
       -0.05414282 -0.010250427 0.07357522 -0.06888053
000040 ce d7 02 3d 44 32 20 bd 13 60 80 bd cf 7d 92 3d
       0.03194409 -0.039110437 -0.06268325 0.07152902
000050 21 5b a7 bd 7e d0 85 3c 1b 8b 3b 3d cd 64 30 3e
       -0.08171678 0.016334768 0.04578696 0.17225952
000060 e6 bb 31 bd 6e a6 a4 bc b5 9e 3f bd 15 19 73 bd
       -0.043392085 -0.020098891 -0.046782214 -0.059350092
000070 f3 72 8b bd f1 ed 1e 3d 24 56 fb bc d3 71 41 3d
       -0.06809034 0.038801137 -0.030680723 0.04722769
000080 bf a6 0a bd 63 f0 f1 bc 97 83 b7 bd 66 bf 05 3d
       -0.033850428 -0.02953357 -0.08960646 0.032653235
000090 cb 64 3e bc ff b5 da 3c 13 8d d8 3d 9e fc 13 3d
       -0.011620711 0.02669811 0.10573783 0.036129586
0000a0 94 2c e4 3d 19 1a 4a bd 6f 76 4d bd a2 ba af bd
       0.11141315 -0.049341295 -0.050161775 -0.08580519
0000b0 37 17 b8 3d a1 04 64 3d a2 a6 6a 3d b2 bf 2d 3e
       0.08988803 0.055668477 0.05728782 0.16967657
0000c0 ae 27 c4 3d ab 94 03 bb c3 27 9d 3d 5e 4d a5 3d
       0.09577881 -0.0020077627 0.076735996 0.08071397
0000d0 7c 8b b0 bd a0 32 9b bd c5 5a 47 bd 8a 34 ce 3d
       -0.086203545 -0.07578015 -0.04867055 0.10068615
0000e0 2c df d9 bc c3 fe 93 3d 4d 65 88 3c 46 7b 2d bd
       -0.026595674 0.07226326 0.016649866 -0.04235389
0000f0 e4 79 65 bd 77 1f 83 3d 50 d5 ae bd 3a 1b be bd
       -0.056024447 0.06402486 -0.0853678 -0.09282537
000100 21 49 b5 bc f0 8f 15 bb db cf 86 3d 13 63 37 bc
       -0.022129597 -0.002282139 0.06582614 -0.011193055
000110 35 a8 59 bd 72 07 97 3d df e9 69 3d e2 a3 13 3d
       -0.05313893 0.07374467 0.057107802 0.036044963
000120 20 32 45 bd 24 16 21 3d ba 8a e9 3d fa 23 17 3e
       -0.048143506 0.039327756 0.11403413 0.14759818
000130 8c 3f f0 3d ac e9 1e bc 4a 7a 56 bd 69 34 cd 3d
       0.117308706 -0.009699266 -0.052362718 0.10019762
000140 e5 38 2d bd 85 3a bf 3c c1 10 e6 3c 23 20 64 bd
       -0.042290587 0.023343334 0.02808416 -0.05569471

fc3.weight f4 [10, 84]
000000 45 f7 1b be a0 40 4c 3d e7 6e d1 3c ac eb dd bd
       -0.15231045 0.04986632 0.025565578 -0.108359665
000010 86 19 a8 3e 15 9c 95 3e a5 45 98 3c 0d 12 ec 3d
       0.32831973 0.29220644 0.018587897 0.115268804
000020 61 85 58 3e 43 d0 98 bd b8 ea 19 be 5f 6b f0 bd
       0.2114463 -0.07461598 -0.15030944 -0.117392294
000030 50 7f ec bc f6 16 07 3e 8c 6e f8 bd f1 a9 87 3d
       -0.028869301 0.13192353 -0.1213046 0.066242106
000040 d6 3c e0 bd 7b 61 82 bc 12 60 07 bc 5c e8 8b 3e
       -0.109491035 -0.015915623 -0.008262651 0.27325714
000050 99 99 0c be 8c de 70 3d e8 f8 58 bd ec 05 be 3d
       -0.13730468 0.058805987 -0.05297175 0.09278473
000060 a4 09 e0 3c c3 d9 ad 3d ce bf 22 3e 19 6b 85 3d
       0.027348347 0.084888004 0.1589348 0.06514568
000070 89 40 a9 bd c2 9b 59 3e f1 d7 c8 3c 07 39 38 3e
       -0.08264262 0.21250823 0.024517031 0.17990504
000080 71 f0 85 3b c1 07 c1 bd d9 f4 46 bd 35 f9 86 bd
       0.0040875007 -0.09425307 -0.04857335 -0.06590501
000090 eb f8 05 3e 1a f7 9f be e7 85 18 be 0c f4 1e be
       0.13083236 -0.3124321 -0.1489483 -0.15522784
0000a0 83 7a 55 be 84 83 b6 3d 7f 77 ac bd 54 3a b3 3d
       -0.20847516 0.08911803 -0.084212296 0.087513596
0000b0 62 ad 91 bd 62 af b4 3e 29 ee 18 be ea 38 ee bd
       -0.07113148 0.35290056 -0.14934601 -0.11631949
0000c0 07 22 72 be 11 ae 61 bd 65 d8 b0 3d 7c f0 a6 3d
       -0.23645793 -0.055097643 0.08635024 0.081513375
0000d0 ec 33 74 bd fe 45 5c 3d 1f 50 b0 ba f3 64 8c be
       -0.05961983 0.053777687 -0.0013451612 -0.27420768
0000e0 25 08 f9 bd 30 82 68 3d ad 34 57 3d 25 4e b6 bd
       -0.121597566 0.05676478 0.05254047 -0.08901624
0000f0 ab 75 7a 3d f3 94 78 be 0f e9 ac 3c d5 61 1c bd
       0.061147373 -0.2427557 0.021107225 -0.038179237
000100 32 2b 97 bd b6 e1 84 3c f7 79 0a be 14 43 fe ba
       -0.07381286 0.016220909 -0.13523088 -0.0019398653
000110 a5 5b 22 3c 18 d0 4b bd e2 e7 9a 3d d8 be 43 3e
       0.009909545 -0.049759 0.075637594 0.1911577
000120 a6 64 a9 bd eb c0 8a be e7 0f cb 3c d5 eb 98 be
       -0.0827115 -0.2710031 0.024787856 -0.29867426
000130 d1 97 53 bc 42 0b ce bd 78 92 d8 bc 3e ed 48 be
       -0.012914614 -0.10060741 -0.02643703 -0.1962175
000140 56 b3 4f 3e aa 1d 52 3e 59 31 92 3d e1 08 bd bb
       0.20283255 0.20519128 0.071383186 -0.0057688807
000150 38 56 ff bd d1 0c 40 be 9c 23 14 3d 34 25 1f 3e
       -0.12467617 -0.18754889 0.036166772 0.15541536
000160 a7 9c 18 bd 28 9e 92 3a 03 7d b7 bd ab bd 96 be
       -0.03725877 0.001118605 -0.08959391 -0.2944158
000170 0b 89 98 bd e4 9c 3f 3e bf 55 fd bd c1 16 b7 3d
       -0.07448014 0.18712193 -0.123698704 0.08939887
000180 71 69 59 bc 17 17 c8 bd 90 65 a9 3e 25 42 f1 3b
       -0.013269768 -0.09770029 0.330853 0.0073626214
000190 f9 8f cd 3d 70 6d bd 3c aa 40 8e 3b 0a 6a cb 3d
       0.10037226 0.023123473 0.0043412047 0.09932335
0001a0 8c 2b 79 bd 5f 10 a0 be 8e 13 de bd a2 d3 91 3e
       -0.060832545 -0.3126249 -0.108435735 0.28481776
0001b0 92 70 a7 be 60 03 8c 3d f0 7f 9d bb 76 3a cc bd
       -0.32703072 0.06836581 -0.004806511 -0.09972088
0001c0 2b 21 01 3d 7f a6 6d 3e 5c 95 c9 3b 79 68 c2 3d
       0.031525772 0.23208044 0.006151838 0.09492583
0001d0 38 46 22 3c 2f a5 0b bd 08 01 c9 3d 87 eb 38 bd
       0.009904437 -0.03409308 0.0981465 -0.04514649
0001e0 91 58 19 be d4 f0 8c 3e 19 5a 08 3e f3 51 86 3e
       -0.14975192 0.27527487 0.1331562 0.26234397
0001f0 0a 47 59 3e c4 1f 9b be 1e 53 79 3d 37 32 f6 3d
       0.21218506 -0.30297673 0.060870282 0.120212965
000200 67 e4 97 bc f2 75 37 be 1e a8 84 be 3f c9 07 3e
       -0.018541528 -0.17916086 -0.25909513 0.13260363
000210 59 ee 65 bd 22 96 27 be 77 a2 26 be b8 2d 00 be
       -0.05613551 -0.16365865 -0.16272913 -0.1251744
000220 69 d8 a6 3d 8d 20 cb ba 6a 3b e6 3c 11 e5 f5 3d
       0.08146746 -0.0015497372 0.028104503 0.120065816
000230 46 59 48 bd ff 0b ac 3e 27 4a 5f be e0 20 82 bc
       -0.048913263 0.33602902 -0.2180563 -0.015884817
000240 20 f5 28 3e ed 83 f5 3d fc 5e 0d 3e df 38 10 bd
       0.16499758 0.119880535 0.13805765 -0.035210487
000250 92 4f 38 bd fe 85 88 bd 1e 18 47 be 41 0d 3e bb
       -0.04499776 -0.06666182 -0.19442794 -0.00289996
000260 0c 2b b2 3c d0 34 95 3d 56 b6 86 bd 53 4e 18 3e
       0.021749042 0.07285464 -0.065777466 0.14873628
000270 a8 25 94 3e 99 65 09 3e e6 f3 57 bd 0c f0 7b bc
       0.2893498 0.13417663 -0.052722834 -0.015377056
000280 89 11 86 bd b3 1a 73 be db 70 d8 bd f1 d3 8b 3e
       -0.06546313 -0.23740654 -0.105684005 0.27310136
000290 78 a0 a6 be a2 fb 61 be 5a 56 4e 3d 91 44 ad 3d
       -0.32544303 -0.22068647 0.05037532 0.08460344
0002a0 0e bf e9 3d 40 bd 1f be c1 26 32 3b 98 aa 24 be
       0.11413394 -0.15599537 0.0027183744 -0.16080701
0002b0 6e fa 72 be 7a 7d a5 bd ab f8 3d bd 6a 62 56 3e
       -0.23728344 -0.080805734 -0.046379726 0.2093598
0002c0 9e e8 65 bc 9b f5 6e be c3 ae 32 3e 93 f6 56 be
       -0.014032511 -0.23335879 0.17449479 -0.20992498
0002d0 a6 5f 9f 3d d6 6a 41 3e 89 6a 86 bd ff 9a 8f bd
       0.07781915 0.18888411 -0.06563289 -0.07011985
0002e0 af 64 99 3d 5d 19 88 3d 13 e5 41 3d 64 f5 ff 3d
       0.07489907 0.06645463 0.047337603 0.124979764
0002f0 b7 0c 0b 3d 6b 09 1e 3c 2f 3f 5f 3b 19 48 01 be
       0.033947673 0.0096458 0.003406476 -0.1262516
000300 05 00 2f ba d5 51 85 bd 9f 16 c6 3b 4e 66 1c bd
       -0.0006675723 -0.06509749 0.006045177 -0.038183503
000310 cf 52 0d 3d 37 51 94 3d 09 6c 97 bc 97 f6 85 3e
       0.0345028 0.07242053 -0.018484132 0.26164696
000320 4b da cb bd c3 82 c1 bd e3 3c 72 bd 52 8c 09 3e
       -0.099537455 -0.09448769 -0.059140097 0.13432434
000330 90 d4 3a be 04 e3 d3 bd c9 80 ac 3d 07 77 79 be
       -0.18245149 -0.10346034 0.08423001 -0.24361812
000340 e0 46 2a be 8d fe ef bd 20 f9 8f 3d 6a 6d 9d 3c
       -0.16628599 -0.117184736 0.07029939 0.019217212
000350 46 5f 35 3c f9 f2 25 3c 82 10 c1 3d 75 77 a7 be
       0.011070078 0.01012873 0.09426977 -0.32708326
000360 90 10 f3 bc 84 6b 97 3d 50 54 52 bd 03 94 70 3e
       -0.029670984 0.07393554 -0.051349938 0.23493962
000370 d4 5e 98 3d d1 dd a7 bb 10 c0 4c bd 48 67 37 be
       0.07439962 -0.005122878 -0.049987853 -0.17910492
000380 74 6f 3b 3d d9 ba 76 3e 53 63 1b bd bf f7 f0 3c
       0.045760587 0.24094714 -0.03793652 0.02941501
000390 77 a3 fe bd 7f 2f 1f 3e 39 30 0e 3e cc 39 8d ba
       -0.12433522 0.15545462 0.13885583 -0.0010774671
0003a0 c1 75 86 3c 37 6a cf bd df 7f 00 be f4 ac 0c 3c
       0.016413571 -0.10127681 -0.12548779 0.008586157
0003b0 76 c7 67 3d d3 6f 89 3e 49 fb 97 3e 88 60 ee bd
       0.056586705 0.26843128 0.29683903 -0.116395056
0003c0 48 ff e7 bb 91 60 be 3e ba ab 77 3e 5d 5f ca be
       -0.0070799924 0.3718305 0.24186602 -0.3952588
0003d0 50 22 20 3e ba 36 8c bc e9 97 46 3b 79 ff 5d 3e
       0.15638089 -0.01711594 0.0030302948 0.21679486
0003e0 db 27 89 bd 49 6f 13 be 59 f5 be bd 77 3b 94 3c
       -0.06697055 -0.1439792 -0.0932414 0.018094761
0003f0 a2 ec 76 3e 1c b9 4c be 08 1a b5 3d 6a 2d 1e 3e
       0.24113706 -0.19992489 0.08842856 0.15447012

fc3.bias f4 [10]
000000 7c eb 56 3c fe bf 73 3e a6 cd a8 bc 43 36 40 bd
       0.013117667 0.23803708 -0.020605873 -0.046926748
000010 50 74 a6 bd 2f 30 a6 ba 54 37 1a 3d 11 1a 9d bd
       -0.081276536 -0.0012679155 0.03765042 -0.076709874
000020 4a ad 12 3e b5 a4 87 bd
       0.14323917 -0.06623212
